darts_logs/lstm_cpu/checkpoints/best-epoch=13-val_loss=0.00.ckpt (torch, 914619 bytes, 55 tensors)

rnn.weight_ih_l0 f8 [100, 1]
000000 cd be ab 10 83 b9 90 3f 4a 8c 41 f1 0d 2d cc bf
       0.016332672016629957 -0.22012495307999053
000010 f0 70 cf ed c9 e9 a3 bf 98 05 47 47 a5 1b ed bf
       -0.03889304187734577 -0.9096247093331611
000020 05 6f 5e 8b 68 4f f7 bf 06 51 fc 3c ed d4 ec bf
       -1.4568868106934485 -0.9009920302510472
000030 c4 43 7b 37 e0 19 e2 3f 8e c4 e7 53 7d 5b e2 bf
       0.5656586726782895 -0.5736681593681554
000040 5d 9a f5 8d 0c 4d d7 bf d8 36 da 69 11 28 ab bf
       -0.3640777002641807 -0.05304006974357173
000050 20 04 3f 60 7b c9 c4 bf d1 7e 06 5f 2a ea d6 3f
       -0.16239874076384897 0.3580423286420969
000060 3f a2 e8 1e ba 04 a9 bf 94 25 88 f6 89 55 d6 3f
       -0.04886418940833836 0.3489708812272394
000070 90 a0 de 74 bf bb a6 3f 93 3f 40 ec 63 47 f0 3f
       0.04440115262633626 1.017429278235771
000080 77 43 fd ba 53 9e a3 bf db fc 5f cd 5d 52 bf bf
       -0.03831731469711646 -0.12235056175267138
000090 dc 78 10 30 16 c6 f6 bf 8e 8d 63 e3 0b f2 e7 bf
       -1.423361003638596 -0.7482966843785321
0000a0 12 d8 17 fd 6d f3 d4 3f 15 6c 23 7c 87 f0 fa bf
       0.3273577663052275 -1.6837229584841726
0000b0 8a d4 c2 a7 2b e6 f7 bf 3e 1f ee 4d ae 10 ea 3f
       -1.4936939767042383 0.8145362398217697
0000c0 96 53 51 73 14 c2 d4 3f fc bd 52 42 e5 d8 ca bf
       0.3243456960820422 -0.20974412668645914
0000d0 bf fa fe aa 06 1f 89 bf 3d 70 10 7a 80 2e b0 bf
       -0.012266208737739757 -0.06320956211169544
0000e0 d6 7c 66 e6 9e 7f ed bf 12 ad bf 12 66 40 f6 bf
       -0.9218286991125761 -1.3907223446247525
0000f0 10 54 fc 09 6e 8b e9 bf 2b d2 3d d3 a8 ee e7 3f
       -0.7982702441246392 0.7478832364855114
000100 71 a2 b6 75 ba 10 ef bf 54 74 bc d3 50 33 97 3f
       -0.9707920359697494 0.022656691478108407
000110 c7 39 be 37 36 a7 df bf 9f 32 4e 4a 66 e9 c3 bf
       -0.4945807976118001 -0.1555602896518353
000120 55 73 51 17 c6 dc cc 3f 4a ba b0 39 51 59 a6 3f
       0.2254874814851983 0.04365018681743445
000130 88 9a 84 27 07 f2 e4 3f 95 64 6d f5 a5 b4 a1 3f
       0.6545444270930867 0.03458136197031895
000140 78 04 91 29 20 c4 e7 3f 53 7a 35 8c b2 dc bc bf
       0.7426911174626545 -0.11274257586544793
000150 eb fe 5d dc 94 01 d4 bf b1 80 bb 4b 86 00 f9 bf
       -0.3125965263388781 -1.5626280744836942
000160 94 2b 99 96 fd f9 eb bf c2 15 e4 4d 15 f3 da 3f
       -0.8742664281247579 0.42108662230051774
000170 8e 97 05 2f cd 9a f3 bf 6b 4c 69 a7 9d 79 e1 bf
       -1.2252933346548818 -0.5460956830742253
000180 6d a2 58 21 21 9a e8 3f b8 03 0e b6 12 2e e4 3f
       0.7688146258634113 0.6306241565472339
000190 ee 1e 2f 2f 72 ca e7 bf 37 a3 2f 12 9e 9e ec 3f
       -0.7434626504482063 0.8943624835202176
0001a0 84 e0 78 c6 54 94 f3 3f e3 c1 57 33 80 7a eb 3f
       1.2237136605090493 0.8587037089146715
0001b0 21 c1 43 c6 c5 5e e5 3f 98 c6 aa 66 77 9e b9 bf
       0.6678189155918838 -0.10007425552864857
0001c0 e9 f0 40 1b f1 bc f2 bf a8 d9 ce 09 0e 66 f1 3f
       -1.1711283745381087 1.0874157317281092
0001d0 2b b2 f2 12 0f 95 d0 3f a7 f9 58 5b d5 38 ee bf
       0.25909783220666566 -0.9444376739627857
0001e0 5c 19 ab 29 05 d9 ba bf 6f 60 a9 0c 9a 4f f3 bf
       -0.10487396495145646 -1.2069340223879654
0001f0 0e d8 ab 9f 84 9b f2 3f 1a 48 d3 1f 34 33 f2 3f
       1.1629682767065819 1.137500881498005
000200 4f 52 2f ce 5a f9 ee bf c2 8a ab b9 da 96 f1 3f
       -0.9679388072059484 1.0993296864259468
000210 49 f0 66 0e a6 2a d9 3f f8 87 bc f6 b9 47 ea 3f
       0.3932280674596354 0.8212556666442188
000220 12 08 f5 a4 5d cc f5 3f 0a a5 8a 99 6b ec e7 bf
       1.3623939937247127 -0.7476099013194084
000230 78 a5 ea 85 41 ef f4 3f de 3a ad 51 e8 5c de 3f
       1.30841209708373 0.474420623552687
000240 ff 3d 8e cc cf c6 a1 3f 3d d8 b1 af ea cc f2 bf
       0.03471993801133166 -1.175028501803822
000250 82 db 4c 3b c2 b7 f2 bf 46 f7 df d0 e4 14 8f 3f
       -1.1698629681029336 0.01517657053409106
000260 ea 30 68 00 58 c4 a5 bf 7b bc f0 23 1e 6c a9 bf
       -0.04251360897987573 -0.04965299786305707
000270 0f c8 ab c0 be 1e ed bf d8 b6 0e ad f6 20 f6 bf
       -0.910003067312802 -1.3830477485711778
000280 6a 01 1f ff d9 70 f2 bf 12 dc 9a 2a b3 e7 e3 3f
       -1.152551647726876 0.6220336753966669
000290 06 51 af 9e 22 ff eb bf 55 99 97 5d b1 28 db bf
       -0.8748944377244079 -0.4243586935030142
0002a0 27 64 f0 0c 78 a5 cf bf a4 be 3f af 97 34 d3 bf
       -0.24723721153057562 -0.3000849925437967
0002b0 41 89 8d 9f 46 72 d3 3f 61 d5 f3 71 f2 01 d2 bf
       0.303849845708232 -0.28136883857890466
0002c0 98 a0 78 89 06 aa dd 3f f7 f6 4b 0f 70 41 c5 3f
       0.46350253510400696 0.166059501141653
0002d0 0a bf 9a c7 90 9b f0 3f 90 b9 42 e1 2a 0f d5 bf
       1.0379798695611862 -0.32905075071439516
0002e0 d0 ab e9 62 79 2d cb bf 1f 8c e4 67 bd eb f3 bf
       -0.21232526139951213 -1.2450536783515032
0002f0 65 a7 65 bc 16 dd ed bf d3 a5 f9 81 51 b3 da 3f
       -0.9332383803968979 0.4171947259224826
000300 bd f9 e1 8b 99 d1 f8 bf d4 1c 25 47 c1 1a f4 bf
       -1.5511718238991385 -1.2565319804287371
000310 f9 5c c7 cc 21 f9 ef 3f 48 1c 62 bb d1 f7 db 3f
       0.9991616248688892 0.4370006875910275

rnn.weight_hh_l0 f8 [100, 25]
000000 53 35 83 b4 e6 66 bc bf 61 ee 68 5c a5 4d aa bf
       -0.11094514758152245 -0.051373641520027
000010 52 14 72 f1 b3 9b e9 bf 5d 85 7e 8b 99 b4 d5 3f
       -0.800256702016336 0.33914793608172095
000020 eb 70 39 79 db 2f d4 bf 97 0c d5 82 39 f0 99 3f
       -0.3154209789115742 0.025330446825375743
000030 2e cf 68 0c 45 b0 91 3f 8f 46 a1 a0 6b aa d1 bf
       0.01727397812119518 -0.2760266369487931
000040 9d b2 ea 3b 15 d7 cd 3f aa f2 60 1e 63 ba c0 3f
       0.23312631059288416 0.13068808539710136
000050 02 f1 0e 19 96 5a a4 bf db 44 88 99 9c eb d8 3f
       -0.03975361877334828 0.3893805980051874
000060 a3 b5 74 9e 10 75 d7 bf 8c b6 06 86 19 53 df bf
       -0.36652007555206917 -0.48944700325487456
000070 e5 04 b6 0d 92 d7 d8 3f 58 64 c0 5b 71 45 d7 bf
       0.388157380475674 -0.36361345253096067
000080 4e c1 98 bd 37 9a c2 bf 4e df 47 64 34 44 d4 3f
       -0.1453313518300185 0.3166628817848406
000090 2c ac fb 7c 2d 1f dd 3f 43 4a a4 da 14 ac db bf
       0.4550279350793882 -0.43237801887258714
0000a0 51 25 fc 56 de 48 9f 3f 88 40 10 78 60 09 eb bf
       0.030551408824100183 -0.8448946328153548
0000b0 d6 21 5c b9 fc f1 ad bf 54 35 7c dd fa 52 df 3f
       -0.05848684084600435 0.4894396937314316
0000c0 9e ee af be 15 8a dd 3f 73 6f a8 e2 d7 ac c1 bf
       0.46155303594398756 -0.13808725898058646
0000d0 80 07 75 2d bb 90 b0 3f 9f 50 48 73 7f c0 e4 bf
       0.06470842227738949 -0.6484982730494443
0000e0 3b 5c d8 4b 59 c9 d1 3f 6a c8 bb 76 dc 7b dc bf
       0.27791435629609723 -0.44505988688536624
0000f0 9c 0b c6 bd ff 18 71 bf 6a 97 e3 61 f3 3c d1 3f
       -0.004174231519189411 0.26934513625598433
000100 a0 98 c1 da c3 00 e3 bf bf 99 81 5f dc c2 c5 3f
       -0.5938433907110898 0.17000918067351553
000110 8b 20 8b 22 8d 84 e2 3f 63 5b 0f 39 63 ed b6 3f
       0.5786805796315247 0.08955974715295904
000120 e9 78 d1 2a 61 df ce 3f b5 34 7e 96 eb d7 e0 bf
       0.2411920031617634 -0.5263574542347188
000130 c6 68 69 24 b1 34 db bf d8 e5 b0 3e 20 d4 e2 3f
       -0.42509106212459036 0.5883942818101628
000140 7c 5d c8 6a 60 17 e5 bf 06 69 37 aa fa a4 ca 3f
       -0.6591035924529218 0.2081597643980972
000150 2c ff 9f be c2 37 c4 3f 99 5c 61 a1 76 50 b0 3f
       0.15795168216572486 0.06372777404736708
000160 fa 4f 17 85 f9 f8 de bf 35 ec 23 7c 75 99 e8 bf
       -0.48394620892690876 -0.7687327789893802
000170 0d 8e 27 bd 38 13 db bf d6 8b d0 71 02 73 d7 3f
       -0.4230481955730461 0.3663946258040459
000180 fb 0d 01 cd 35 63 d8 3f 04 0f 71 ac 7e 0d e6 3f
       0.38105530757840683 0.6891473167420092
000190 91 f5 b1 1c cd d1 c3 3f 5a cb 97 3f f1 55 cc bf
       0.15484012509470493 -0.22137275319218014
0001a0 95 34 d7 39 5c 59 ba 3f 77 dd bd cf 19 a2 a8 bf
       0.1029260293209567 -0.04811173115643446
0001b0 89 55 ae cb 2c 39 d2 3f f6 27 60 06 f0 ee c8 3f
       0.28473968401643696 0.19479179679211683
0001c0 d3 f6 2f 58 00 e8 8c 3f 42 08 3b 5d 0f f5 b6 bf
       0.014114382449402474 -0.08967681909692352
0001d0 76 7a 88 b2 1b 52 d1 bf d0 f7 ee 0c 34 df d0 bf
       -0.2706364863860594 -0.26362324965509476
0001e0 a0 19 7d 34 6e 63 d9 3f 0f c4 6b d0 53 22 cc bf
       0.39669375539633656 -0.21979758908085542
0001f0 6b 98 82 8d 98 eb d1 3f be 97 80 99 8b 95 c6 3f
       0.2800046331343597 0.17643876071195835
000200 97 92 d8 9c 7f 29 d5 bf b0 92 5c 25 d2 a0 c1 3f
       -0.33065786664000413 0.1377203638486626
000210 d8 8d e7 4e 88 6f 93 3f 8d c9 03 28 d4 3f bc bf
       0.01898015004725359 -0.11034894921230017
000220 23 0c dd 08 ca f3 c1 bf 43 d4 ca 02 c6 04 a4 3f
       -0.14025235588823745 0.039098918763024425
000230 9b 00 d1 69 20 62 cf 3f b8 20 cb e6 21 52 e0 bf
       0.24518208662812388 -0.5100259311375543
000240 31 f2 09 d3 b8 a0 cd bf 9e e7 cd 75 6c 31 ba 3f
       -0.23146734528190074 0.10231664539415283
000250 bc 31 05 c0 51 e7 ab bf d6 e1 45 ed 05 c7 d3 bf
       -0.05449920147893603 -0.30902240916432555
000260 be 0d 65 93 ba e2 b9 bf 77 7c 23 0a 91 cc e3 bf
       -0.10111585711006563 -0.618721504022587
000270 1e 52 87 00 ce bf d4 3f 3f bb 6f 2a 31 5f d8 bf
       0.324206829563339 -0.3808100618761507
000280 6d c8 db 59 12 bf e0 3f fe bc bf 64 d7 cd e4 3f
       0.5233241801308971 0.650127121711108
000290 aa 11 83 9a 76 1a e4 bf 86 a4 8c 3e 92 2a d4 3f
       -0.6282303827106734 0.3150983439287035
0002a0 40 45 c6 59 22 c4 c3 3f c9 69 e0 53 c0 af d6 3f
       0.15442304023285125 0.35447700682712174
0002b0 34 7d 71 79 17 f8 ec 3f c2 94 ae 70 1c 4c e8 bf
       0.9052846309604434 -0.759290905076931
0002c0 0a b6 cf e1 54 e7 e8 bf 98 b3 14 61 1e 5c ac 3f
       -0.7782387171152447 0.05539030966824682
0002d0 69 31 94 93 0b 4d e0 bf 9c 2f ba 4f 33 67 c1 bf
       -0.5094049341583232 -0.1359619273465541
0002e0 6f ad dd d7 6f 62 d8 3f 82 da 67 87 2f eb cc 3f
       0.38100811081559177 0.22592729674916617
0002f0 34 1f ee 19 93 ca d1 bf 92 7a f8 8f 62 2a ea bf
       -0.2779891732429747 -0.8176739513326814
000300 74 d4 d7 92 fc 23 e8 bf 1f 05 fb 5d b4 8b aa 3f
       -0.7543928974179281 0.05184711119864915
000310 5e eb cb 22 d5 e9 e5 3f 99 ee 64 7c 8e 67 f0 3f
       0.6847940139408413 1.025282369532681
000320 8f 68 e5 af da 7a e4 3f 14 80 5d a4 ae ef e8 bf
       0.6399968562575554 -0.7792580805071361
000330 26 63 fa 59 98 b2 db bf 26 75 b9 fe 90 4d c5 bf
       -0.43277558123513626 -0.16642963826863272
000340 31 01 15 46 52 70 c9 bf 58 38 04 b4 20 48 c9 3f
       -0.19874027654624052 0.19751366414897364
000350 6b 63 31 3e f6 fa e0 3f da 01 40 3d e4 fa c5 bf
       0.5306349959092648 -0.17171910277103458
000360 c1 f0 01 ed 1a a7 d8 bf 7a e7 96 e9 75 4e c9 3f
       -0.3851992907073161 0.19770692735420053
000370 be 30 c8 8c 4d 49 de 3f 01 d9 42 e6 28 50 e0 3f
       0.4732240557502897 0.5097851273810933
000380 1c a3 a3 01 b4 f0 d4 bf 44 ab 71 24 13 9b f1 bf
       -0.3271913543708693 -1.1003600524515642
000390 6f 05 70 7e 8a f3 cf 3f da 0a 9e 4e b7 b3 ca bf
       0.24961978124342063 -0.20860949839342063
0003a0 6c 42 e4 a8 99 83 e3 bf 2b 81 69 4a 14 49 dd bf
       -0.6098144816078963 -0.4575854040795259
0003b0 5e c4 63 19 a2 a0 a1 3f 3a 85 ac b1 b0 3c a4 bf
       0.03442865905697866 -0.0395255295645804
0003c0 db 38 74 36 98 65 df bf 8a 28 e9 71 d8 d1 dc bf
       -0.490575841119506 -0.450307952157012
0003d0 b0 bd 94 da 3b 41 b9 bf 3f 65 9d 5d 5c 59 c9 3f
       -0.09865163885546369 0.19803957530056412
0003e0 be 02 e0 72 40 79 dd 3f 31 df 22 af e8 ec b8 3f
       0.46052561968103223 0.09736494327341629
0003f0 0b 54 9a 94 3a d2 c0 bf 3c a9 c4 33 c3 1f da bf
       -0.131415674743636 -0.4081886296795749
000400 e4 98 2e e2 1d 8c b6 bf 92 62 2a 97 6c c3 cd bf
       -0.08807551166555388 -0.2325263727295988
000410 e7 db 06 10 6a 7c e0 bf 15 27 c2 82 a1 16 ec 3f
       -0.5151872933409977 0.8777625612139867
000420 ad 92 4d 8d 7c 3e aa bf a5 ac ac 43 aa 3d c7 3f
       -0.051257984398750046 0.18156936935824777
000430 a0 b0 21 4e 9a 82 e3 3f 19 31 f5 07 96 9f d3 bf
       0.6096927190788115 -0.3066153600418758
000440 f3 de a4 b7 cc c2 e3 3f 66 60 61 3f 7c b9 e2 bf
       0.6175292574689294 -0.5851422536752693
000450 d3 c9 33 25 df 53 e4 bf 1f 81 7e f0 52 a9 e3 3f
       -0.6352382399184598 0.614419431414749
000460 2a be 4d d1 ab d7 e6 bf 20 0b d3 ce e3 3e b2 3f
       -0.7138270462000424 0.07127212333129451
000470 64 63 87 39 b3 d4 e0 bf a0 b0 85 47 b9 2b bf 3f
       -0.525964367257171 0.12176092144153694
000480 b4 f2 24 ed 86 8f e4 bf f2 cf 41 4f d5 c8 ea bf
       -0.6425203925824321 -0.8370157764425115
000490 7c 03 ca 42 52 2e cd bf 77 8b 7f 5e 4f d7 d6 3f
       -0.22797611485659874 0.35689148166982626
0004a0 c2 21 1d 1b 32 52 f2 3f f1 54 54 c1 84 10 d0 3f
       1.1450673159725828 0.2510082138044956
0004b0 80 d1 09 0c ce ac dd 3f 0f 94 87 e3 12 9a dc bf
       0.4636721723138848 -0.44690391750037944
0004c0 ad 39 f6 10 f0 44 d6 bf 43 e9 02 84 31 a7 e5 bf
       -0.347957626880908 -0.6766593530985933
0004d0 a1 19 b0 8a 3c 6d b7 3f b6 c2 93 f3 54 1a f3 3f
       0.09151056657728997 1.1939286722883202
0004e0 4f ce e9 17 f2 1f b9 bf 91 97 ba 53 da 7a ed bf
       -0.09814370235272317 -0.9212466845826716
0004f0 e6 fe 8b 13 1b 33 e5 bf 04 8d 93 c5 62 c6 d5 3f
       -0.6624884969496321 0.340233509965586
000500 9a c0 c2 83 0b 30 a1 3f d4 7e 7c cd fe ec cf 3f
       0.03356967910201654 0.24942002328406565
000510 c3 3a e3 bb 7c d5 e0 bf d1 62 15 44 e8 8f 8a 3f
       -0.5260604543380726 0.012969793870682452
000520 9e e5 ae 91 5d db c1 3f 42 6d 17 08 93 e0 d4 3f
       0.13950700391232557 0.3262069300669347
000530 04 7d 70 fc ae 3a d7 bf b9 ab 4c f0 f6 66 d9 bf
       -0.3629567589977827 -0.3969094607043036
000540 1b b8 4b 8f 89 27 ed bf 5b 6b b8 18 f9 3c e2 3f
       -0.9110763357873596 0.5699429972477036
000550 3c 3a bc eb 29 9f d1 bf a1 36 50 e6 b3 4e d8 bf
       -0.2753395845510658 -0.37980363360916597
000560 04 77 a5 86 05 7b e7 bf c2 3d 32 85 ae f0 d2 bf
       -0.7337672834216566 -0.29594004638144267
000570 f8 23 46 d1 a1 94 8b bf a6 9d 48 67 c7 e1 8f 3f
       -0.013467086981806972 0.0155673578638716
000580 b1 aa 7b 73 59 64 b3 3f e5 16 6c 7f e6 c9 d5 bf
       0.0757499606076333 -0.3404480213506374
000590 9f 39 1d 8b dc b6 6e bf 2f 00 d1 fe f7 72 b6 bf
       -0.0037493045319145347 -0.08769178362945305
0005a0 ae d3 af 63 26 3b c7 bf 0e d4 16 3a a8 0d d9 3f
       -0.1814926134826726 0.3914585654522974
0005b0 93 31 d0 95 2d 6b d0 bf d9 79 ad 3e 14 3d bb bf
       -0.25654163007927727 -0.10640074281898339
0005c0 5a 33 7a fd 90 8d d2 3f 71 42 e3 27 6d 5a b0 bf
       0.28989052537581517 -0.06387979720899196
0005d0 c7 68 38 e0 2a e5 c0 3f e5 ad e0 d9 ab 10 d0 bf
       0.13199363659152238 -0.2510175349914035
0005e0 25 82 48 e6 c6 96 c6 bf 4a 5d ef fa 30 89 d8 3f
       -0.1764763473920691 0.3833734941994932
0005f0 8a 47 d3 96 15 ae dd bf 76 67 b5 e9 c6 72 c4 3f
       -0.4637502644446775 0.1597527161746332
000600 3a 8b 49 bd 68 0f d7 bf 04 2e 0f 46 1b 8b bc 3f
       -0.36031549916349415 0.11149759731704739
000610 b4 55 c3 0b 23 e4 b4 bf d6 ec 77 6d 33 b4 d4 bf
       -0.08160609280761016 -0.32349858942297993
000620 c3 c4 16 01 c3 77 d1 bf 11 f9 c3 8e de 5f b8 3f
       -0.27293467623082907 0.09521285043226536
000630 73 5d c7 6d f7 b8 d5 3f c2 c7 f8 63 5c 4e cf bf
       0.3394144603784845 -0.24457888490138485
000640 74 bb 35 db 64 2a bf bf 13 93 e2 5b 70 12 94 bf
       -0.12174063064388269 -0.019601588829249183
000650 c4 7b 39 d0 a9 cf e5 bf b0 cc b0 d3 4c 95 a3 bf
       -0.6815995280156746 -0.03824844440568975
000660 31 19 6b d9 2f db c9 bf c3 cd 1e f2 c6 b3 98 bf
       -0.2020015536892941 -0.02412329533372116
000670 3d f3 06 72 1b 76 84 bf ef a0 d7 c5 b3 4f e1 bf
       -0.009990896622974805 -0.5409792770488177
000680 51 47 87 23 ae 04 de 3f 83 84 52 79 85 7f e2 3f
       0.4690356585461944 0.5780665750099988
000690 65 05 5a ca 6f 2a c4 bf 7d b5 cd 40 04 38 d3 3f
       -0.15754506473971755 0.30029398277732594
0006a0 c9 19 53 44 e8 dc d1 bf cf 3d ef 5c 83 8e e3 bf
       -0.2791081111176053 -0.6111466231467889
0006b0 91 d1 16 51 25 bf e4 3f 3a 99 5f c7 e6 f0 df bf
       0.6483332237026379 -0.4990784594541712
0006c0 46 75 2f 6d c1 34 d5 3f 3d 4d 9f 32 b8 c8 c3 bf
       0.3313449445975788 -0.15456297370710984
0006d0 34 5f 76 aa 7c f0 c0 3f 12 fe fe 10 23 4c 98 bf
       0.13233908007964035 -0.023727939522130433
0006e0 3f d1 87 56 62 81 db bf 06 47 3d 1b 65 e7 e7 bf
       -0.4297719807648441 -0.7469964534777496
0006f0 21 d8 f4 c0 72 ff a8 bf 0d e1 df 6a 82 e9 e1 3f
       -0.048823915533305014 0.5597545707123871
000700 44 d3 d8 a2 5c e3 d6 3f 19 dc 0c 90 8a 90 ab 3f
       0.3576270666410901 0.053837137302643785
000710 21 31 e6 14 c9 6f d4 bf 72 8c 88 47 0b d5 b3 bf
       -0.3193228439420342 -0.07746954437657097
000720 06 0f d7 bb 62 a3 b3 3f 45 56 89 b6 7b 6a c2 3f
       0.07671181760730059 0.14387461102403357
000730 b3 27 ec 39 6a 3c d3 3f 75 b9 b9 df 49 17 d5 bf
       0.3005624356888987 -0.32954642151062014
000740 71 5c 56 75 bc 76 dd bf f8 1b 5a 0f 8a 1b 92 3f
       -0.4603720804092922 0.01768317908002001
000750 65 a1 f8 a4 81 a4 c6 3f ef 42 fe 29 3d 9f b2 bf
       0.17689533763155932 -0.07274229312157464
000760 38 b5 ff 0d 64 56 74 3f 4d 2a fe 0b 75 c9 bd 3f
       0.004965201223950992 0.11635524313730024
000770 8b 39 56 d5 02 5a bd 3f 0a e2 14 83 72 87 a5 bf
       0.11465470989626263 -0.04204900598637458
000780 e6 2a 4a cf 8b 66 bf bf 1d 1f 3d 28 03 fe ba bf
       -0.12265847979339703 -0.10543842060462479
000790 6e 98 9e aa fe 4e b6 3f 3b 11 a4 b6 f6 89 b1 bf
       0.08714286485209907 -0.06851140936857274
0007a0 6e 92 7f 18 3a 28 cd bf 26 fd c4 78 50 df 8b bf
       -0.22779012867171694 -0.013609532056419637
0007b0 b4 38 60 a3 76 ff e3 bf 51 5f ea ab 3d c5 d3 bf
       -0.6249345007834308 -0.308913629423377
0007c0 53 30 2d ae 4a d0 de 3f fc 83 8d 8c ac a0 94 3f
       0.4814631176893773 0.020144172743474784
0007d0 fc 07 cf b3 ae f4 b2 3f a6 c4 2a 98 57 a6 dc bf
       0.0740460576044199 -0.44765272007050283
0007e0 0d e8 ac d2 30 24 c2 bf 01 a8 48 81 df 66 d6 3f
       -0.14172945296178377 0.3500288736855737
0007f0 7c e7 59 b5 7d 37 b6 3f 3d a7 f1 fd 38 15 e8 bf
       0.08678422620314835 -0.7525906524508411

rnn.bias_ih_l0 f8 [100]
000000 ed 00 24 7a 49 2b d8 bf 60 91 72 ad 06 0d d0 bf
       -0.3776420300273589 -0.2507950490783255
000010 44 17 1d e5 37 38 c5 bf 27 6b 36 a7 9c 00 df bf
       -0.1657781475752761 -0.4844123490271834
000020 43 1f a8 14 51 48 d8 bf 61 93 fb b7 57 49 e2 bf
       -0.3794138623929834 -0.5714529603397801
000030 af a7 07 65 6e 6b d2 3f 46 ae 25 6b ed e7 c3 3f
       0.28780708185388 0.15551536304279717
000040 18 1c 6a 2a b0 ba ca bf be 1d ed d5 05 8e d5 bf
       -0.2088222701169975 -0.33679338351472754
000050 91 e2 7e 42 96 f4 e7 bf 14 67 2a 87 22 ca bf 3f
       -0.7486068056815204 0.12417808341924924
000060 f2 c6 c3 f0 1e 72 9a bf 77 d7 a8 70 6f 4a ce 3f
       -0.02582596153747025 0.2366465854735755
000070 d4 09 d2 7e 8e 8e c7 bf 70 ac af 77 92 1a b7 bf
       -0.18403798286824602 -0.090249208660383
000080 5d 1c 0b 67 12 55 eb bf c4 58 00 ce 8b cf e4 bf
       -0.8541347515646397 -0.6503352187599138
000090 72 7f bb 0b 59 77 c8 bf 80 55 2e 3c ce a6 eb bf
       -0.19114220688697575 -0.8641120124254229
0000a0 b8 e2 73 a2 ba e0 d9 3f 89 99 b8 9d 1d 93 e2 bf
       0.4043413721515594 -0.5804584579935163
0000b0 f6 54 6c 4d 2d f1 e2 bf 6b 0f ea 97 14 50 96 bf
       -0.5919405471965138 -0.02178985764704981
0000c0 e5 4b 88 b7 d9 2a b3 3f d0 db f3 40 bf db d9 bf
       0.07487259608050996 -0.40403729765915575
0000d0 47 0e 43 b6 b4 92 db bf 6a f9 21 47 91 0e c9 bf
       -0.43082921790139433 -0.1957570645644851
0000e0 28 8f 18 db 0a ce e0 bf 31 db 78 82 84 fb e7 bf
       -0.5251516608445614 -0.7494528339655969
0000f0 c6 85 28 d6 dd e9 d5 bf d6 50 05 f2 11 3b 9a bf
       -0.3423990813626826 -0.025615959545874777
000100 78 67 8a 0e b0 4e 9c bf 60 d8 7f 0c 68 73 b6 3f
       -0.027643919837465586 0.08769846253548641
000110 a9 ef 55 a1 ca ee dd bf 34 6c 62 44 c7 62 e8 bf
       -0.467699677996047 -0.7620579085954717
000120 e3 be 73 98 cd db c0 bf 23 d4 98 3c 2e db ac bf
       -0.1317078585047887 -0.05635971536359132
000130 41 b2 08 c0 3c 27 b2 bf 45 ed 88 ba ba 61 e5 bf
       -0.07091121376351685 -0.6681798594721974
000140 af 83 3b bc 8e de c4 bf 95 f1 4f 19 1b 45 d4 bf
       -0.16304191771544427 -0.3167178866567835
000150 e7 0f c9 8d 8a 36 e4 bf ae 90 82 81 c1 53 d5 bf
       -0.6316578644987175 -0.333237053370122
000160 1d 3b 51 6f ed c2 e4 bf 05 7b 26 40 27 ba 71 bf
       -0.6487948583761384 -0.004327920267683143
000170 81 f6 2d 29 66 6d e6 bf 5c 5d 21 ec 5a c7 c4 bf
       -0.700854378155512 -0.16233383683968838
000180 a5 c3 e7 e7 b1 c2 a7 3f 16 b1 ce ae fd 92 cd bf
       0.04640727954745864 -0.23104830775754043
000190 1f d9 e1 c2 f1 63 cc bf 7e 2c 56 ae d5 f7 b1 3f
       -0.22180006042226183 0.07018790727868127
0001a0 2a 0e a4 05 28 64 c9 3f ba a3 13 83 a4 18 a6 3f
       0.19836902881080337 0.04315675830895978
0001b0 4e f5 a8 a2 dc b2 d4 bf 2f 4f f3 be 74 a1 d0 3f
       -0.32341686138882586 0.2598544945478691
0001c0 ab f0 96 70 1f c8 b8 bf 80 d1 0a de fb 1d c8 3f
       -0.09680363177079936 0.1884150346937865
0001d0 8d 81 62 13 63 a0 dd bf c9 70 89 f2 f7 e9 c9 bf
       -0.4629142464928229 -0.2024526533376785
0001e0 0b 19 e8 72 53 d7 cd bf 4d 49 18 4b 2e eb b6 bf
       -0.23313372717547795 -0.08952607472773373
0001f0 52 08 55 a8 7a 0c c9 3f 56 bb 01 d3 70 c7 c8 3f
       0.19569333285659468 0.1935864477449864
000200 aa 00 74 07 b6 18 96 bf 28 36 b0 e3 39 31 c9 3f
       -0.021578640179541843 0.19681476228326855
000210 7a 7b 25 91 5a 40 c2 bf c1 6d b0 b8 e8 18 c7 3f
       -0.1425889214251262 0.18044766443277463
000220 a2 4a 05 2b b4 3c d3 bf 74 e2 84 de 2b 8c ba bf
       -0.3005800647853595 -0.10370134527773606
000230 85 2b 1c ba 22 77 b0 bf 6b a0 a9 f5 1e 85 c6 bf
       -0.06431786578848005 -0.17593752856487596
000240 42 30 c4 f7 22 7b d3 3f c4 2f 47 c9 4b ee 8d bf
       0.304390661200845 -0.014614669876117044
000250 9b 84 8b b4 ca 86 b7 bf 48 9c c0 07 95 b1 e4 bf
       -0.09190050990902636 -0.646677508489014
000260 bb 6b 13 7f 5e cb d1 bf e1 f8 f1 25 24 e6 c4 bf
       -0.27803766641380506 -0.1632733521727863
000270 3c 2b 6b 0c af f7 e3 bf ba f3 8c e7 18 3b d3 bf
       -0.6239848368216836 -0.30048201191294377
000280 65 1b da cb 28 75 e5 bf 15 85 88 53 10 46 c5 3f
       -0.6705516797527308 0.16620067671559782
000290 f4 23 b0 e9 59 c1 c4 3f e3 75 e1 7f 31 ff e0 bf
       0.16215061102437256 -0.5311515329046269
0002a0 da ea b7 6e 1b bb d3 bf 9e f1 24 79 73 29 e1 bf
       -0.3082951146349565 -0.5363099447345581
0002b0 63 56 c1 af 9f 2c c4 3f cf 5b c5 4c 60 fa ba 3f
       0.15761180955694262 0.10538293718614898
0002c0 98 58 a9 ab 5f 2c ac bf e8 d2 ad ad 76 0f c9 bf
       -0.05502604456403154 -0.19578441124362844
0002d0 87 b7 ef e0 aa ed b9 bf d9 33 fb 9c 59 ea e0 bf
       -0.10128276816950975 -0.5286071840324623
0002e0 7c 9d a9 ef df 36 e2 bf 1c 6a 4a e2 4f dd cd bf
       -0.5691985779675828 -0.2333164076743096
0002f0 df fc 6c a1 98 1a eb bf 8a f0 83 e5 9c 15 e0 3f
       -0.8469966080519064 0.5026382906649058
000300 87 87 20 1c c1 ed e2 bf d7 af 9c 64 17 9a e5 bf
       -0.5915227460247799 -0.6750599827842007
000310 2f 0d 58 57 d7 d6 9e bf cf 12 cb d1 57 2b d4 3f
       -0.03011642904858752 0.3151454495203269

rnn.bias_hh_l0 f8 [100]
000000 89 01 48 f4 85 a4 cd bf d0 ea d6 28 43 12 90 3f
       -0.2315833514003425 0.015694665305754196
000010 8a 5b 74 94 81 dd a2 bf 4a 6b 36 c7 7f e0 db bf
       -0.03684620797337519 -0.43557733969071377
000020 49 1f a8 d4 e4 1a d6 bf 1b 27 f7 5f c7 c4 de bf
       -0.345391471550546 -0.4807604252970223
000030 58 9f 1e 74 d2 43 b8 3f 94 ae 25 cb 22 6c cd 3f
       0.09478488287879594 0.2298625461511291
000040 cd 38 d4 14 43 62 b2 bf 52 76 b4 97 93 2b b3 bf
       -0.0718118596889525 -0.07488367513402608
000050 9d e2 7e 7e 64 f6 e3 bf 09 9a ca c9 e9 9a da 3f
       -0.6238272162073205 0.41570515352432885
000060 dd c3 f3 f0 f9 cd d4 3f 6d 50 ae 5e bf ba bb bf
       0.32507179766167643 -0.10831829129739541
000070 71 09 d2 7e bd 4b cf bf 81 d5 d7 fb dd 92 ce bf
       -0.24449890797047716 -0.2388570289328236
000080 54 1c 0b 67 5f 15 e9 bf bd 58 00 36 19 42 e3 bf
       -0.7838589680258203 -0.6018186621393152
000090 35 80 bb cb 54 32 c5 bf 8b 55 2e d4 e6 02 e4 bf
       -0.16559848735687557 -0.6253542083892837
0000a0 13 e3 73 a2 22 2d de 3f 82 33 71 1b e1 c5 d2 bf
       0.471504839558791 -0.29332759551908094
0000b0 3b 55 6c 3d 82 b8 e1 bf 65 e1 57 a0 61 1c 7f 3f
       -0.5537730407401463 0.007595425942320187
0000c0 40 13 e2 5d cc d7 d0 3f cc ed 79 98 ec d4 e1 bf
       0.2631712834193429 -0.5572417238285481
0000d0 1a 87 21 7f 0c 90 e0 bf 24 f2 43 8e a8 2c b3 bf
       -0.5175840838457788 -0.07490018342282007
0000e0 33 8f 18 1b e1 db e0 bf 45 db 78 52 9a cb e8 bf
       -0.5268407372682077 -0.7748538599761124
0000f0 35 86 28 06 5b c8 de bf 57 4c 05 f2 ef f3 98 bf
       -0.48097873307606004 -0.024368046900530817
000100 00 99 a2 43 4e 10 be bf 94 eb 3f 06 27 d8 c6 3f
       -0.11743630553482731 0.17847144894753042
000110 7f ef 55 51 ef fe da bf 2a 6c 62 60 06 3c e8 bf
       -0.42180998747766546 -0.7573272593030016
000120 3c 32 df 39 0c 2b 5a bf 46 1a 93 47 91 71 d2 bf
       -0.0015971774478088637 -0.2881816100092788
000130 c4 58 04 c0 04 54 cb bf 2a ed 88 c2 bc 40 e4 bf
       -0.21350154281453204 -0.632902507735172
000140 73 15 dc e1 38 9c 99 bf 8c f1 4f a9 a2 f1 d2 bf
       -0.02501000288522932 -0.2959982541504125
000150 d7 0f c9 9d 4c 09 e5 bf 7b 48 c1 70 e6 81 e2 bf
       -0.6573851663347295 -0.5783569528814633
000160 22 3b 51 5f 50 d3 eb bf 6b 66 ff 52 7c 1c d6 3f
       -0.8695451604524786 0.34548862557639975
000170 5e ed 5b b2 02 d5 d6 bf 82 5e 21 ac f0 b9 c6 bf
       -0.35675113122825575 -0.17754944233705677
000180 52 1c 0c 4c 49 6d bd bf 2b 9f 62 e2 fc a1 b9 3f
       -0.11494882685302457 0.10012798811896732
000190 54 b2 c3 c5 a4 f7 bf bf 6f 16 2b d7 eb a8 c9 3f
       -0.12487249210580248 0.20046756750359715
0001a0 9f e2 b7 94 e6 d9 b6 bf 80 42 27 06 ca ca 97 3f
       -0.08926240092103875 0.02323451674039001
0001b0 62 f5 a8 8a fd f6 d8 bf 97 4f f3 5e 7a 36 d6 3f
       -0.39007509747519553 0.3470750739336323
0001c0 3d 38 a4 3d 10 84 94 3f a2 b7 d4 87 fb 18 a7 bf
       0.02003503204564815 -0.045112476664470394
0001d0 c2 81 62 73 ba ec db bf f1 da d1 ae 95 71 70 3f
       -0.43632375019117486 0.004014572809970516
0001e0 c6 18 e8 32 07 47 c4 bf ab b5 e7 b4 ee 36 b6 3f
       -0.1584176062171478 0.08677570263508609
0001f0 8b 22 54 a1 66 f1 a2 3f 04 44 fe ec 67 14 c0 bf
       0.03699799270004175 -0.12562274047789412
000200 3c 01 dd 81 b1 61 bf bf 28 95 fc c4 d9 09 80 bf
       -0.12258443279734349 -0.007831288646750936
000210 83 11 6a bb 84 24 a0 3f ef 91 4f 47 d7 9c c2 bf
       0.031528613927579684 -0.1454114053914419
000220 0c 96 0a 16 3a 9c c3 bf 3c 71 42 ef 14 46 c8 bf
       -0.1532051665900983 -0.18963872606844656
000230 ae ea f1 02 d8 c4 c8 3f 68 d0 d4 ca 5a 97 d4 bf
       0.1935071958904095 -0.32173795516724235
000240 e3 5f 88 2f cb ae ca 3f d6 73 94 bc ac a8 c8 bf
       0.2084592802136732 -0.19264754493715824
000250 f4 3c ba c5 cb bd c8 3f 68 38 81 1f 44 e9 d2 bf
       0.19329211382544254 -0.29548743321072957
000260 39 d7 26 ce 26 09 cf bf ba eb c0 41 37 82 7a 3f
       -0.24246678415300396 0.006471839758939996
000270 3e 2b 6b f4 ac 2d e0 bf d7 79 c6 33 cc 18 e3 bf
       -0.5055756353188838 -0.5967770587192786
000280 96 1b da 6b a7 7e e6 bf c9 42 c4 e9 f9 5c d9 3f
       -0.7029606920703937 0.3962998183133491
000290 39 24 b0 89 13 f5 c5 3f 13 76 e1 df f1 b0 e3 bf
       0.17154163573312234 -0.6153497097654416
0002a0 5e d5 6f cd c6 2a cd bf a3 f1 24 bd 7d f0 e5 bf
       -0.22786793738456884 -0.6856068319535108
0002b0 5a 5b 05 7f 32 4a ab 3f 67 ae 62 66 9a cf c3 3f
       0.053300455098613767 0.1547730445794173
0002c0 61 a8 56 d4 e2 e2 aa 3f 4b e9 d6 c6 e1 48 da bf
       0.05251225320837772 -0.4106983606140104
0002d0 9c b6 ef 20 aa ec ba bf e7 33 fb 8c 7e d1 e0 bf
       -0.1051737146769604 -0.525573039392495
0002e0 66 9d a9 ef 86 96 e4 bf 5d 35 25 e1 29 50 d6 bf
       -0.6433748894605003 -0.348642797344686
0002f0 ed fc 6c f1 b5 2e e7 bf 5c e1 07 33 54 c8 d1 3f
       -0.7244519915911077 0.27785210593676424
000300 78 0f 41 d8 b8 01 dd bf 15 b0 9c 28 1a a3 ea bf
       -0.45323010557716925 -0.8324099343494732
000310 b9 01 d6 55 6c 8a be bf e5 12 cb 11 dc f8 d5 3f
       -0.11929967017750344 0.3433141874086643

rnn.weight_ih_l1 f8 [100, 25]
000000 25 95 f9 5e 52 d6 ea 3f 44 cf be 5f 89 60 e8 bf
       0.8386623244265691 -0.7617842550302858
000010 34 45 8c 61 03 57 e9 bf 1e c4 8c 39 92 6f f1 bf
       -0.791871729396155 -1.0897390602151584
000020 2c a1 f5 46 ab ad 76 bf db 4a 6e 69 41 7b e2 3f
       -0.005536717463975809 0.5775458392330067
000030 da c7 a9 8c de 8b ea 3f ff d4 ad 10 ac 5a e3 bf
       0.829573893292259 -0.6048183751833277
000040 f5 18 de ed d9 42 e4 bf 89 b6 ad 42 16 ed e9 3f
       -0.6331605573512024 0.810191278678489
000050 7f 08 67 af 34 ba d1 3f dc 8f 40 5f f4 04 e9 3f
       0.2769901001848964 0.7818548069376408
000060 86 ca 8f 5b b7 5e e9 bf d1 46 e3 02 1a 04 e9 bf
       -0.7928120411218778 -0.7817506843950587
000070 34 38 c0 41 29 f1 bd 3f 2e b9 a7 29 f7 e4 c1 bf
       0.11696107726331278 -0.13979997190421883
000080 32 5e 56 84 94 da de bf 22 64 02 77 62 b6 da bf
       -0.48209107326099165 -0.41738187429433726
000090 6a 82 d0 e6 75 89 f3 bf a9 bf d0 58 6a da eb 3f
       -1.2210597053709997 0.8704120382953892
0000a0 0d 13 5a c4 e0 11 eb bf 1a 70 3b 68 cf be ca 3f
       -0.8459323725697644 0.2089480647035778
0000b0 01 eb ba a7 1a da eb bf a8 72 ca 9f f9 6c e1 3f
       -0.8703740383128605 0.5445526238359735
0000c0 db 0d 61 90 34 22 d2 3f 47 13 e2 0c c6 80 df 3f
       0.28333772754214487 0.49223471887699016
0000d0 d3 ba 92 34 a0 9c e8 bf 2b e3 87 18 a0 ba f2 bf
       -0.7691193606204599 -1.1705628355250137
0000e0 77 b8 7b 4b 10 c0 ec bf e0 59 62 78 c8 7a e8 bf
       -0.898445269993103 -0.7649881697896568
0000f0 de 32 8f 4b 6f 7f ed 3f 0b 58 b1 6d f0 ee d4 3f
       0.9218059993523544 0.3270836898058184
000100 84 3e 94 b0 ed 27 f5 bf 1e 0b 51 78 77 f7 e3 bf
       -1.3222481629963179 -0.6239583349164126
000110 47 1d 18 4d bb c6 df 3f c1 f9 a0 f9 66 e9 c2 3f
       0.4965046170113578 0.14774787129313263
000120 6a 2b 86 2e 24 16 de 3f 74 b1 aa d8 e7 62 e4 bf
       0.4701013998352922 -0.6370734435818535
000130 ca b2 5b 57 1f 09 d9 bf 10 5b c6 6b 84 60 cb 3f
       -0.39118178874086296 0.21388297331278538
000140 ee 71 5e 91 f3 a0 cb bf 89 a5 c9 71 ba a0 e0 bf
       -0.21584934805004202 -0.5196201536574999
000150 28 22 0c 17 56 8f e3 bf ca e1 5f d1 9e 14 ed bf
       -0.6112471056122262 -0.9087671365114656
000160 16 54 64 31 82 23 e8 3f db e7 ba 02 56 a8 e0 bf
       0.7543345417676643 -0.5205488255808136
000170 7a 54 ce 3b ce 74 e2 bf 18 87 4b 30 46 0f ee bf
       -0.5767584961019019 -0.9393645232450778
000180 08 2b ee 37 81 d8 e3 3f 3d cc 6a 7a 90 78 e3 3f
       0.6201788036717923 0.6084673300705458
000190 1b 9e 16 b7 04 99 f3 3f 09 4c 4f 90 32 24 f0 bf
       1.2248580123795196 -1.0088372838115467
0001a0 e1 a5 88 d8 4a e6 f2 bf 21 b6 19 b9 cd dd e2 bf
       -1.1812237223006081 -0.5895756354563596
0001b0 7d aa b9 45 dc 4b b2 3f 35 be d4 96 8a f0 e0 3f
       0.07147003843571471 0.5293629594725134
0001c0 ab 44 fe 42 45 34 ab bf b3 f2 07 d1 18 45 fa bf
       -0.0531331676749088 -1.6418693700099254
0001d0 fa e0 09 b3 28 d9 b7 3f 94 a9 2a 06 d0 ad ef 3f
       0.09315733309802346 0.9899673576776871
0001e0 18 a1 59 23 f6 b5 e1 3f 85 23 ed 35 6f c7 e7 3f
       0.553462094348137 0.7430950215576649
0001f0 31 7f de db 4c 41 f4 bf 4f 11 f0 69 7e 15 e2 bf
       -1.2659424389493774 -0.565123755368896
000200 d8 36 f8 5c 59 5b ed 3f 4d a5 eb 31 47 95 e5 bf
       0.91740101011393 -0.6744724249848929
000210 63 06 f4 a5 41 58 e2 bf bd 62 a0 77 86 31 ed bf
       -0.573273491027248 -0.9122955643134315
000220 a2 b3 42 a6 ef b7 c8 bf 87 50 c6 d7 74 75 e6 3f
       -0.193113285238181 0.701837941584487
000230 c4 37 46 dd 42 14 ea bf 7d e2 9b 55 9b 36 ce 3f
       -0.8149732896579214 0.23604146652339245
000240 c4 72 ba d0 2d e8 fa bf f7 03 9e 3d 57 08 f0 3f
       -1.6816843179178003 1.0020363242076635
000250 9c c4 60 c8 9c 6d e8 3f 35 f8 9f 4b cb 5a e5 3f
       0.7633804238922894 0.6673332669304332
000260 e3 bf f9 55 e1 e3 da bf cf c1 98 09 b5 d0 eb bf
       -0.4201587047200503 -0.869226950400895
000270 aa cc 26 ca 0b ac b0 bf ef 99 83 40 22 74 c3 bf
       -0.06512521443692046 -0.1519816222200485
000280 0b fa 57 26 af 11 d2 bf ad 9a 9e c8 fe 21 ea 3f
       -0.2823293566179081 0.8166498106337109
000290 bf 87 42 06 c6 62 e1 bf 52 8d 75 8a 59 f4 e7 3f
       -0.5433073160422665 0.7485778526574143
0002a0 fc 99 9e 04 b9 f5 ee 3f 55 ff f3 50 a1 fb cb 3f
       0.967495450041326 0.21861664250172433
0002b0 80 7c b0 2e d3 4e e9 3f 84 db 84 49 07 a4 ea bf
       0.7908721839811648 -0.8325230060498687
0002c0 6b 61 b8 88 b8 97 ea bf 77 02 99 6d c2 42 d3 3f
       -0.8310206098858947 0.3009496755876521
0002d0 58 75 d0 84 6a fb db bf 44 b4 9e 04 13 43 b5 3f
       -0.43722022028108176 0.0830547224311014
0002e0 12 df dc 22 97 6f de bf 2e f5 3c 77 1b 45 d2 3f
       -0.47556093601768723 0.28546797413203506
0002f0 83 5f 24 f0 0b 35 c9 3f c9 be ba 01 d8 57 f7 bf
       0.19693135476768128 -1.4589462344701352
000300 0a 83 66 06 d2 49 d9 3f fc 4a 66 db 67 7d d5 bf
       0.3951306402687328 -0.33577915597668073
000310 73 f0 b5 ed 88 6e e8 3f b8 19 72 54 c7 d2 f0 3f
       0.7634930269991983 1.0514596270237302
000320 2d 96 2e 66 0d 3a a2 3f 11 1b aa 97 2a 95 c6 3f
       0.03559915420855151 0.17642719655506103
000330 12 3e 69 d6 2a b6 cf 3f bc 69 b2 d1 d2 5d c7 3f
       0.24774680585186154 0.1825507663641711
000340 9f 97 a1 aa 0e 3e c9 3f 58 4b 9d f9 96 14 dc bf
       0.19720633823015718 -0.4387566983834197
000350 1a ec 29 8d 43 cc d5 bf 6e 8f c5 ed d9 35 e1 3f
       -0.34059227738879516 0.5378236431101706
000360 ba 1b 17 04 76 b2 e3 3f ca 44 64 82 52 a2 db bf
       0.6155347900283836 -0.43178236707269646
000370 5a 50 e3 b6 58 22 bd bf 2c 50 c2 ba 07 e1 e4 bf
       -0.11380533661878314 -0.6524695060384196
000380 90 b7 46 ee 5e c5 e3 3f 5f 91 32 23 11 c8 d2 3f
       0.6178431180794508 0.2934611171460996
000390 a4 f0 14 a7 e6 06 a1 bf 96 38 46 ce 59 fa ce bf
       -0.033255775352217826 -0.24201510021197653
0003a0 ee 98 dd c4 c8 68 d4 3f 9f fa 77 b1 02 cb b9 bf
       0.3188955233112115 -0.10075394470912123
0003b0 70 61 6d 9d 9e df e9 3f be bd f6 bd c9 d3 b8 bf
       0.8085473131896332 -0.0969816292551888
0003c0 00 95 21 36 96 98 e8 3f 89 16 48 ac 6e a5 d6 bf
       0.76862631390091 -0.3538471872746887
0003d0 e5 f3 23 9c dc 8f a5 bf ee ef 57 c4 65 ea aa 3f
       -0.04211320310603365 0.052569561212265956
0003e0 6b a8 fd 70 6b 28 d4 bf 67 b3 0f 04 47 ae e2 3f
       -0.3149670222688942 0.5837740973780513
0003f0 2a 9a 8a dc 01 28 e4 bf c4 6f 2b 19 d6 4e e6 bf
       -0.6298837001275548 -0.697123574409027
000400 d1 a0 71 73 20 0f e8 bf f9 47 0d 0b f3 0d e1 3f
       -0.7518465285075085 0.532952806077673
000410 64 8c f1 1a 80 2e d6 3f fc 30 22 70 a4 42 e9 bf
       0.3465881598587599 -0.7893850507839768
000420 b6 ca 8a 6a 49 eb ee bf 28 90 f6 63 55 43 c4 3f
       -0.9662215310002782 0.15830485707294994
000430 e6 c9 6c 54 07 bd dd 3f 47 42 84 38 fa 03 c0 bf
       0.46466239208817084 -0.12512138137437231
000440 5d 80 bc 29 96 a9 e4 bf f8 38 bb 09 eb 22 cb 3f
       -0.6457014861262099 0.21200311637080183
000450 15 ad ae 3a 4a 22 c4 bf 78 6c c9 64 30 e6 dd 3f
       -0.1572964464697654 0.4671746238943295
000460 ee 4a 4a 9a e0 6f b9 bf b1 ae 93 96 32 ef b1 3f
       -0.09936336294985512 0.07005611587708917
000470 8d 8e e7 d9 0b 3d e8 bf b8 fb 6f 7e 8d 3d d0 bf
       -0.7574519401500354 -0.2537568793049405
000480 3c 28 0c 64 0e d0 e3 3f 6d 0f f7 12 c7 de 81 3f
       0.6191474870731848 0.00872569586397961
000490 8e 63 36 70 2e 1c d9 3f 74 dc 70 7c ce 4b ed bf
       0.39234505613563264 -0.9155037336812613
0004a0 ff 76 97 b7 40 5f c3 3f 42 63 e4 8e 7a 38 df bf
       0.15134438480793475 -0.4878221888953257
0004b0 2e ea 1c 71 65 2f a0 3f 11 e9 af 93 da d8 c5 bf
       0.031611604745610186 -0.1706803532723105
0004c0 ae 7b 4d aa 7f 9a c7 bf 91 68 6e f2 6b 2c b0 bf
       -0.18440242591438277 -0.06317782086117264
0004d0 4f 5a 4f d7 e4 ec ca 3f 0d 6d f7 71 8d 24 97 3f
       0.2103544284170362 0.02260037429901467
0004e0 36 99 dc bd 42 bf e3 3f f5 3a 26 9d 67 86 d2 3f
       0.6170972545849398 0.2894534144078727
0004f0 bd d1 51 06 3f 1d e7 3f 10 93 16 8a c0 64 d7 3f
       0.7223200915746514 0.3655244205968282
000500 ab ba c9 af 8a de bd 3f e0 87 31 50 cd 59 d5 3f
       0.11667696754168826 0.33360607940096365
000510 4b 44 68 a1 80 e8 d6 bf 04 31 91 2f 08 80 e3 bf
       -0.3579408241503798 -0.6093789032979946
000520 94 ed 04 0c 53 bf c8 3f 20 3d 18 6f dd a0 c8 bf
       0.19333875738980721 -0.19240920948548368
000530 4d 87 02 3a db 2d bf bf 93 6d 6c 49 5f ef bf bf
       -0.12179346243149532 -0.12474628012244286
000540 46 96 64 75 6e c3 e2 3f cc 3e 68 80 0a 79 c0 3f
       0.5863563816862516 0.12869387884028638
000550 33 9f e0 8f c4 5c d5 bf 3f 7d 70 d3 f5 80 cc 3f
       -0.3337870984128017 0.2226855547350883
000560 fb 98 3d c9 96 5a d3 bf 7c f6 4d 8c 69 b4 e1 3f
       -0.3024041142692934 0.5532729854891865
000570 f0 9e 80 d8 b8 ce cc 3f 92 e9 59 c4 b4 55 cb 3f
       0.22505865641982536 0.21355304324590613
000580 69 53 a1 74 11 cd b7 3f d1 6c 2c 37 03 4b a5 bf
       0.09297284219185332 -0.041587925419855794
000590 55 bd 29 69 6f 53 dc 3f fe eb 13 89 db 5c da 3f
       0.4425924803717483 0.4119175757074912
0005a0 62 0b ff ea 5a 5a bf bf 82 c5 e3 db a6 0c e0 3f
       -0.12247246014798699 0.5015444082948053
0005b0 8f 30 48 48 f7 9e e0 3f 63 ca eb 17 23 57 d3 3f
       0.519405022788776 0.3021934255222389
0005c0 30 17 81 52 29 2d c4 bf 6a 8b 72 d9 68 e8 a5 3f
       -0.15762821701553653 0.042788769286992004
0005d0 9d 2b c1 f7 d8 1f d4 3f 55 c7 71 9a fd 60 d4 bf
       0.31444381899626156 -0.31841983873811347
0005e0 83 8a f0 0f a3 d0 d3 bf 1f 67 8e b8 1e 7d b3 3f
       -0.30960918957331546 0.0761279297425088
0005f0 76 7e 5f e4 26 8b ce bf d2 6a 38 c9 b0 ae c7 bf
       -0.238621579656854 -0.1850186331292521
000600 84 76 05 fd 2f 92 c8 3f 1a 34 92 9c b5 ac e4 3f
       0.19196128706510163 0.6460826929120487
000610 76 c7 aa c2 cf 99 c6 bf 12 0b f2 0d 65 92 d1 bf
       -0.1765689564249972 -0.2745602260767309
000620 b2 97 f3 72 b9 97 d2 3f f6 ae 31 6a df 92 c9 3f
       0.29051052308784187 0.19979469952828993
000630 41 33 4b f2 1c b2 d6 3f f8 6f b7 9f 43 83 c2 3f
       0.3546211591863547 0.14463086413059023
000640 ff 8e e8 a4 f7 67 bc bf 49 39 97 62 9e c8 b6 bf
       -0.11096141601643338 -0.08899869830131481
000650 90 19 e1 71 19 8b c0 bf c8 c9 80 b2 32 8f e9 3f
       -0.12924497662079348 0.7987302290333043
000660 b1 5c c2 cd 3d 9c db 3f 26 8d 81 6d aa 29 e1 bf
       0.4314112195365381 -0.536336149100326
000670 37 5a 0d bf 5d 4a d8 bf 02 d5 63 04 38 27 cf 3f
       -0.37953895242154395 0.24338436331132846
000680 65 fd b1 69 d6 60 e2 3f ea ef d0 d5 ae fa a3 bf
       0.5743209900246425 -0.03902193412838513
000690 91 e8 f0 79 51 78 c1 3f 1a 87 79 11 d0 96 d3 bf
       0.13648432211067932 -0.30607988077655224
0006a0 c0 c2 20 cc d4 48 ce 3f 38 47 93 62 23 d4 cc 3f
       0.23659763304887882 0.22522394479033792
0006b0 9f 81 e9 a2 88 cc d0 3f e1 ff 45 02 6e d7 e4 bf
       0.262483748525506 -0.6512975735095062
0006c0 b9 4b 3e 89 af e2 b2 3f 98 a5 cf 0b 70 7c c7 3f
       0.07377144909541657 0.18348503662791127
0006d0 dd dd 9d 6b 0b b4 ed 3f a0 47 f5 ac 0e f4 a9 3f
       0.9282281019104023 0.050690134633114114
0006e0 e8 0f 10 26 f0 a6 d0 3f 94 08 4a 9a ec 6d da 3f
       0.2601890918451759 0.4129592425089268
0006f0 f4 cc 4c a7 e3 2c ce bf ad 66 9f 81 7a d6 ed 3f
       -0.23574491185136248 0.9324314624493205
000700 ab a4 1e ce 17 c7 c7 bf 62 0a 12 d8 7a b2 cf bf
       -0.18576333584249957 -0.24763427305522884
000710 58 ec a6 3c 17 57 cb 3f e5 26 c6 85 ed 7e cf 3f
       0.21359529935384347 0.246061029738761
000720 95 e4 97 9a e4 c5 da 3f 24 88 42 1c 84 c6 85 bf
       0.4183284291935448 -0.010632545578406712
000730 22 0e 60 14 38 c9 d9 bf 54 36 9f 18 f5 b1 e1 bf
       -0.402906436822578 -0.5529733162781647
000740 50 a9 7d b0 20 0b a6 3f de 8a fa 39 6b df 96 bf
       0.043053647560400976 -0.022336650289285546
000750 14 80 8f 86 e4 d8 dd bf 6a e8 98 91 f6 a8 e9 bf
       -0.4663630785053112 -0.8018753856370158
000760 3a 8c 6d 8f 68 97 d2 bf a0 64 de 01 04 5b dd 3f
       -0.29049123770363716 0.45868015463345024
000770 72 88 87 f5 4c 9b d2 3f 02 26 40 7b d0 ef de bf
       0.29072879769785864 -0.48338710819425057
000780 11 6b 20 15 4b 3d d4 3f 75 bd 96 75 41 82 ca 3f
       0.3162410456003935 0.207100088516636
000790 be 2c ab 1f a3 43 ce 3f 03 b6 8b fa 1b 5c bf 3f
       0.23643912359543678 0.12249922625388625
0007a0 8a d5 ce 69 d6 5c dc bf be 58 bb 9c 45 97 d2 3f
       -0.4431663544922563 0.2904829054435928
0007b0 ce fd 5a f1 e5 2c e1 3f 61 cc f7 38 91 47 be 3f
       0.5367307390187592 0.11827952996081727
0007c0 72 ca 27 bb ea 7c e3 bf 22 aa 38 8f ae a1 de bf
       -0.6089986472491786 -0.4786182783742864
0007d0 27 c5 90 55 8e 6f be bf 59 3e 41 08 c9 b8 db 3f
       -0.11888970936776798 0.43315339857233465
0007e0 32 c5 ed 55 54 a7 e8 3f de 43 01 d8 ba 43 b9 bf
       0.7704259565636333 -0.09868972562368536
0007f0 4e 29 3a 05 30 1e e2 3f 47 73 8c 28 b2 31 c2 3f
       0.566185007294999 0.14214159946359414
