darts_logs/lstm_cpu/checkpoints/best-epoch=2-val_loss=0.01.ckpt (torch, 914619 bytes, 55 tensors)

rnn.weight_ih_l0 f8 [100, 1]
000000 e5 9f 5e 72 b6 3d c8 3f 6b 41 94 d4 b2 ad c2 3f
       0.18938332161383112 0.1459258592590332
000010 59 f0 fe 19 33 db b2 3f 43 ca 81 10 5e 4a c0 bf
       0.07365722069420268 -0.12726951414113516
000020 1d b4 36 00 44 38 d6 bf 23 3a e1 87 d7 f2 ca bf
       -0.3471841814123893 -0.2105359471774629
000030 de 4b b0 ef a3 ec d6 3f 47 b4 3c 7d 79 0a a4 bf
       0.3581933823308513 -0.03914241460584172
000040 b8 12 a0 e7 38 c8 aa 3f 2d 96 cf e6 40 21 ca 3f
       0.05230882480103588 0.2041398169523502
000050 b7 5e cb a3 a5 8f ca 3f ce d8 3a 5f d3 d2 c2 3f
       0.20750875947736855 0.14705888891120938
000060 fe c4 dc ff af 5f 63 3f 64 3e 05 42 1a a0 d1 3f
       0.0023649632920742505 0.2753968853694231
000070 23 ff f7 ba d4 b4 cf 3f cc 37 76 91 e4 e5 d7 3f
       0.24770602349598744 0.3734065456891329
000080 88 46 15 04 b1 06 d5 3f c9 1e 0c 08 04 cd bb 3f
       0.32853341482869114 0.10859704205006006
000090 2d a5 a8 95 0e 82 a7 bf cb c9 8b 2e 7e 8c a1 bf
       -0.045914130944149846 -0.03427500074566899
0000a0 72 7f ff 0c be 57 c3 3f e1 be 5e 32 5e 95 e1 bf
       0.15111518511457295 -0.5494833930769937
0000b0 bb 86 60 71 2b d2 e0 bf 8b 60 ab e3 0b 05 cf 3f
       -0.5256554808040258 0.24234150520965544
0000c0 a8 98 18 c1 7d e1 c9 3f 36 c9 3a 88 fa d7 a3 3f
       0.20219394615668773 0.03875716126403221
0000d0 6d 11 fd 73 54 fc cc 3f 04 93 7f 7b 8d 17 bc 3f
       0.22645049727919844 0.10973438515754813
0000e0 50 d1 4d 3d c0 c2 bd bf 3f 1f c9 91 38 2b dc bf
       -0.11625291344336586 -0.4401379989326308
0000f0 2b 20 29 b3 64 74 d9 bf d5 33 b5 ce 01 41 db 3f
       -0.3977290868392653 0.4258427160864902
000100 21 36 1c 65 7f 37 d9 bf 97 28 8b 98 e6 7f a7 bf
       -0.39401230691950856 -0.04589768039802882
000110 f4 c7 df 34 c5 7b b6 bf da 4c 5a 0e 84 bd a7 3f
       -0.08782608548042942 0.04636776614383971
000120 ba 22 cf 36 2b 88 a3 3f 9f ec fc ba 4a c6 b9 3f
       0.03814826053673444 0.10068194451462141
000130 32 9c 2e 0a 83 3b df 3f ea e9 15 86 2d c5 c8 3f
       0.48800731653540474 0.19351738974712812
000140 d4 25 d8 c4 00 43 c3 3f a5 b7 f0 65 0e 65 a2 3f
       0.1504822693971578 0.035927247947582765
000150 39 e5 fd 8e ee 9f a1 3f eb 6c 6d 22 a0 55 b1 bf
       0.03442330832963098 -0.06771279182924032
000160 4a 27 f3 f8 0f c9 d0 bf 20 09 88 a1 1e 76 c4 3f
       -0.2622718745375222 0.15985472571635118
000170 40 3d 7c 79 ef 6c d0 bf 93 45 f1 bb 6f bd b3 bf
       -0.2566488920574166 -0.07710932100714833
000180 a8 28 51 66 16 c9 ce 3f bf 0c 03 9e 31 70 d6 3f
       0.24051170345257344 0.35059776717043784
000190 ae 58 85 39 8b bc d3 bf 3e 4e e7 6a bc a6 d6 3f
       -0.30838280312799327 0.353926758192049
0001a0 f8 d9 b0 46 7e 0f e1 3f f0 b9 49 84 b8 6a d0 3f
       0.5331412678413576 0.2565137187838493
0001b0 ee 65 50 fc 68 6a db 3f 30 70 d1 1c d1 1b 7a 3f
       0.4283697570805022 0.006374184461574159
0001c0 93 21 0a 71 6b 60 e2 bf 34 5c 3b 5d 26 33 d9 3f
       -0.5742699821285434 0.39374693970370633
0001d0 41 46 b8 96 ad 73 d4 3f bd 7b 54 16 ce f0 d6 bf
       0.31956042975170723 -0.3584475725237402
0001e0 94 b0 61 be 07 90 ac 3f 2a 36 1d ad 6e 40 e1 bf
       0.05578636359209202 -0.5391152745375554
0001f0 fb 00 5d 36 3c f3 df 3f 4b 48 f7 fe bb 97 e1 3f
       0.4992208987132611 0.5497722606471681
000200 d9 ee 5e e7 cf 92 da bf a9 e1 d8 ba 53 8d de 3f
       -0.415210700939253 0.47737591978832455
000210 45 b1 28 ac 8e 34 d4 3f 8b ff 1c 1e dc 39 d5 3f
       0.31570784389875356 0.3316564840388245
000220 7f bc 49 4c 93 b7 de 3f 9a b0 6d 63 78 29 cc bf
       0.47995455217364474 -0.2200155721178632
000230 2e fc d0 f0 ed ef e2 3f 57 ad 10 03 56 23 d9 3f
       0.5917882636493965 0.3927817373211914
000240 4b 7a 05 c7 79 bb 9f bf de a3 38 bd 18 ee df bf
       -0.03098860051374634 -0.49890726545942055
000250 58 8b 7e 11 93 c8 e1 bf 97 94 ea 73 c8 7c d0 3f
       -0.5557341901479544 0.257616151046315
000260 42 04 52 ac 31 d7 d7 3f 5b 39 fe d2 65 e2 bd 3f
       0.3725094015899836 0.1167358055228979
000270 3c e7 cd 4f 98 dc b4 bf 70 79 8a a0 63 f3 d0 bf
       -0.08149101208064463 -0.2648552959234598
000280 c6 f7 51 b0 29 1c d8 bf 11 38 3f 6f 2b 59 d5 3f
       -0.37671892374771365 0.33356748451194657
000290 c3 ec 52 14 9f e5 d1 bf 99 e9 5e 05 88 5c d4 3f
       -0.2796399782634575 0.3181476643036603
0002a0 74 d8 20 28 7c f7 b4 3f 28 ab 6c 13 ff bc 9a 3f
       0.08190132121748822 0.026111589012695863
0002b0 23 02 b8 56 a7 7c bd 3f aa 0c ee 8c 7e 3e bd bf
       0.11518331401021746 -0.11423483791991154
0002c0 41 0b 11 dc 42 bc d6 3f 81 d5 0b 9a 87 68 d9 3f
       0.3552405499541927 0.39700498622490704
0002d0 5c 96 3a 43 eb d9 da 3f 37 dd 6e af ca 7f bd 3f
       0.4195507198840909 0.1152311971953751
0002e0 63 e7 c9 f9 f7 8e a7 3f 1e 4f ad ab f2 e5 d3 3f
       0.04601263927629764 0.3109099079640475
0002f0 fa 65 85 42 e1 06 cc bf cf 0d 61 c2 98 d1 ca 3f
       -0.21895995853519407 0.20952138415496654
000300 7d 42 8a 70 3a aa db bf 92 6a 8b 5f b5 54 ce bf
       -0.4322649096512022 -0.23696009793532774
000310 58 38 bf cc ec a3 dc 3f 22 72 4b 44 f7 42 d2 3f
       0.44750518793887784 0.2853372733059435

rnn.weight_hh_l0 f8 [100, 25]
000000 23 26 e1 a4 ef 8f aa 3f 83 9c c2 68 7e ed c1 bf
       0.05187939536751809 -0.1400602351688783
000010 af d8 0d ce 9c 6e ca bf 25 e8 c5 e6 4f 6f b4 bf
       -0.2065006261943316 -0.079823488083918
000020 73 2a 56 c2 0b 5d b4 3f a6 60 a8 e3 a1 28 c4 3f
       0.07954476828141725 0.15749000183200684
000030 89 b0 fa 3f a2 ca c4 bf 2a 17 05 f0 57 fa ce 3f
       -0.16243389247882004 0.2420148775074094
000040 8b 0c e4 9a 04 dd 9e bf 51 fd c0 da 48 0f cd bf
       -0.03013999171618002 -0.22702894860592918
000050 37 4a e9 25 f9 0d ab 3f 52 01 62 8a cb 54 b8 bf
       0.05284098232063566 -0.0950438702439034
000060 86 72 e4 ff 9f e0 c2 3f a6 4f 17 2a ba fc c2 bf
       0.14748001093621016 -0.1483376222155332
000070 a9 32 9b 74 87 1e c1 3f 71 57 ed 69 ed d7 b8 3f
       0.133744174896852 0.09704479061232775
000080 a5 64 86 8d 90 b7 cf bf 93 af 67 49 67 39 a6 3f
       -0.24778944883727153 0.043406703672956536
000090 18 2a 44 de 7c d6 a2 3f b3 f2 96 f0 57 62 90 bf
       0.03679266179286261 -0.016000150737215346
0000a0 62 c0 13 dd 84 8b c9 3f 30 07 7b a1 67 b4 cd bf
       0.19957028193266796 -0.23206801781457775
0000b0 26 74 10 8d 75 87 a8 bf 5f 15 85 6a 30 2e a3 3f
       -0.04790847155548077 0.03746177006045558
0000c0 15 b1 ff d6 ca 4f c1 bf 72 7a a6 c8 b5 c1 b0 bf
       -0.13524756906498028 -0.06545578144730671
0000d0 89 52 c7 1d 63 5d b6 3f 3f 8f 77 f4 58 28 99 bf
       0.0873624751760166 -0.024567975922664017
0000e0 e0 37 4c 1e ee d2 ba bf 46 8f c6 13 b1 c7 c0 bf
       -0.10478103866282096 -0.13109410729986787
0000f0 b5 08 bd 42 a5 9f c9 3f 05 7f 5d ff 5a 6e ac 3f
       0.2001844955321467 0.055529445335876594
000100 c6 ae 4e 14 00 7d c1 bf 0b 51 b0 68 bf e3 a7 bf
       -0.13662720672197376 -0.046659451989542765
000110 fd 08 18 9c bc d5 c0 3f aa 21 52 d5 5e 2c c0 3f
       0.13152272817394098 0.1263540784459683
000120 f1 f7 4c b6 9d 63 c8 bf 0a 9f a7 a9 7a 06 be 3f
       -0.1905400409831937 0.11728636400186701
000130 63 ad 7a 28 01 46 8b bf 21 59 5e a4 45 56 c3 3f
       -0.013317116782977484 0.15107031369979843
000140 b0 5a 72 3e 29 a6 c8 bf b0 6f 2c 87 6e 0a b4 3f
       -0.19257083462863056 0.07828417587410175
000150 4f 02 01 94 5c 22 67 3f 74 b3 d2 0b a3 f6 cf bf
       0.0028240020911030404 -0.2497142608384838
000160 3b be 4d 8b e8 d3 bc bf 18 21 78 f9 d4 64 c5 bf
       -0.11260846520394178 -0.16713964635005918
000170 1d f5 2a 30 6a d5 ad 3f 95 7b 2d cc cf 00 ca 3f
       0.05826885068879959 0.20314977140057225
000180 d1 02 b5 b6 8a ca ba bf 63 e7 01 9d cb e9 b6 3f
       -0.1046530433714097 0.0895049341505945
000190 bf 62 8b 13 99 b9 c8 3f 4a 26 7c 4d 64 6e c4 bf
       0.1931640000755319 -0.15961889060445095
0001a0 09 53 4d ba c9 6a b7 bf a1 fe 3a e0 82 0e a7 3f
       -0.09147320555105067 0.04503258692920765
0001b0 95 cb 7b d1 7d 06 c0 3f 68 b8 82 64 67 9b b9 bf
       0.12519810417833513 -0.10002752498505318
0001c0 e6 a5 27 1e 3e 52 b4 3f 89 95 4f 5d 51 17 a5 3f
       0.07937992321208007 0.04119352592514775
0001d0 1a 89 d9 9f ad f8 bb bf bd 79 69 06 3c b3 91 3f
       -0.10926327850896592 0.017285287753446833
0001e0 48 e5 5e 9a dd 96 ca 3f 41 ba c9 7b 14 9d b4 bf
       0.2077290538561931 -0.08052185079734732
0001f0 02 a6 50 a5 0f ad ba 3f 85 f9 01 73 36 1f b1 bf
       0.10420320306788969 -0.06688251788907536
000200 de b8 09 bf 9c c6 98 bf 5e 0b bf b3 3b 22 cb 3f
       -0.024195145759613783 0.21198221470521167
000210 f6 68 6f ed 03 d0 ac 3f c0 e1 e7 a4 fd 6c bb bf
       0.05627453111056184 -0.10713181758899903
000220 07 fa 9c 66 3e a1 bf 3f e7 02 9e e7 3b d2 b0 3f
       0.12355413441853368 0.0657079163047559
000230 c0 eb 32 e7 f1 85 99 3f 77 4c d6 89 c1 c4 a1 bf
       0.024925021873723585 -0.03470425422269668
000240 34 b6 6e 42 a2 4f c3 bf e2 36 ad 95 ee b1 86 3f
       -0.15086773151181065 0.011081565802352814
000250 2b 7a 14 51 b5 75 bd 3f ea c3 d0 66 0b 3b 8f bf
       0.1150773356389229 -0.015249337268047076
000260 b2 6d aa c5 c4 b2 af 3f 2d e0 52 76 c8 e2 d2 bf
       0.061910771493070796 -0.2950917392258841
000270 b3 ff a2 18 c4 32 bc bf cd a7 97 80 89 02 a2 bf
       -0.11014962769968299 -0.03517560667735573
000280 0d 57 60 52 44 a0 ba 3f fd 18 b7 17 1e db a1 bf
       0.10400797854557826 -0.034874859232830936
000290 53 99 81 12 f4 d5 c6 bf 63 e7 44 24 84 5e b8 3f
       -0.17840433982491763 0.09519220242955621
0002a0 42 f7 90 2b 7b 0e c3 3f e1 11 a6 a2 83 22 cc 3f
       0.14887942912349145 0.21980328981238897
0002b0 55 19 dd ba 89 2e b7 3f 1a d1 ab ae 0c 85 c3 bf
       0.09055386364079727 -0.15249784973969654
0002c0 4f 3e a0 0c de e2 d1 bf 0d a0 87 61 6e 24 c0 3f
       -0.2794718859958935 0.12611179125019625
0002d0 b2 b1 7f e6 50 9e 66 bf 2e a2 e2 96 87 e5 b6 bf
       -0.0027610378347075687 -0.0894398444530757
0002e0 7f 30 17 8f 64 ef b7 bf 91 42 82 e6 1e ff b6 bf
       -0.09349659436628775 -0.0898303330197996
0002f0 10 2a 74 b2 95 ec c6 3f 4c 90 48 9c ab 92 bb bf
       0.17909499372065385 -0.10770676198495827
000300 59 a3 4a 4e 4a 1b 9c 3f 1f ee f9 bb 71 93 b6 3f
       0.027447854069268505 0.08818732108368764
000310 16 3b 7f 47 2e c1 d2 3f be 0d 36 20 10 20 bd 3f
       0.29304081899765444 0.11377049242405854
000320 bc ac 94 b1 0b e3 d2 3f 34 85 fc b7 6d 74 d6 bf
       0.2951077684580914 -0.3508562371008168
000330 76 98 9f 23 75 d7 c6 bf 31 d7 4d 93 25 75 b6 bf
       -0.1784502433722001 -0.08772501798906941
000340 f3 33 22 72 01 06 c1 3f 07 b0 cc c3 68 df b6 3f
       0.13299577782564106 0.08934645443213195
000350 d2 f9 76 ca 72 7c d4 3f 44 47 a5 1c 26 9e bd 3f
       0.3200957276530093 0.1156944103179543
000360 5c 5f c6 94 41 92 d5 bf a0 0a 9b a7 42 96 93 3f
       -0.3370517685775576 0.019127885322414273
000370 cf 4e 4a 00 a9 71 91 3f ab bf f6 11 f7 54 74 bf
       0.017035141604153033 -0.004963841550690444
000380 7c 81 06 84 5f e4 c5 bf 31 a2 17 eb eb ba d7 bf
       -0.17103189417413123 -0.3707837863753723
000390 81 0e 7e 2b bb a0 d5 3f d9 f4 f7 d9 15 b8 c4 bf
       0.33793524977975414 -0.16186783926961004
0003a0 bd 02 e6 97 12 1a d2 bf f0 aa 4e e5 5f f3 c8 bf
       -0.28284134706340663 -0.19492720314641288
0003b0 1f 88 ca 6d aa ca ba 3f 53 ed c2 44 a7 8e a8 3f
       0.1046549337429785 0.04796335901616069
0003c0 e9 9b 0f 4d bf 9f d1 bf 18 92 ae a1 d9 37 98 bf
       -0.27537519956098194 -0.023650551312714624
0003d0 b2 0c c8 cf 2d 63 a5 bf 47 c1 00 e6 ca 66 d7 3f
       -0.041772300352044836 0.3656489606974173
0003e0 d0 62 cb fb 57 7c c2 3f 0b 30 9b c2 33 a5 d4 3f
       0.144419668146631 0.3225831413699331
0003f0 6d 32 2a aa 5f 05 dd bf b3 74 2f f3 b8 98 cb bf
       -0.45345298402461404 -0.21559821962629186
000400 f2 a5 43 6a b9 e9 d6 bf d2 6e cd 57 4b e3 bb 3f
       -0.3580153978096795 0.10893698590865178
000410 28 0c d0 a4 74 2c b3 3f ac 97 69 41 b1 aa dd 3f
       0.07489708923098759 0.4635432375711115
000420 5f ac 1d 29 9c 39 be bf 53 43 c6 47 b8 02 cc bf
       -0.11806655887419158 -0.218833003088117
000430 04 d8 1e d3 c5 b8 da 3f d6 2b 70 28 b0 56 c0 bf
       0.4175276338313554 -0.12764551138420072
000440 d1 96 7c 00 5a 70 d0 3f b8 c2 18 08 f8 df ca bf
       0.25685739562537174 -0.2099599875960132
000450 d2 9b 7d 7a 36 f8 d2 bf d7 2b d4 81 c4 b6 be 3f
       -0.2963997074315873 0.11997631234787264
000460 b7 57 03 12 a3 b0 b9 bf a4 c2 24 24 dd d4 d0 bf
       -0.10035151662609008 -0.2629921772923274
000470 4b d4 d5 e6 c2 4b de bf 7a ff 6b b5 7b 05 c9 bf
       -0.4733741049051942 -0.19547983511437989
000480 ca 83 9a 46 91 c4 bd bf c1 9e 8c ce c8 ca da bf
       -0.11628063176841788 -0.41862697764234374
000490 dd f9 ee 73 49 be b0 3f fe d1 0c c2 92 bd b8 bf
       0.06540354805381506 -0.09664265859175455
0004a0 46 55 e3 5f ad 38 dd 3f e6 d1 9e ab 52 c2 d6 3f
       0.45658430446686216 0.3556105304699301
0004b0 09 20 0e 0b 4c 72 98 bf 0d c8 7d 87 21 e5 b3 bf
       -0.023873508620027937 -0.07771501119512454
0004c0 49 3a ea af e6 cb c2 3f 02 18 16 d5 b4 0c bb 3f
       0.14684756841275462 0.10566263391783084
0004d0 cb c6 5e f9 fc 0e bf bf 17 60 94 e7 b3 6e d2 3f
       -0.12132245147838742 0.2880067597884603
0004e0 ba 4a fb 4f d8 e7 d3 bf 70 0c 9c c1 31 84 76 bf
       -0.31102569399551394 -0.005497164116380224
0004f0 97 24 f7 30 73 85 b2 bf c8 fa 7c cc 3b 6e af bf
       -0.07234878488010775 -0.061387890541018175
000500 b3 cd 7a 4e 1f 3c 8d bf 66 dc 13 78 a1 cd 9a bf
       -0.014274830420027173 -0.026175044015840497
000510 b6 67 c9 03 fb bd c4 bf 3b f6 c9 78 48 71 d3 3f
       -0.1620477455606399 0.30378925128738715
000520 57 db 51 e7 1d d4 a4 bf 59 cf a9 99 d1 59 b5 bf
       -0.040680822837137746 -0.08340177537485029
000530 96 13 dc ed 9c 1a ba bf 31 93 88 4a ae f5 c6 3f
       -0.10196858222123092 0.1793725837643705
000540 8b 77 c4 2b 99 35 b5 bf 2b d2 21 48 c7 f7 c3 bf
       -0.08284909552136648 -0.15599909803462828
000550 78 a0 bd 2d 60 66 ad 3f de 1d 16 e6 94 85 cd bf
       0.0574216895900585 -0.23063908800780458
000560 84 c0 48 3c b3 8b b1 3f 1a f4 c8 2a 3e 03 d3 bf
       0.06853790494710849 -0.2970729272672671
000570 16 6f 1d 6f fc e0 d1 bf 03 d5 8a 54 80 56 90 3f
       -0.2793570599658194 0.01595497623448684
000580 72 78 74 65 96 e9 a9 bf fb 5c 81 05 fa f6 c1 bf
       -0.050610256085051555 -0.14034962910475443
000590 c1 98 a8 c5 d0 6c 8e bf e7 75 9e 94 9b 45 a9 bf
       -0.014855986625729735 -0.04935918988415349
0005a0 fd e8 35 60 d9 ce b8 bf cd 3b 2c 06 be 46 d1 3f
       -0.09690626715556401 0.26994276621638563
0005b0 4a 98 50 23 eb 19 cf bf d4 98 3d a0 15 7b c4 bf
       -0.24297847008091572 -0.1600062401223058
0005c0 09 09 43 27 47 d7 d0 3f 91 93 7e 18 52 fb b0 3f
       0.2631395228783196 0.06633484933861512
0005d0 a6 c8 40 7f a1 c9 b4 3f 9f 1e b0 13 c2 4d b0 bf
       0.08120164257778359 -0.06368649464286101
0005e0 99 d6 42 0e 4a 49 c0 bf 55 f5 6c dc fe ae c1 3f
       -0.1272366113313879 0.13815294039697315
0005f0 80 e0 cf b0 93 1f b5 bf a7 7a cf 80 43 ea a5 3f
       -0.08251307551097575 0.042802915071424245
000600 4f 9f 19 a2 d5 71 a5 bf e2 2e bb 67 8a 3a b3 bf
       -0.04188411334763364 -0.07511200935840237
000610 a8 b1 68 99 77 bb c1 bf b1 c8 7e 04 80 b9 c2 bf
       -0.13853354445144572 -0.1462860128354513
000620 bc 8e 44 c8 ee 9a 8f bf 31 03 0b 51 06 14 bf bf
       -0.015432229506195376 -0.12139930227841657
000630 03 71 7f 60 1a 6e 93 bf 72 c1 2d 6b 1c fb ae bf
       -0.01897469724632207 -0.0605095749696173
000640 11 fb d6 e3 7c a4 95 3f bc c5 cc 07 91 75 b0 bf
       0.021135283857570523 -0.06429392280985885
000650 85 07 7f e5 63 83 be bf 3f 28 e1 12 78 87 c2 bf
       -0.1191923556607702 -0.14475918695308285
000660 55 ae 0c 6a d7 7c c6 3f 1b 80 49 bd 8e 9e 94 3f
       0.17568485906791645 0.020136099150818248
000670 07 10 3f 35 95 82 95 bf ba 44 b8 95 a7 c1 a1 bf
       -0.02100594651689394 -0.03468059256204854
000680 8c 79 65 b6 35 40 c9 3f 45 f1 6e b0 db b3 bd 3f
       0.19727202802728205 0.11602566773848817
000690 c9 dd 36 cf 08 bd c3 3f 8e 09 a6 8a 04 24 b4 3f
       0.15420637243162919 0.07867458710646799
0006a0 1e b2 4b f2 97 4e c6 3f bf c0 fe b2 78 39 cc bf
       0.1742734845241935 -0.2205038904189731
0006b0 8a c7 3b 6a da 99 b8 3f 84 af 6c 2e a8 de a4 bf
       0.09609761327354086 -0.04076123778062793
0006c0 8c 0c c8 97 01 3c b4 3f b2 ad 97 b5 e5 14 c9 bf
       0.07904062228776548 -0.1959502350504017
0006d0 ed e1 ea 3b 91 ea b3 3f 9b 2a a9 76 c5 0a ce 3f
       0.07779796326474982 0.23470371526703535
0006e0 51 1a 81 ef 46 04 c7 bf 61 ef 26 f2 10 97 ce bf
       -0.17981802649065284 -0.23898517440636183
0006f0 c2 5d 55 f3 f1 c6 99 3f 9b 00 b3 fa e1 c2 a0 3f
       0.025172977902313105 0.03273683724683104
000700 3c 24 af d1 87 19 d0 3f c2 74 9d a3 ba a2 b6 bf
       0.251558260698008 -0.08842054838665361
000710 6f 49 d3 94 c2 2d cc bf 55 35 ad dd a7 70 a7 bf
       -0.22014648691999691 -0.0457813699818909
000720 37 ff 8e b5 d5 fa 90 bf 84 a7 31 9b 3d 96 bc 3f
       -0.016581858831840903 0.11166749037661644
000730 69 70 2c 30 cc 23 bd 3f 92 92 ac d4 ab ef c5 bf
       0.1138274781810097 -0.17137668499448871
000740 4b 88 a6 34 2e dc ce bf 49 16 50 b7 f8 d6 ba 3f
       -0.24109437533212694 0.10484270549212583
000750 b3 8c 0a 19 30 7a a1 3f 9e b8 ea cc 87 55 b4 bf
       0.03413534455946756 -0.07943009140828614
000760 e0 ee f0 1c ac ad b4 3f 61 45 1a 5d 25 a0 b6 3f
       0.08077502924509927 0.0883811332989999
000770 1a 3f ca 03 49 62 ae 3f eb 68 09 37 8d da b1 bf
       0.05934360667481382 -0.06974108308478193
000780 9b bf 4d 2e 85 75 b0 3f eb c2 c6 2f 04 5b a9 bf
       0.06429321651898905 -0.049522524673539646
000790 27 c8 1d 50 41 e4 c6 3f 8f 33 7b f3 87 cc bc 3f
       0.17884079372339665 0.1124958962856921
0007a0 e4 f2 93 d2 2b b5 c0 bf 3b 6f 68 ed 10 e1 b8 bf
       -0.1305289056980633 -0.09718423648922407
0007b0 9b 4d 90 5d aa 1b d2 bf ce 5d 9f c1 b9 16 c4 bf
       -0.2829385675151685 -0.15694353059983118
0007c0 3a c2 6b d4 3c b6 c6 3f 17 02 12 cf d1 ff b3 3f
       0.17743645069232789 0.07812224679401712
0007d0 82 63 5a 72 a6 79 b0 bf 3d a4 c8 f7 7d cf c1 bf
       -0.06435623447249664 -0.13914465521637168
0007e0 95 f1 5d 76 08 f7 c1 3f c1 bc 33 a0 be 60 a8 3f
       0.14035135059010587 0.047613102966232564
0007f0 de f9 79 ff d2 10 ad 3f 3f ac 0f 4b ac ba c8 bf
       0.056768983541576765 -0.193196808482158

rnn.bias_ih_l0 f8 [100]
000000 7a be 51 43 2b bf 9f bf 90 7c 97 85 a7 af c9 bf
       -0.031002689346165437 -0.20067304633173366
000010 07 04 f8 96 02 c2 ba bf 6b 7e 7e 94 21 ab 93 3f
       -0.10452285943758009 0.019207501114236452
000020 c6 15 e1 19 4c c9 aa bf 6b 16 63 4f e8 fa bd bf
       -0.05231702629002259 -0.11710979402695336
000030 f0 a2 63 04 1d 27 cb 3f 3a e0 e9 08 6a f3 ab bf
       0.2121311446601548 -0.05459147795494386
000040 71 6b 17 62 02 2b aa bf 1f 7d 03 3f 93 95 c6 bf
       -0.05110938498884011 -0.17643967224919607
000050 c4 28 29 5e 91 f9 ca bf 52 3d f9 fe 61 af a1 bf
       -0.2107412061471391 -0.03454118955107312
000060 c2 57 9a 82 63 8a bd bf 0b 38 9c 92 87 a8 cc 3f
       -0.1153928941588154 0.22389311464979786
000070 07 96 bf 90 6a 86 c6 3f ca c5 7f a4 f1 98 98 bf
       0.17597705905716074 -0.024020934739331236
000080 18 44 4a 9b d8 b5 cf bf 7b 4f 56 0c bb e4 b6 bf
       -0.24773700315975655 -0.08942765284728964
000090 51 b2 e4 ba 6a 4a c8 3f 56 fb 1f 8f 40 f8 d4 bf
       0.18977102399493842 -0.3276521108345397
0000a0 94 b5 e4 28 0d b3 c4 3f a4 09 34 e4 b7 a5 c5 bf
       0.16171421524761043 -0.16911982195604225
0000b0 1f 7e b9 06 c8 ec c5 bf b1 33 a9 89 56 08 b9 bf
       -0.17128849342678706 -0.09778347836363711
0000c0 f1 41 42 7c 8c ad b4 bf 7c a7 d3 c4 fd 17 5f bf
       -0.08077314408934179 -0.0018978098117323474
0000d0 8e e7 1c 38 9d 52 b4 bf 01 3a 80 86 02 06 96 3f
       -0.07938559169715928 0.02150730081489805
0000e0 48 b0 c2 ca 6b 32 22 3f 90 75 4f 4b a0 a4 76 3f
       0.00013883176632612155 0.005528093480248755
0000f0 ff c3 aa f8 39 47 95 bf 32 7f 71 3f 90 c8 a6 bf
       -0.020779519846374935 -0.0444989278264515
000100 53 33 68 55 d4 c7 bb 3f 9f d1 c8 35 4f d2 ab bf
       0.10851790509350438 -0.05433890849636502
000110 67 df ee 6c 9a 68 c9 bf 66 c6 18 83 2c 5f c7 bf
       -0.1985047370815167 -0.18259197617730932
000120 88 3e 46 eb af 86 c0 bf 27 28 23 29 4a 1d b6 3f
       -0.12911032665259747 0.08638442520455723
000130 28 72 22 a0 8a b9 86 3f 27 a1 c5 be f5 96 cc bf
       0.011096079837721609 -0.2233569318298205
000140 55 c2 4f cc 4b c3 b8 bf a6 e7 3a f9 78 5b 91 bf
       -0.09672998178553745 -0.016950502597616122
000150 e4 66 66 d8 74 b0 7e 3f e7 42 24 5f 4d c7 9a bf
       0.007492500712396686 -0.02615090268324396
000160 8b 2d 9b 69 0a 48 b3 bf 55 b7 df f5 fd 12 c2 bf
       -0.07531800344729882 -0.14120459085045903
000170 57 72 d4 4f bc eb d0 bf 51 7d f4 c7 db 6f a6 bf
       -0.26438815875898086 -0.04382216277940166
000180 fd 6f e2 9e b5 22 b3 3f e7 71 7b 2d e9 4f c6 bf
       0.07474837426201471 -0.17431368561564328
000190 44 50 c4 a7 b8 cd 8a bf 5a fa fd af e1 61 b6 bf
       -0.013087694759214348 -0.08743105456049119
0001a0 63 4d 7b 99 e5 ae b8 3f 20 ff 89 c3 d3 ca 8e bf
       0.09641871449575982 -0.01503529968726941
0001b0 a2 6f bc 49 cb b3 9c bf 7d fd dc bc fe de a9 bf
       -0.028029610038273874 -0.05052944236239918
0001c0 ee 55 1d 34 9d 3f 61 bf 63 fa d0 8b 7c 60 a3 3f
       -0.0021055288679387918 0.03784550863973803
0001d0 ff 83 cf 22 40 d3 aa bf 7f 36 a4 8a 8c a1 ad bf
       -0.05239296364721468 -0.05787314598465531
0001e0 e9 53 11 a2 b9 bd a9 bf da 0a fd 2c cf 73 94 bf
       -0.05027561286320987 -0.01997302734458626
0001f0 86 1c 65 6b 9c d7 78 bf 4d 9a 50 78 1d b4 be 3f
       -0.006064997686116352 0.11993583857893349
000200 d3 7f d3 90 00 75 b8 3f f6 9f 64 52 41 31 b0 3f
       0.09553531204028269 0.06325157414960345
000210 9e 47 a3 54 fb dc bb bf a6 31 15 16 ff dd be 3f
       -0.10884066406586476 0.12057489670878016
000220 0c 0a da d3 f6 25 c0 bf 86 05 40 56 6c 4b b4 3f
       -0.1261585745269972 0.07927586656298588
000230 e9 c0 f5 4c 91 83 ca bf e1 ae 7d 82 55 42 9d 3f
       -0.2071401239186408 0.02857335671380568
000240 af e8 d3 59 f1 1d af 3f da 51 0b f8 0e a3 bf 3f
       0.06077532025843035 0.12358182483450922
000250 5c e5 70 24 f2 88 b7 bf 17 fc e6 6e c6 ec d0 bf
       -0.09193337812111707 -0.26445160703946285
000260 c5 08 f6 f2 79 e7 c8 bf 6f a8 be 18 80 99 bc bf
       -0.19456409800847588 -0.11171722988243159
000270 75 bb ae bd df a2 be bf fd fe f3 1c 82 fa a0 3f
       -0.11967275982781962 0.03316122630530847
000280 f6 c5 e4 51 34 f2 bc bf d8 88 36 96 68 de 9b bf
       -0.11307074546200355 -0.027215608757281767
000290 22 18 09 ed 15 e4 97 bf 52 f8 b0 0d fb 51 79 bf
       -0.023331015198231005 -0.006181698491728298
0002a0 2a 45 c8 36 99 0b bf bf 2a cc a5 10 28 2d a3 bf
       -0.12127072894533755 -0.03745389178484289
0002b0 ea 9e 2c 7e 7a 42 7b bf 90 66 e2 81 77 c7 95 3f
       -0.00665519570137694 0.021268718054307245
0002c0 e2 cf dc a1 b8 84 be bf ff 7a 4f f4 2e 43 c4 3f
       -0.11921266509744968 0.15830027512762254
0002d0 30 79 06 fd de 5d 8d bf 76 0c 0e 24 3a 2c b6 3f
       -0.014339201065749124 0.08661235218282734
0002e0 9e ce e0 a9 46 ae 86 bf 36 5e ea 57 e6 73 c3 3f
       -0.011074592646856115 0.1519744805598166
0002f0 b4 62 af 75 d7 87 d3 bf ec 54 ae 39 c0 ef cb 3f
       -0.305166115691047 0.2182541162152697
000300 f5 44 8e 27 1a 35 ca bf 98 21 90 cf b9 eb cc bf
       -0.20474554950173 -0.22594378123200154
000310 de 8a e3 e3 15 9a b7 bf 12 64 a8 a3 f0 ac c9 3f
       -0.09219490827267005 0.20059020987608328

rnn.bias_hh_l0 f8 [100]
000000 73 90 2b 2f 4f 74 bd 3f f0 06 d1 74 5c d9 b0 3f
       0.11505598928084897 0.06581666805234554
000010 0a f0 1f a4 b1 fe 98 3f 96 9f 1f e5 3b 6b b1 3f
       0.024409080164318232 0.06804251045070794
000020 86 2b c2 33 d4 bb 92 bf 5c 59 8c 3d 20 0d 9b bf
       -0.018294635447584827 -0.026417258984190325
000030 c5 16 1d a3 4b 91 93 3f 6e 3f 2c ee d6 3a 94 3f
       0.019108945685067952 0.01975570515338581
000040 3a 4a f4 0e 9c fd b5 3f a9 05 f9 41 5d e1 b5 3f
       0.08590102543920689 0.08547003613150274
000050 a2 51 52 9c 94 01 b6 bf 55 d8 20 e8 74 72 d0 3f
       -0.08596161667293825 0.2569858805540027
000060 0f d4 b2 fe 05 25 ce 3f eb 8f c7 1a 8f fe be bf
       0.2355048650403266 -0.12107176212117536
000070 23 2c 7f 21 77 92 bd 3f b8 f8 8f f4 b2 18 c6 bf
       0.11551613395492714 -0.17262875501177688
000080 0f 44 4a 9b 0c b7 c6 bf 02 9f ac 98 4c f2 a4 bf
       -0.17746121962093794 -0.04091109622669188
000090 4e b2 e4 fa 6e 8f cb 3f 61 ed 7f fc c6 c1 b6 bf
       0.21531474352504393 -0.0888943067983994
0000a0 9a b5 e4 28 dd 4b cd 3f b6 ec 97 b7 f8 35 be 3f
       0.22887768265483716 0.11801104051839925
0000b0 1b 7e b9 c6 1b 0a c1 bf b7 33 a9 49 8b 82 b1 bf
       -0.13312098697041183 -0.0683981947742741
0000c0 13 be bd 43 cb 86 bb 3f 48 a7 89 db 63 da c3 bf
       0.10752554324948731 -0.1551022359811276
0000d0 db 73 0e 2c 17 44 c5 bf 42 07 d0 50 fd 38 c2 3f
       -0.16614045764154536 0.1423641819565607
0000e0 48 a9 a7 86 32 66 59 bf 97 22 2c ed 91 59 94 bf
       -0.00155024465731886 -0.019872932530264533
0000f0 86 58 15 9f e1 65 c4 bf 38 7f 71 3f ff 24 a6 bf
       -0.15935917155974638 -0.043251015181111574
000100 76 cd a0 55 c8 2c 93 3f 83 2e 37 ca 7c a7 a2 3f
       0.01872551939613972 0.03643407791568356
000110 68 df ee cc e3 88 c3 bf 66 c6 18 f3 28 c4 c6 bf
       -0.1526150465631375 -0.1778613268848403
000120 62 b6 e0 5c ca 63 50 3f ed 6b 6e eb b1 9d c2 bf
       0.001000354404378533 -0.1454374694411337
000130 eb d8 fd b5 cd d4 c0 bf 24 a1 c5 de fd 12 c8 bf
       -0.13149424921329653 -0.18807958009279802
000140 68 7b 60 e7 86 25 a5 3f f9 c3 28 36 70 e0 6e 3f
       0.0413019330446705 0.0037691299087545507
000150 61 66 e6 c9 24 ac 92 bf 2d 44 f2 35 80 5c d1 bf
       -0.018234801123617198 -0.27127080219458116
000160 55 cb 66 7a c8 f2 d2 bf ad 48 20 ea cb b3 ca 3f
       -0.2960683055236378 0.2086119549936191
000170 8a 36 ae 40 35 68 b4 3f 69 7d f4 c7 32 3a ae bf
       0.07971508816828013 -0.059037768276762055
000180 22 90 1d a1 ec 2b b6 bf 1d 8e 84 f2 12 14 c4 3f
       -0.08660773213847553 0.15686261026085982
000190 0e 76 07 ab 87 76 b5 3f 2c 0b 04 a0 40 f0 a5 3f
       0.08383987355724562 0.04284860566442314
0001a0 4b 59 42 83 a8 79 c8 bf b3 7f e2 70 f4 e5 a1 bf
       -0.19121271523608593 -0.03495754125583463
0001b0 d7 1b 6f 72 76 3d b8 bf 7b 02 23 43 2e c9 a2 3f
       -0.09468784612464219 0.03669113702335821
0001c0 4b 15 5f 96 26 5f bd 3f 62 c1 0b 9d 1b 0c c9 bf
       0.11473313494851316 -0.19568200271852293
0001d0 a1 07 9f 45 f6 6b 9a bf 6a f2 56 7d 21 05 c3 3f
       -0.025802467345563355 0.14859408016299663
0001e0 fa 57 dd bb ee 06 99 3f ae 5e 60 9a 94 02 c4 3f
       0.024440508095118198 0.15632875001823748
0001f0 ec 28 5b e3 dd 16 c5 bf d7 b2 d7 03 ca 81 c9 bf
       -0.16476033784267174 -0.19927334964395158
000200 d6 00 c8 f2 36 68 76 bf 05 b0 cd d6 36 19 c2 bf
       -0.005470480577514722 -0.14139447678041975
000210 5d b8 5c 2b fc b5 b0 3f 30 67 f5 74 c0 46 ca bf
       0.06527687128684208 -0.20528417311543867
000220 1c b0 2f 61 bb b9 95 3f eb a6 ff 9b 1a 49 7b bf
       0.021216323668269962 -0.006661514227724412
000230 36 fc 28 4c 60 f3 a9 3f 47 94 60 df 97 02 be bf
       0.05068493776024534 -0.1172270698885579
000240 61 17 2c a6 f9 ff a1 bf 0f 5c e9 0f 02 e1 ab bf
       -0.03515606072873712 -0.054451050226525514
000250 5d 8d c7 0d b8 bc c8 3f d8 0f 64 04 7e 34 b6 3f
       0.19325924561335742 0.08673846823882003
000260 c3 08 f6 c2 e3 59 c4 bf c2 ae 82 4e d7 b5 ad 3f
       -0.15899321574767641 0.058027962049292295
000270 89 dd ae 6b bf b3 54 bf 19 80 61 3c 2f d7 d0 bf
       -0.00126355832501965 -0.26313382050102657
000280 f4 62 f2 a8 14 9f c2 bf e9 2e 39 6d 16 f8 c9 3f
       -0.14547975777966082 0.20288353284046615
000290 02 31 12 da 91 8c 8c bf 67 0f db b0 22 23 b7 bf
       -0.01393999048948347 -0.0903798753525372
0002a0 57 8a 90 2d 72 e9 a4 bf 0f 73 29 14 73 e7 c7 bf
       -0.04084355169495229 -0.1867507790037952
0002b0 f1 c9 e2 c7 4d 68 bc bf 93 99 78 60 b2 16 b2 3f
       -0.11096655015970903 0.07065882544757178
0002c0 0b 7f e6 0e bb e8 87 bf 2b 14 c2 ae 77 fc ac bf
       -0.011674367325042142 -0.056613674242761945
0002d0 73 3c 83 7e ec aa 92 bf 7b 0c 0e a4 12 f3 b6 3f
       -0.018230147573202914 0.08964649682279628
0002e0 c1 19 3c d5 00 d3 b5 bf eb 78 a9 df 89 c3 a2 3f
       -0.08525090413977578 0.03664809088944473
0002f0 91 c5 5e 2b 24 60 c7 bf b0 61 35 ca 5e c1 7a bf
       -0.18262149923024798 -0.00653206851287573
000300 0a 8a 1c cf 0e 03 b1 bf d1 10 c8 6f e2 87 d8 bf
       -0.06645290905411386 -0.3832937327972675
000310 71 c5 f1 31 66 37 c7 bf 12 64 a8 23 f9 47 cd 3f
       -0.1813781494015916 0.22875894776441946

rnn.weight_ih_l1 f8 [100, 25]
000000 7a f4 40 10 d1 58 d0 3f 21 03 ee 62 8e a4 c0 bf
       0.2554209383704983 -0.13002185659936408
000010 bd de 0d 8b ea bb b3 bf 2b 37 74 ba 96 0e cb bf
       -0.07708612341763917 -0.21138271431157682
000020 d6 f9 11 f1 1b 13 b3 3f 79 1c a2 0e 92 96 be bf
       0.07451033244613056 -0.11948502404458052
000030 ea 75 48 ea 6a d3 ab 3f 23 46 3f 17 66 98 b3 bf
       0.05434736356640342 -0.07654417102391924
000040 d3 e5 a3 81 dc 08 9d bf 0b 74 2b 2c 63 0c d1 3f
       -0.02835411587964194 0.2663810664506065
000050 9b 10 0a a7 35 c6 c3 3f ce 0b fb e2 62 88 d6 3f
       0.15448637634483905 0.35207435766295425
000060 ee 29 10 1f 80 a4 d3 bf 03 5e b9 28 db 0e c3 bf
       -0.30691531213292833 -0.14889087189179415
000070 76 c2 9a 43 90 61 a6 bf 97 79 0a 93 94 c0 a2 bf
       -0.043713100674158165 -0.03662552161152915
000080 b3 c5 66 e1 10 bf 90 bf 07 cf 13 0a 39 0f ce bf
       -0.01635385871640489 -0.23483956329402408
000090 79 56 5d 33 6c 51 d0 bf ed 3c 25 46 d2 95 cc 3f
       -0.25496964469980515 0.2233221857554563
0000a0 54 0b 98 71 2e 31 d3 bf d2 c2 9d ea 8d 72 bc bf
       -0.29987679570347336 -0.11112296083389175
0000b0 51 7e b3 2e 45 55 c6 bf 60 6c a7 ac c2 4b 97 bf
       -0.17447724132851986 -0.02274994066997882
0000c0 4b 48 85 c1 97 7e c3 3f 5b 95 69 85 f6 6e b4 bf
       0.15230080556153988 -0.07981816060199291
0000d0 fa 36 d1 db c5 1a c6 bf 3e f2 db df a1 80 d2 bf
       -0.17269204362167284 -0.2891010938763293
0000e0 8d 0d 30 c7 fb 0c 86 3f 70 0a a9 f6 73 c7 c2 bf
       0.010766951576448825 -0.1467118219753334
0000f0 46 70 e0 fd ec b1 98 bf 65 df f7 f4 b6 63 bb 3f
       -0.024116232867627006 0.10699027519865252
000100 e6 96 d5 d6 79 01 d3 bf bd af 13 ec fa b9 9f 3f
       -0.29696508388438614 0.03098289552592325
000110 a0 b5 3d da e7 98 b4 3f bc 6c fd 7b 74 24 79 3f
       0.08045815542364787 0.0061382818383563485
000120 73 7e 92 79 fa 3d c4 3f d0 3a 63 ea 45 79 d2 bf
       0.1581414311994994 -0.28865192307868615
000130 ef c8 05 29 3d 4c 84 3f 09 cd 38 85 53 47 b8 bf
       0.009911039175424878 -0.0948383522270896
000140 da 4e 54 2e f3 4a cd bf 73 9f a6 cb 7b 72 c3 bf
       -0.22884979021238544 -0.15193126148119127
000150 e1 ff 41 8d 79 f0 97 3f f2 de db 10 ad 7f c2 bf
       0.0233782761065412 -0.14452136347949068
000160 ed 09 85 16 24 50 d2 3f 39 e3 12 5f 00 f2 be bf
       0.28614141654193653 -0.12088014908921431
000170 1e f7 6a 69 2b 6a c2 bf 82 49 02 29 38 7c da bf
       -0.1438650383697046 -0.4138317490079758
000180 51 6a 4b 8b 0f 90 c5 3f 03 d5 0c b0 41 73 ce 3f
       0.16845888425344183 0.23789235206792378
000190 77 43 fb 80 04 a2 b1 bf 6c 5e 59 b1 42 9c cb 3f
       -0.06887844227754934 0.21570619258521917
0001a0 94 88 ef 6e 43 ea c4 bf ce ea f1 5f 1e 0c c4 3f
       -0.16339915196210042 0.15661983189405365
0001b0 9d 9a 96 46 83 f5 81 bf c5 02 fb 62 f1 29 b3 3f
       -0.00876905974548708 0.07485874811664946
0001c0 46 d1 f8 f4 75 fe ca bf b8 66 91 c6 3f 19 c2 bf
       -0.2108905264045779 -0.1413955421037849
0001d0 b9 ec 85 f2 57 5e d6 3f 32 ff 52 21 c1 87 d7 bf
       0.3495082729711601 -0.36766079191510237
0001e0 2e 67 b9 bf 80 0f 87 bf db c2 fd bb 50 6c ae bf
       -0.011260038233718097 -0.05942013068022841
0001f0 d0 26 56 83 1c c2 c0 bf f2 80 62 07 e2 13 ca 3f
       -0.13092380917469493 0.20373177872261966
000200 69 bc b2 cb e8 70 99 3f fd a5 55 e3 77 c9 c2 3f
       0.024844777519941994 0.14677332496948728
000210 94 e3 1c 52 4e 7e cb 3f cb 5c 58 fc 8e ab 90 bf
       0.21479205140510926 -0.01627944388573325
000220 15 12 a5 dc dd 5d 9b 3f a6 af e9 dd 9b 37 a2 bf
       0.026725260345545083 -0.035580511893243114
000230 3e c7 7c db 82 ec c8 3f 2e 09 7c f2 fb 49 9b 3f
       0.1947177478519339 0.02664941470630671
000240 21 80 7d 78 92 bc d2 bf 21 5b ad 36 72 b0 c9 bf
       -0.29275953070282595 -0.20069720907005098
000250 46 16 c1 52 77 46 b1 bf 62 b9 24 b9 5c 97 ce 3f
       -0.06748147745482766 0.23899420776565267
000260 ca 8c f4 52 57 6e ab 3f b6 3f dc 89 0e af c4 bf
       0.053576210857750065 -0.16159230929815543
000270 34 a4 a9 80 2f 28 b6 3f c2 48 7d c7 33 ef 83 3f
       0.0865506829374148 0.009733585858758057
000280 f9 0c 24 e2 9f cf b2 bf e7 13 13 1d 22 c2 d3 3f
       -0.07348059912697015 0.30872395362194854
000290 ac 3b 25 56 aa a5 bc bf ae ff 8a 4b c0 e4 a5 bf
       -0.11190285304222297 -0.04276085779338189
0002a0 fa 05 e0 db 3f a8 c8 3f 81 bd d1 dd 05 27 32 bf
       0.1926345656975597 -0.00027698415016793465
0002b0 4f 02 0b ad 88 96 ce 3f f5 dd fa 43 0f 79 8d bf
       0.2389689297615569 -0.014391059171756185
0002c0 f2 be 81 65 75 dc c5 bf e1 87 41 85 03 eb 6e bf
       -0.17079036194217384 -0.0037741726646780415
0002d0 5a 4d 7d c0 c1 c8 b2 bf 81 2f 77 a8 40 91 b9 3f
       -0.07337580632638688 0.0998726283352749
0002e0 4d 18 20 7e 51 44 cb bf 04 bf b7 bb 6e e4 c1 bf
       -0.21302240999665614 -0.13978370824724362
0002f0 80 b7 90 af b2 5f be bf b4 9f a0 6c 21 3a ca bf
       -0.11864773546468932 -0.20489900402139727
000300 d7 a4 e6 03 cc 84 9b 3f 24 68 4f d3 29 47 c5 bf
       0.02687376760301138 -0.16623423402671833
000310 aa 39 33 3b 0b d5 d1 3f 9c c5 2b 22 cb 91 d2 3f
       0.2786281660200084 0.29014852845201644
000320 e8 eb bf bd 26 dc 8c 3f 09 ec a6 d5 fb 5e c1 3f
       0.014091780343724339 0.13571117336491081
000330 b3 27 02 54 bc bc bd 3f fd 18 6b 6e 18 c4 a2 3f
       0.11616112757670187 0.03665233943825006
000340 07 46 6d 4c 97 57 c1 bf e9 94 10 92 03 fc ad bf
       -0.13548556548862242 -0.058563338833019625
000350 11 70 83 4a 9d 1e cc bf db 0d 87 78 22 95 d5 3f
       -0.21968427790022863 0.33722745676297244
000360 95 4a a0 7b 81 d3 d3 3f b5 f8 a6 48 c0 8d d1 bf
       0.30978428910126726 -0.2742768010611017
000370 db e7 80 7d d0 3a 6d bf 33 84 96 ee 77 5f d4 bf
       -0.003568083961025243 -0.31832693385701133
000380 a4 a7 2d 53 05 d4 de 3f 05 a8 80 41 20 9a d1 3f
       0.48169072268376056 0.2750321044610476
000390 36 d9 95 31 d1 8a d2 bf d2 dc 12 a7 99 24 c9 3f
       -0.289722727225484 0.19642944963354708
0003a0 f5 c4 f3 ba 62 e9 c0 3f a1 a5 10 58 90 1b a6 3f
       0.1321223652699143 0.04317904543888607
0003b0 3a c4 da 8b 99 48 cc 3f 38 7b 8e c2 13 8c ab bf
       0.22096556977115417 -0.053803079127865805
0003c0 82 af 5c 97 80 e4 dd 3f d2 75 b6 fc c8 22 73 3f
       0.46707167417002193 0.004671845537271806
0003d0 e2 7b 20 09 db 89 a4 3f 72 1e 2e ab 5e e5 cd bf
       0.04011425482189403 -0.23356231077581274
0003e0 16 f3 e4 e3 54 e0 aa bf a3 a4 e1 85 1b ac b5 3f
       -0.052492764300472824 0.08465740221585576
0003f0 34 12 c0 75 47 58 b8 bf 5f 9a d5 fe 40 d8 c6 3f
       -0.09509703278315201 0.17847454493603984
000400 20 ed 83 fb 00 44 9f 3f c5 c5 35 ae 90 49 cc 3f
       0.03053285155418195 0.22099503046369598
000410 f5 f2 64 55 eb bf ac bf 8e ac 11 cc c8 38 d0 bf
       -0.05615172784243853 -0.2534658425199233
000420 32 59 00 6b 22 fe c0 3f de e4 3a eb a2 53 d6 3f
       0.13275556778598624 0.34885476085362466
000430 37 d9 07 72 69 b5 c8 bf f0 27 08 02 b6 03 b8 3f
       -0.19303625171569092 0.09380662488561575
000440 98 e2 77 c9 c2 de c0 bf 3d 37 d6 ed 9c 48 dd 3f
       -0.13179812276191138 0.4575569460511025
000450 e6 1a 07 99 ba 88 b1 bf ad a2 68 6e cc 64 ce bf
       -0.06849256740597873 -0.23745112792064074
000460 58 e4 57 67 b6 22 ad bf 43 00 ab 65 21 7b c8 3f
       -0.05690546046748385 0.19125764335876924
000470 fe 01 5e 19 fe c5 ab bf 6a 84 9f 65 73 ed d0 3f
       -0.05424493846567556 0.26449284481174706
000480 b9 dd bf 6d 9c 74 a7 bf 62 3f 78 c4 d7 3b ac 3f
       -0.04581154670443816 0.055144064648742455
000490 4e 51 9f 64 2e 63 b3 3f ae ed 80 09 bf d2 c0 bf
       0.07573213535881004 -0.13143146480602524
0004a0 51 2c f5 5d 7a 69 c2 bf 58 e6 c1 d6 94 c9 c5 bf
       -0.1438439329889172 -0.17021427618219565
0004b0 7e b7 ef ee a2 76 bd bf c4 70 54 a4 41 53 82 3f
       -0.11509149869354293 0.008947861506890205
0004c0 5c bc c7 b9 84 12 b3 3f e9 02 4c 06 b1 a0 c2 bf
       0.07450131927156306 -0.14552891547648208
0004d0 69 52 f2 5b 4a bc b8 3f 6b 08 43 fc 11 54 c3 3f
       0.09662308449544245 0.15100312058899887
0004e0 21 3c 31 d0 b5 d7 8c 3f b6 6e f1 d6 f4 54 ce 3f
       0.014083309570336823 0.23696766371982897
0004f0 59 5d ae c9 fd f8 c3 3f e1 47 70 ad fa e5 9d bf
       0.15603611324034253 -0.029197613559581618
000500 c2 01 84 63 ac 55 b3 3f b4 0c d4 c3 6d 8b 72 3f
       0.07552602223950713 0.004527500886300096
000510 37 4e f3 f1 12 22 aa bf a0 df ab d9 29 34 c6 bf
       -0.05104121402260058 -0.17346690300450707
000520 4d 87 1a a3 98 85 b6 3f c1 e8 32 8f 8a d2 9c 3f
       0.08797601682684082 0.028146901121296922
000530 96 05 a8 61 f3 59 bf bf c9 bf 4f 0c e9 38 8c bf
       -0.12246628889263031 -0.013780422867028979
000540 ec e5 4d e9 4f 3f b6 bf ca ac 8a fb 87 9c bc 3f
       -0.08690356679826267 0.11176347628741037
000550 88 79 72 ed 23 0a c5 3f 2f 41 a8 d6 08 ad c0 3f
       0.1643719586763377 0.13028059464751027
000560 09 db fd 75 89 5e c6 bf 22 92 c0 fc 44 09 b6 3f
       -0.17476003896054973 0.08607894106587158
000570 e7 ae 3e bc f0 a7 b0 3f 59 b5 b6 66 cf 33 cd 3f
       0.06506256671735465 0.22814362063710794
000580 16 2d a7 41 34 a9 b5 3f 8c f5 cd 3a 52 9e b7 bf
       0.08461310007912845 -0.09225953994424269
000590 d5 c5 de 6e f9 ee b1 3f 9d 29 77 4f 52 8d c4 3f
       0.07005270916740554 0.16056279068136528
0005a0 02 b7 92 32 03 c6 c1 3f 90 93 32 60 75 15 a4 3f
       0.13885536164655582 0.039226215355746
0005b0 6a 45 cd d7 60 a5 b9 bf d4 7e c3 de fe 57 b2 bf
       -0.10017972248649235 -0.07165520609441539
0005c0 92 16 c2 23 5f 39 b9 bf 1f 4c d8 63 c5 5d 79 bf
       -0.09853167174341085 -0.006192942671549267
0005d0 b0 58 4d 1b 87 61 b2 bf 54 84 31 0b 5e 46 92 bf
       -0.07180065552288073 -0.017846555169289083
0005e0 e1 ea 35 c4 ed fe b2 bf 78 86 af e4 60 26 b5 3f
       -0.0742024044065306 0.08261685927529949
0005f0 f7 eb 6f 43 ce 2d b5 bf 90 28 46 86 a8 da cd bf
       -0.08273018976608158 -0.2332354217181245
000600 98 cf 40 76 66 ab b0 3f 95 e9 f3 ec e7 25 b5 3f
       0.06511536013641572 0.08260964903812458
000610 c1 01 d4 53 14 04 ac bf 77 dd d9 33 fd 9a b0 3f
       -0.05471862338345402 0.06486494556326315
000620 fc 43 4d c8 2a 08 cc 3f 59 e4 07 82 49 81 c1 3f
       0.21899924068796384 0.136758030406585
000630 06 ce 9e 63 79 39 c6 3f 62 39 8b 13 b9 f7 aa 3f
       0.1736289726664923 0.0526712261540634
000640 2f 34 2f 53 6b 38 c0 bf ed 03 6b e4 f4 66 b8 bf
       -0.12672177850473207 -0.09532099320041683
000650 57 fa 15 e3 11 1a c1 bf 97 3c 62 62 b5 11 d3 3f
       -0.13360808933426213 0.29795584304606265
000660 81 73 1b c8 18 c8 a6 3f 1c 30 46 72 80 fd b5 bf
       0.044495367457535025 -0.08589937963387267
000670 a9 16 89 d9 09 8f c8 bf 2a 5a b3 c2 c2 0b c3 3f
       -0.19186518785334286 0.14879641062607735
000680 f4 7b 5c d6 9b 8d 80 bf 58 21 1d 52 1a 73 41 3f
       -0.008082597235953039 0.0005325201529809238
000690 6c 93 dc b9 55 4a a7 3f 76 bf f4 fc a3 e1 c4 bf
       0.04548900502985628 -0.16313600398416
0006a0 75 d0 3e aa 54 9e d2 3f f1 02 08 2a 72 76 b6 3f
       0.29091374040149925 0.08774484182505284
0006b0 7e 96 e8 04 a9 aa b7 bf 63 ca 27 fa f9 38 ba bf
       -0.09244781846845204 -0.1024318919878993
0006c0 ce cc 7a 7d b7 e1 b3 bf 9d 15 9e 3c 09 60 ba 3f
       -0.07766291440457282 0.10302789430541855
0006d0 b2 2d 88 6b 99 3c 50 3f 11 30 34 2b 4e 58 8f bf
       0.0009910104982989551 -0.015305147832371831
0006e0 11 e4 11 3a 68 53 ce 3f b4 53 45 47 75 93 b5 3f
       0.23692038379138627 0.08428128232965443
0006f0 45 5f 9b a0 9c fe cd bf 02 08 8f bc 63 c4 bb bf
       -0.23433263628134618 -0.10846541741832996
000700 7e b4 d7 55 18 cb b5 bf 77 18 bc aa 34 c6 a6 3f
       -0.08513023467794942 0.04448093971409233
000710 6a 8c 8b c6 b0 67 61 bf 10 77 d9 6a 37 ae b2 bf
       -0.002124638809947001 -0.07297083243016922
000720 ae 68 c0 24 d9 77 d1 3f e6 8b a7 0e 71 a2 ab bf
       0.27293995465300724 -0.05397370628249813
000730 6d 0a d3 e6 ac 16 d2 bf c7 dd aa 5a 13 c7 b9 bf
       -0.2826339964050593 -0.10069390262184817
000740 3a 65 e8 ff fc 49 b2 bf 86 36 9b 33 86 ad ba 3f
       -0.07144147155522243 0.10421026954574061
000750 c1 ca df 83 de 75 cf bf e3 1b a7 1f 05 00 b5 3f
       -0.2457845825116092 0.08203155539295852
000760 f9 0f e1 96 92 92 9d bf fe f9 6a 21 5f af d2 3f
       -0.028879442652637952 0.29195383323158797
000770 9a dc 02 0f e6 75 c3 bf 55 63 b4 47 73 62 ca bf
       -0.15203548176734644 -0.20612946511462363
000780 ae 93 53 5e 35 dc aa 3f 3b 27 95 09 96 f5 cb 3f
       0.05246130730100816 0.21843219249631737
000790 78 7b 77 65 98 c7 8c bf 62 7f a8 4f 41 a3 b8 3f
       -0.014052572819250861 0.09624107546596641
0007a0 9e d4 c1 da f6 50 c4 bf 6e c2 a0 5e 6d 22 bf bf
       -0.15872083360196582 -0.12161906776669593
0007b0 ef 5f 53 99 4a 55 d5 3f 38 d8 be 06 59 61 a0 3f
       0.33333077405177297 0.031992704461501764
0007c0 ed 5f 5c 1d 67 f2 bf bf e1 34 56 19 f2 35 d0 bf
       -0.12479252306763984 -0.2532925841740746
0007d0 d3 72 a0 50 f6 9a aa 3f a6 58 73 ba c1 5e bb bf
       0.051963517515309164 -0.1069146232797232
0007e0 94 34 d8 f8 e4 50 b1 bf cd 66 30 04 fc e5 c9 bf
       -0.06764060092264607 -0.20233106808227888
0007f0 e7 f5 63 d5 9d ea b1 3f 6e 66 e0 b1 a2 58 c4 3f
       0.06998621425369543 0.1589549416101365
