darts_logs/lstm_cpu/checkpoints/best-epoch=11-val_loss=0.00.ckpt (torch, 914619 bytes, 55 tensors)

rnn.weight_ih_l0 f8 [100, 1]
0	0x3faeb7e8bfb8ee03	0.05999686565743547
1	0xbfcabefe81ff7c3f	-0.20895367953832708
2	0xbfb080da2f8a7a61	-0.06446612988154633
3	0xbfed0903aff04b67	-0.9073503910352486
4	0xbff2aa5ad99d7758	-1.166590547617906
5	0xbfebf0167437585d	-0.8730575818870069
6	0x3fdefd0e60c8fb40	0.4841953225294908
7	0xbfe15a0a6d1f6d24	-0.54224129975356
8	0xbfd59788a18f9c7f	-0.33737388398589724
9	0xbfa2e287f7bdf9df	-0.03688454531856044
10	0xbfc7d18ddc64841c	-0.1860825849662725
11	0x3fd6129a4e3fd60d	0.34488542214907697
12	0x3f87289e379f0166	0.011307941505834317
13	0x3fd421d4a7ba2e0e	0.314564861103208
14	0x3fb2b7f7f6cd2209	0.07311963820860269
15	0x3fee9b407fbc6f83	0.9564516539426083
16	0x3f8475f266f85b16	0.00999059082736901
17	0xbfb468a993d8238d	-0.07972202167014882
18	0xbff68116623dcea8	-1.406515487437824
19	0xbfe7e8fb5b873e96	-0.7471901691114506
20	0x3fd23c415e5ca652	0.2849276944640212
21	0xbff922792ed0cab8	-1.5709163502439605
22	0xbff5ee37fb6adee0	-1.3706588574404392
23	0x3fe7f47dbb04cd49	0.7485951092443567
24	0x3fd4be0a25a2ef04	0.32409909892497546
25	0xbfc4bd07bf1c835b	-0.16201874572382277
26	0xbf92e70b3b9c09d0	-0.01845948745086351
27	0xbfb0a02bb619547d	-0.06494401164794002
28	0xbfed8d951dc16d29	-0.9235330182231439
29	0xbff298785e093b27	-1.1622241662295865
30	0xbfe91aa277c56c52	-0.784501298835844
31	0x3fe67d7a66e166b4	0.7028171548256155
32	0xbfedeb7f26e2c6f2	-0.9349971541871283
33	0x3fb26dfd7dab2e50	0.07199081724245926
34	0xbfdce1428fadc7ce	-0.4512487795938086
35	0xbfc741e079f5529a	-0.18169790225023946
36	0x3fcfff15ee1d4c7a	0.24997209669763604
37	0x3fb5670b0e0cb70e	0.08360356419572332
38	0x3fe4f18d23820a4f	0.6544862454905543
39	0x3fa78d8082e70ad4	0.046001449565229585
40	0x3fe699f1eee2b429	0.7062921205266594
41	0xbfb3bb73072d7e23	-0.07707899976002656
42	0xbfd2ec9b8f10aa5e	-0.29569138499451764
43	0xbff8e12d46c9ea67	-1.5549748196778184
44	0xbfebf8577a94327e	-0.8740651506537487
45	0x3fd87c5553f30313	0.38258870313806986
46	0xbff1d7407ba70e20	-1.1150517301729295
47	0xbfda8e6db606d0e6	-0.41494314933812715
48	0x3fe7aa4d963169a2	0.7395389493424782
49	0x3fe4e130c6ba8f26	0.6524890786572299
50	0xbfe7ace850b80a5d	-0.7398568703213858
51	0x3febfd85ac0fda4a	0.8746975288948502
52	0x3ff3a6070a56df19	1.2280340579872642
53	0x3feb4f5fc48fa53e	0.853439220341137
54	0x3fe3d887558e5902	0.6201817198769108
55	0xbfb651c578388c7a	-0.08718523202019127
56	0xbff209f295a31d2a	-1.1274286122514448
57	0x3ff144e1f0013dc3	1.0793170333089257
58	0x3fcecd3f52cf4ad0	0.24063865226215464
59	0xbfee83c5355040d2	-0.9535852471617778
60	0xbfb16aaedb092281	-0.06803410384703491
61	0xbff2bde8a74930bd	-1.1713644537549464
62	0x3ff280aa0783241d	1.1564121526191748
63	0x3ff20050958978dc	1.1250768510140494
64	0xbfef0561a0eaf7ae	-0.9694069044996831
65	0x3ff108640f4eb26a	1.0645485494561862
66	0x3fd8e35970a729d9	0.38887630463855555
67	0x3fe9d079b38d6496	0.8066986567383931
68	0x3ff57439283d279b	1.3408748218375652
69	0xbfe7ef1c30739862	-0.747938246375963
70	0x3ff487e31ace8555	1.2831755683076456
71	0x3fdc3b51b3d9ea2e	0.4411205536231674
72	0x3fbb7e32ff5b7378	0.10739439710910215
73	0xbff21e97688a54f3	-1.1324686130149615
74	0xbff1c2c81be458b8	-1.110054120018999
75	0x3fb128be5f0b67ef	0.06702794857429216
76	0xbf9c81950594024b	-0.027838066544975153
77	0xbfae8558966b5b39	-0.05961109958814465
78	0xbfed0ff8e982553e	-0.9081997452473514
79	0xbff15c02087a0355	-1.0849628764264783
80	0xbff200c0c94fd15d	-1.1251838554136022
81	0x3fe2e957e3824ac9	0.5909842914137126
82	0xbfea3dcabb7f8917	-0.8200429594110429
83	0xbfd822e9df5c6fd1	-0.37713095486264786
84	0xbfca66b14e168143	-0.20625892937551712
85	0xbfd4b189eeaba1ab	-0.3233361082807515
86	0x3fd4ff73650b3b6b	0.32809147708478886
87	0xbfc9d243df7d2f4b	-0.20172928249882668
88	0x3fdd492203155477	0.45758867550950505
89	0x3fc8dee33913cc64	0.19430198943118449
90	0x3fef747464430730	0.9829656561125599
91	0xbfd1a8602351fbb8	-0.2759018273281373
92	0xbfc5907039d07ab3	-0.1684704096123447
93	0xbff3ac300b0de3e9	-1.2295380050475109
94	0xbfedd592b4bff20a	-0.9323209314603116
95	0x3fd92ed728cb17e3	0.39348391517375897
96	0xbff700b320f78f6b	-1.4376708305144017
97	0xbff21e550f2411c8	-1.1324053374711287
98	0x3fedfcc1ee7be75c	0.9371041925325971
99	0x3fdd7241c1989fa5	0.46009868532063997

rnn.weight_hh_l0 f8 [100, 25]
0	0xbfc5613429b8e03a	-0.1670289233895817
1	0x3f8458e4579ce41a	0.009935172961933292
2	0xbfe6766624cecf82	-0.7019530028251071
3	0x3fd42279aa27ca9c	0.3146042024301694
4	0xbfd282b151d14f2a	-0.2892268465995921
5	0x3f9fb3deab4ea4ed	0.030959586339723556
6	0xbf754d2f6a928619	-0.005200562686839238
7	0xbfc7e3b0821ac313	-0.1866360316539831
8	0x3fd1daa7c053b0f5	0.27897065908361124
9	0x3fa35e32ce4f5814	0.03782805221969468
10	0xbfae0f68cd0aa0db	-0.058711314229471255
11	0x3fd5a738c6ccc083	0.3383314076809329
12	0xbfd213b890deeb12	-0.2824536719087273
13	0xbfdbc5b3f677fe3a	-0.4339418322487948
14	0x3fd7026501430040	0.35952115176405997
15	0xbfd785a45ced718e	-0.3675318629737142
16	0xbfb7c20a0399436d	-0.09280455196245692
17	0x3fd5f024ee11235d	0.3427822422859686
18	0x3fdbf0c03bc263a5	0.4365692695224033
19	0xbfd97d1af133f5e0	-0.39826081805207814
20	0x3fbd59ef766abe3b	0.11465355530776204
21	0xbfe9d2bc603d7998	-0.8069745902719658
22	0xbfb3a5c77d4c6532	-0.07674834069293437
23	0x3fdf76b6eaea81fb	0.4916207594015131
24	0x3fd56910f0fb17a1	0.334537730534402
25	0xbfcc2920b7bfbeab	-0.22000512096518796
26	0x3fc7dfe0ee4f752d	0.1865197337746535
27	0xbfe2396a70d7fda4	-0.569508762739066
28	0x3fd047aebd34f09f	0.2543751571390746
29	0xbfe0579133b39610	-0.5106893548770035
30	0x3fbebb9daface2ad	0.12005029238651828
31	0x3fd30d5d92f7714e	0.29769076683239326
32	0xbfe11beec5148497	-0.5346597527715343
33	0x3fb56d7030704356	0.08370114500600087
34	0x3fdfa3c0ff062b9f	0.4943697443456418
35	0xbf3996f7a052f32c	-0.0003904680782616406
36	0x3fcd2ebef7ce4a8a	0.22798907375234406
37	0xbfd93238e7691ec8	-0.3936903247708696
38	0xbfd7ae99864357a1	-0.3700317202723174
39	0x3fe1d7e018d7f54f	0.5576019749857241
40	0xbfe2e36249633d3b	-0.5902568276741599
41	0x3fcf0a1a0e10fa30	0.24249578177291786
42	0x3fc50f1638dc8353	0.164522912754388
43	0x3f646573286c29ab	0.0024897813012831524
44	0xbfddf2d0bf4e1455	-0.46794527704361616
45	0xbfe507025e885049	-0.6571056219422725
46	0xbfddc30c18ae7e04	-0.4650297394782401
47	0x3fda95c4bcc9e013	0.41539114414581596
48	0x3fd5aa5c8d631f59	0.33852304274886574
49	0x3fe23981999a140d	0.5695198059116834
50	0x3fc566f298b65bcb	0.16720421272904526
51	0xbfd056bd5bddff45	-0.2552941701069254
52	0x3fba2bcfd6f0600c	0.1022310161355337
53	0xbfa77554c9af27bf	-0.04581704103436789
54	0x3fd2d5371973e499	0.2942636250077811
55	0x3fc7abcb0dd1c552	0.18493021178032137
56	0x3f98f09d0c252a8a	0.024355367532999973
57	0xbfb7ee98af5d1266	-0.09348444253289187
58	0xbfd07b5eebe472bd	-0.2575299552570803
59	0xbfd12c9f7b781706	-0.26834857041863847
60	0x3fda044f3fdf26d6	0.4065130351778924
61	0xbfc85f64568878a7	-0.19041113114594063
62	0x3fcd431b3a4594e4	0.22861042352011574
63	0x3fc5844bdbe65eaf	0.16809986340807856
64	0xbfd42fcd8d8f7e1b	-0.3154176599909719
65	0x3fb2d0b8d095d199	0.0734973439446719
66	0x3f92101f5cc96648	0.017639627493144766
67	0xbfbc4dd567eee877	-0.11056264674599157
68	0xbfc12de22731cfe8	-0.13421275056646143
69	0x3fa2debacad621e4	0.036855542431172755
70	0x3fca3aa3b51f23ee	0.20491453498678375
71	0xbfdfc0e75f1ce728	-0.4961489132725654
72	0xbfcd3cc4af9f0383	-0.2284170014882215
73	0x3fc6f1d9fb03a858	0.17925572163159376
74	0xbfa3c5dab8c8c302	-0.03861888414065186
75	0xbfd272e6ebbc6d57	-0.2882630636319922
76	0xbfc281e854ee8a41	-0.14458946368275075
77	0xbfe3c3a083af40c3	-0.6176302501644603
78	0x3fd481482054b387	0.32039073140440916
79	0xbfd75fcbdb669ef2	-0.36522194314828405
80	0x3fe0be0434e730ee	0.5231953652633174
81	0x3fe47c3ab973dc79	0.6401647207375297
82	0xbfe4cd2739d3cc83	-0.6500431184234831
83	0x3fd4dc18e3a6a829	0.32593366843741706
84	0x3fc4cd955d1922a8	0.16252390905198877
85	0x3fd6f49d8621aca1	0.35868013476165045
86	0x3febfc0ccf7a9d50	0.8745178272555822
87	0xbfe9a3d3b5d01cf7	-0.8012484122308753
88	0xbfe87f428da1a8cf	-0.7655346647491345
89	0x3fae4ef100cef8d2	0.05919602522725288
90	0xbfe08dc45c1cd98a	-0.5173055457187712
91	0xbfc20c7faf9a224c	-0.1410064322883663
92	0x3fd85a7579219d53	0.3805211718485754
93	0x3fccc958f96ac7bd	0.2248946397644981
94	0xbfd15e626cb97fd2	-0.2713857709659325
95	0xbfe98a96418c8594	-0.7981673507930958
96	0xbfe76922603f62de	-0.7315837745510085
97	0x3f74a333b79f4b4f	0.0050384540754347526
98	0x3fe6250f977b99cc	0.6920240362786045
99	0x3fef82e25e0a7712	0.9847270809875417
100	0x3fe38ac5ed61b437	0.6106900822029563
101	0xbfe907ae98af52b2	-0.782187746250733
102	0xbfd41fd85df2da04	-0.31444367575332444
103	0xbfc15e10c8c3e9cc	-0.13568315318100443
104	0xbfc13a18b3fe7392	-0.13458546437041413
105	0x3fbb7022f56561a5	0.10717981806863593
106	0x3fdff29b2abeb5ac	0.49918250250160656
107	0xbfb2944802077a08	-0.07257509278813512
108	0xbfd2feb5023c01d7	-0.2967960855312674
109	0x3fc06e52141d41c6	0.12836671812193695
110	0x3fe08a013dc490cf	0.5168462950137157
111	0x3fd732e60533ab80	0.3624815989302803
112	0xbfd24a90d797e3c6	-0.2858011346248158
113	0xbff04f42cee96f5c	-1.0193508226866106
114	0x3fc1439d1c5a9078	0.13487590679608608
115	0xbfd0dc4e9b5962eb	-0.2634464757043548
116	0xbfe05372ca9ddff0	-0.5101865727765453
117	0xbfd3eac698e58379	-0.31120457583715894
118	0x3fc2d700c5bc0a4b	0.14718637137419174
119	0xbfaa0f1e03c93ca3	-0.050896585428398276
120	0xbfd9be13da63f2cf	-0.4022264130324346
121	0xbfd4addaa54f7a7f	-0.32311121123886005
122	0xbfb9ea4e57cdc131	-0.10123147624631625
123	0x3fcbaefb5b73cf9a	0.21627752271126327
124	0x3fd1d650bd3d61dc	0.2787057731671021
125	0x3fb46160b70a4044	0.07961086720229199
126	0xbfb693a6b5ff6422	-0.08819047873784361
127	0xbfd7caa92d237e7d	-0.3717444363410108
128	0xbfb5c2e60b7d3c7e	-0.08500516682146217
129	0xbfd028bc903c676d	-0.25248636327307034
130	0xbfe039c7bcd54905	-0.5070532501361248
131	0x3fec3cc2961d4399	0.8824170047683878
132	0xbf93899000789a18	-0.019079446820024243
133	0x3fc4d7843736cda2	0.16282704063415304
134	0x3fe15b6f527e3117	0.5424114810171287
135	0xbfd54e6fdba5bf48	-0.3329124112124089
136	0x3fe3e24420a7b10e	0.6213703763765197
137	0xbfe15b1d505ae5e4	-0.5423723763880699
138	0xbfe35953d1fb0d8c	-0.6046542264161174
139	0x3fe367b088f622f3	0.6064074206379629
140	0xbfe69ff11280d421	-0.7070241319075913
141	0x3fb3029133f4f6b7	0.07425792234877347
142	0xbfe0cd050af49f57	-0.5250268186546049
143	0x3fbe78ddbe8c8e22	0.11903177167965187
144	0xbfe4ffe8c1801d0a	-0.6562389163308648
145	0xbfe89c3d516ef571	-0.7690722074982387
146	0xbfceb5fe66a012a7	-0.23992900858879304
147	0x3fd8acefb9f4f376	0.3855552021012082
148	0x3ff2448b22ab8909	1.1417342523860177
149	0x3fcd94bf3c615ce3	0.2311018986535834
150	0x3fdebdfda63062a3	0.4803461192073348
151	0xbfde2ee3bf0845e7	-0.471611916117665
152	0xbfd9738283160e1d	-0.3976751594675266
153	0xbfe5401fde78ddb7	-0.6640776963385439
154	0x3fc2b3f35fe0693e	0.14611665898775955
155	0x3ff28b971e82894c	1.1590796653550397
156	0xbfb03f032b482de2	-0.06346149260223613
157	0xbfee2441e81711d6	-0.9419259579668118
158	0xbfe41d395753b667	-0.6285673814397342
159	0x3fd776e457c8b83a	0.3666315896288129
160	0x3fabbf74e5e02f8c	0.05419507318592229
161	0x3fd3222fed552752	0.29896162201895493
162	0xbfe355a2e572e772	-0.6042036515639053
163	0xbf940122b543bc14	-0.019535581887733924
164	0x3fc86d61e50d613b	0.19083808597748395
165	0x3fcf9b6aae843ad2	0.24693044205965592
166	0xbfd71e3118e91c47	-0.3612177603976687
167	0xbfd9eb015178f076	-0.40496857601443226
168	0xbfec0eee06c73513	-0.8768224842439473
169	0x3fe1d83631f6c1fb	0.5576430297715541
170	0xbfd5f956493a5347	-0.3433433261027869
171	0xbfd5fde463ec7476	-0.34362134702843805
172	0xbfe78041603ef155	-0.734406173687186
173	0xbfc9f3bee50b72ef	-0.20275102790664998
174	0x3f9b36ce9ace7cc2	0.026576259802479248
175	0x3f9deafb4d5300a7	0.02921669635247839
176	0x3f871c7ec635ac7a	0.01128481905353439
177	0xbfd3344ef157963b	-0.30006764954154946
178	0xbfa09be1b4dc8303	-0.03243928272991605
179	0xbfa541c12c1a5569	-0.041517292627001386
180	0xbfc88e07a344873d	-0.1918344065862189
181	0x3fd8c4c81f76c6dc	0.3870106036439276
182	0xbfd0c3c6ff7d0b3a	-0.2619493002895755
183	0xbfa14f9a7a7f4aab	-0.03381045098617127
184	0x3fd170f0e803c5d0	0.2725183740395467
185	0xbfa550d809b8ed47	-0.04163241499596864
186	0x3fb8856049e03f21	0.09578515819179902
187	0xbfd03aeb5a5709ee	-0.25359615156426585
188	0xbfc4894d9cfe5fb6	-0.1604401604242846
189	0x3fd8322fd9361049	0.37806316577939875
190	0xbfe027935d7ec501	-0.5048310113981246
191	0x3fc53062451506f5	0.165539058429253
192	0xbfd5ed894681226e	-0.3426230610389557
193	0x3fbaf03b37cd6ac5	0.10522813904155288
194	0xbfa65ddee37a9dcb	-0.043684926289013847
195	0xbfd2d64235f31b79	-0.2943273093082364
196	0xbfcc587ef59d8383	-0.22145068161901457
197	0x3f99d4efc02388e8	0.0252263508817884
198	0x3fd6eadb0587e00a	0.35808444538224704
199	0xbfd49ba290057f35	-0.3219992071590128
200	0xbfc72d18dca580a7	-0.1810637547851048
201	0x3fbdc5771856c359	0.11629433006488678
202	0xbfe446ebede47485	-0.6336574217163081
203	0xbf9837882053163d	-0.023649336789068654
204	0xbfce43e3818e6e8d	-0.2364467985724911
205	0xbf976776138933b0	-0.022855610792521908
206	0x3fb0da692d27b04d	0.06583268501680202
207	0xbfdbe6be44a496f8	-0.4359584493962383
208	0x3fdb343fc252f92d	0.42506402947391814
209	0x3fddacae29cbfe72	0.4636645706341148
210	0xbfca0326dda68886	-0.20322118590144472
211	0x3fd62fc448085fa4	0.34666544947094224
212	0xbfc5b884d4b66193	-0.169693569053163
213	0xbfe2a9a6ef4e4e61	-0.5832094835227047
214	0x3fe39b4ea1e4d927	0.612708393286799
215	0xbfdee095a899a0e0	-0.4824575563893756
216	0x3fd6e141fbdca1b8	0.35749864192851133
217	0xbfc2645f33180086	-0.14368810648739244
218	0x3fc19d938b33a95c	0.13762134835207973
219	0xbfaaab3b3eae2be8	-0.05208764209881861
220	0xbfd6c12c7543e9a4	-0.3555403847855365
221	0xbfe8926f230753f3	-0.7678752597954585
222	0x3fb0530045803598	0.06376649567410764
223	0x3fe1c63cb3f0e198	0.5554488672706155
224	0x3fd596ee07c2348b	0.33733702428509876
225	0x3f987e5f851bab22	0.023919575213692153
226	0xbfd39d3e0f5aa037	-0.3064723157826878
227	0xbf97f1502aefb1e6	-0.023381474133133205
228	0x3fb343d6b27f2698	0.07525388582066694
229	0x3fc87bd60ebcc227	0.19127917975994643
230	0x3fce94d9cd5cd698	0.23891756560776822
231	0xbfd747936f12abd9	-0.36374364706960943
232	0xbfd8f76c9d7365d2	-0.3901015794377517
233	0x3fbf0430c84b003b	0.12115769281354087
234	0x3fc042da09f38eab	0.1270401524153518
235	0xbfb21f33d6062bfc	-0.07078861212919202
236	0xbf98f576654d688a	-0.024373865063673374
237	0x3fc17179f9895028	0.13627552685159228
238	0x3fc2d93bebb97009	0.1472544575689201
239	0xbfa84dd1ce841294	-0.047468716105901226
240	0xbfc52bdd26fa275e	-0.1654011192625217
241	0xbfb406742a4f1d61	-0.07822347672401044
242	0x3fc083cffd8f7ab3	0.12902259713060502
243	0xbfa29a2f7fbfa585	-0.03633259233886136
244	0xbfcc30c2d373a542	-0.22023806881706248
245	0x3f8f3ea34071172b	0.015256190685373724
246	0xbfe1d08aeaa57c94	-0.5567068655908707
247	0xbfd372bddb3fbfa9	-0.30387827311551036
248	0x3fe01a190f1a9d35	0.5031857771872753
249	0xbfa12fb448ab8199	-0.033567079420893715
250	0xbfa037275d3e8253	-0.03167078984484264
251	0xbfd1773a4f7f3771	-0.27290208590863246
252	0xbfbe2bd4e98074c8	-0.11785631848075007
253	0x3fd6afdecccbc846	0.3544842719994715
254	0xbfa2cf41a0d0441e	-0.03673749054008389
255	0xbfe5aaa2d259f5a4	-0.677079592554652

rnn.bias_ih_l0 f8 [100]
0	0xbfd613a9b7db708a	-0.34495013193896595
1	0xbfc5e128afd6e8f6	-0.17093380533135133
2	0xbfc705bdda421859	-0.17986272008073703
3	0xbfdf8b84b0063842	-0.4928905219065919
4	0xbfd83c80d8a0bd4c	-0.3786928287035678
5	0xbfe0a10815e248f8	-0.5196571757717541
6	0x3fce29b43b21ca84	0.2356477059107257
7	0x3fc0b64a091a38c5	0.13056302494482544
8	0xbfc066c9673a1093	-0.12813680210468145
9	0xbfd4a2d69b7a0002	-0.3224388616872603
10	0xbfe5197fd0e9cd2b	-0.6593627052629122
11	0x3fbb36738205d54f	0.10629960941681314
12	0x3f5438b83629d94c	0.0012342261258289798
13	0x3fc99467d13d9787	0.1998414775545678
14	0xbfc801b0f0a11d8f	-0.1875516104648622
15	0xbfaabf4ad9c8c93e	-0.052240695080757224
16	0xbfea5e49bbd4989d	-0.8240097683490323
17	0xbfe576d0f788775e	-0.670753940070181
18	0xbfcc1aebc965e13d	-0.21957156499753153
19	0xbfeba59f6d761a45	-0.8639676225582852
20	0x3fd83ab074e85fbb	0.378582109611212
21	0xbfe3c877df01ba67	-0.6182212215042683
22	0xbfe311c4319f1a4e	-0.595918747822745
23	0xbf9b7ec11d0c25e7	-0.026850716970363477
24	0x3fadbe0583148284	0.05809037423228339
25	0xbfd8a0fbb4f71c70	-0.3848256366004028
26	0xbfd4e4cad5577f2f	-0.32646437486799845
27	0xbfc9325af39bcafb	-0.196849221181388
28	0xbfe0f50b9dc0b572	-0.5299127656086695
29	0xbfe84ef9369b30f4	-0.7596403185393954
30	0xbfd442e3dd5f4f43	-0.3165826474989794
31	0xbfb220d3841e4bc9	-0.07081338859124665
32	0xbfafc616ac455c5a	-0.062058170823257
33	0x3fc66f6bc0a27cfa	0.1752752962683884
34	0xbfdc01308c931832	-0.43757261016833404
35	0xbfe618123e4ac520	-0.6904383865968704
36	0xbfc16d337603026f	-0.13614505064289825
37	0xbf8dd369981d3a67	-0.014563393549591198
38	0xbfb674c96d1a376d	-0.08771952546723379
39	0xbfe56bd660873fdb	-0.669413746387359
40	0xbfc058c8ef9bc1b5	-0.12770950030927755
41	0xbfd3c428baf26c00	-0.3088476014760886
42	0xbfe4c68fd1181d3f	-0.6492384990569134
43	0xbfd6ee3a3cab5326	-0.35829025196771835
44	0xbfe4c24c10645cf4	-0.6487179107815835
45	0xbf945f85a294fed8	-0.019895637558191875
46	0xbfe74ceb0821f916	-0.728139415630525
47	0xbfc53865d753289b	-0.16578362478168604
48	0x3fa9f3e6e74654d8	0.05068894932916529
49	0xbfcc7c6071738e47	-0.22254567660921706
50	0xbfcba076eb2aaf38	-0.21583448870421207
51	0x3fb88e39b9e5cb8e	0.09592018879429373
52	0x3fc88f3bde0915bd	0.19187115041328964
53	0x3fa605a209e9863c	0.043011726102815534
54	0xbfd53b328c98b021	-0.33173812608834125
55	0x3fd2251019bc167e	0.28351213944583964
56	0xbfb7e384e41505b9	-0.09331541603480432
57	0x3fc61ceae593b79f	0.17275749406638582
58	0xbfdf5e550c11a266	-0.490132581506748
59	0xbfc9461e7f1fbf48	-0.19745236594416782
60	0xbfd17f9eaa55ab9a	-0.27341429361575253
61	0xbfb7a06f35255623	-0.0922917847395515
62	0x3fc9c0eb79cc2a57	0.20119994589943488
63	0x3fc85170d46313de	0.1899853741689687
64	0xbf901d667fbe613e	-0.0157371535748052
65	0x3fca10906d591edb	0.20363049830688493
66	0xbfc36bfef5904c1d	-0.15173327436841158
67	0x3fc63ca20424f4df	0.1737253685222759
68	0xbfd2878e87333490	-0.28952372744681387
69	0xbfba99b00801fefd	-0.10390758700850351
70	0xbfabb1cdbe3bbe10	-0.05409090945419959
71	0xbfc6558056005286	-0.17448429297714457
72	0x3fcd53a58a1a37ee	0.22911519282609966
73	0xbf963809924dfcd6	-0.021698140673376574
74	0xbfb50e7225f680b6	-0.08225167681530618
75	0xbfe36ac9438ed24e	-0.606785423230187
76	0xbfc868b656fd8f18	-0.19069556472379
77	0xbfc691bc744ed332	-0.17632251433465168
78	0xbfe437cff151563a	-0.6318130219685323
79	0xbfd34ec627404f88	-0.30168298562170337
80	0xbfe3f203ce3b9dd9	-0.6232928302751432
81	0x3fc17f9cebe28777	0.13670693891350158
82	0x3fc4c03e170e308e	0.1621167767119726
83	0xbfdc9b5f6ff17e4a	-0.446983203239118
84	0xbfd212fcff79b17a	-0.28240895222440765
85	0xbfdcaa6db6236687	-0.4479021338171169
86	0x3fc3570ec5713bcd	0.15109429016817302
87	0x3fc1de43e2a91fc3	0.13959549491323572
88	0xbfb4c0e97ad91dd6	-0.08106860398503754
89	0xbfc972cd859e9d8a	-0.19881600403207883
90	0xbfb06efb6ac7af47	-0.064193452424374
91	0xbfdfd539bda7aacd	-0.4973892547701951
92	0xbfe2dffc36016253	-0.5898419432442757
93	0xbfd0bc629702e6c9	-0.26149811503601633
94	0xbfeb196f9b205a9b	-0.8468549756824645
95	0x3fde82dac57cd6c7	0.4767367294874529
96	0xbfe427693a751d08	-0.6298109189746421
97	0xbfe5ad3d70992649	-0.6773974608597167
98	0xbfa24bc23b603ade	-0.035734243152651265
99	0x3fd473ace9d6aba7	0.31956026874348215

rnn.bias_hh_l0 f8 [100]
0	0xbfc975466fb6e0b5	-0.19889145331194916
1	0x3fb8765a20522e21	0.09555590905272783
2	0xbfaa139969085fa4	-0.05093078047883573
3	0xbfdc6b67d0063866	-0.4440555125701223
4	0xbfd60f1498a0bd41	-0.34467043786112944
5	0xbfdb74281bc4924c	-0.4289646407289964
6	0x3fa5d302ac872b82	0.04262550693564206
7	0x3fca3a7f691a391b	0.2049102080531576
8	0x3f822c538c5ef241	0.008873608323363704
9	0xbfaefdad5bcffef8	-0.060529153306559225
10	0xbfe11b4e0ce9cd36	-0.5345831157887122
11	0x3fd975fe08817589	0.39782667952189193
12	0x3fd6895498362a29	0.35213198532497586
13	0xbfc293674ec26830	-0.14512339921640338
14	0xbfcfbedff0a11d17	-0.24801253556709277
15	0xbfc9b56776723191	-0.20084851535319762
16	0xbfe81e96bbd49899	-0.7537339848102135
17	0xbfe3e95e5f887757	-0.6222373834495823
18	0xbfc8d5e78965e201	-0.19402784546743138
19	0xbfe401b805761a4f	-0.6252098185221459
20	0x3fdc871874e8601d	0.44574557701844403
21	0xbfd530959e037528	-0.33109035902983175
22	0xbfe1d919219f1a9a	-0.5577512413663783
23	0x3f64c35f179f0854	0.002534566619005788
24	0x3fcf89ad40c52144	0.24638906157111695
25	0xbfe1378ad27b8e1e	-0.5380300627697954
26	0xbfda722f1d577f25	-0.4132192408123834
27	0xbfb3743be7379546	-0.07599234003972297
28	0xbfe102e1ddc0b57d	-0.5316018420323158
29	0xbfe91f0f069b3100	-0.78504134454991
30	0xbfdd21610d5f4fb1	-0.4551622992123568
31	0xbfb1cf0b041e4aa5	-0.06956547594590264
32	0xbfc36fd6cb1156aa	-0.1518505565206188
33	0x3fd106ef60513e39	0.26604828268043296
34	0xbfd911553c9317fe	-0.39168291964995194
35	0xbfe5f1515a4ac51e	-0.6857077373044012
36	0xbf78b77ec0603ed0	-0.006034369585918589
37	0xbfcf898d9981d33c	-0.24638528819527916
38	0xbfcd7acb168d1b6d	-0.2303098545182495
39	0xbfe44ad868873fbe	-0.6341363946503333
40	0x3f8523eb0643f4cf	0.010322414520937432
41	0xbfd270b04af26bf7	-0.28812796896971754
42	0xbfe59951e1181d2f	-0.6749658008929255
43	0xbfe34f22ce55a9ba	-0.60341015147906
44	0xbfebd2af00645cf8	-0.8694682128579236
45	0x3fd51d6c95d6b05a	0.32992090828589016
46	0xbfd8940c7043f281	-0.38403616870326834
47	0xbfc72afb975329bf	-0.18099923027905437
48	0xbfbc54aecc5cd3bb	-0.11066715707131795
49	0x3fbbcf375d18e4b9	0.10863061926729047
50	0xbfbe70af16555e63	-0.11890692038775223
51	0x3fccf41ddcf2e5f9	0.22619984901920967
52	0xbfb883bee3edd37f	-0.09576027931855256
53	0x3f97a4c513d30786	0.023089484534245773
54	0xbfd97f537498b035	-0.3983963621747109
55	0x3fd7ba15b9bc16e2	0.37073271883160264
56	0x3f98167a6fabe434	0.023523247781643344
57	0xbfaf1d3f69b11efa	-0.06077001729187077
58	0xbfddaaac6c11a2a2	-0.4635420852051003
59	0x3f8276620e04060c	0.009014860203481433
60	0xbfc96ef114ab56e1	-0.19869817265742198
61	0x3fb581adcadaa8f2	0.08400999262326872
62	0x3fa5c329e730aaab	0.04250460574288203
63	0xbfc08a67eb9ceb78	-0.1292238140539117
64	0xbfbde2dd9fef995f	-0.11674294619260682
65	0xbf50a38953705269	-0.0010155526231347084
66	0x3f96ebe6537d9d9d	0.022384260984294014
67	0xbfc3791dfbdb0ad0	-0.1521337013019406
68	0xbfc231eece6669d4	-0.14214882925155214
69	0xbfc84cd70400ff90	-0.18984496779921445
70	0x3fca13f5f07110ed	0.20373415222468996
71	0xbfd47f8b7b002979	-0.32028471957951116
72	0x3fc10c2aca1a372f	0.133183811838927
73	0xbfc990c93249c04e	-0.1997310157344167
74	0x3fc9f9f80d04bef1	0.202940946919163
75	0xbfd05bac971da45f	-0.2555953479519015
76	0xbfc3db2026fd8ece	-0.15512468246298855
77	0xbf7af0d289da5fac	-0.006577322402925672
78	0xbfe06dcdd951563b	-0.5134038204657324
79	0xbfe322a2d3a027c6	-0.597978032428039
80	0xbfe4fb826e3b9e09	-0.655701842592806
81	0x3fd779c035f143f5	0.3668060805112526
82	0x3fc5f3f7b70e30cd	0.17150780142072222
83	0xbfe0ff7017f8bf5d	-0.5311813800999335
84	0xbfc9da89eef362bc	-0.2019817749740208
85	0xbfe31c411f11b352	-0.5971990210360707
86	0x3fa7f3eed5c4f0e7	0.04678293570984398
87	0x3fc830ae22a92043	0.18898560230650405
88	0x3f9b1adf149b8b77	0.026469693787372486
89	0xbfda7a8d32cf4ea3	-0.41372995340246116
90	0xbfb16dfaaac7ae41	-0.06808439893182429
91	0xbfdfa3839da7aadd	-0.4943551101302271
92	0xbfe53fa33601623f	-0.6640182547371934
93	0xbfd81de48702e71b	-0.3768245047063929
94	0xbfe72d8ceb205aa8	-0.7243103592216658
95	0x3fd01ff52d7cd710	0.25195054475931133
96	0xbfdf750914ea3a6f	-0.49151827852703084
97	0xbfeab6403499268f	-0.8347474124249902
98	0xbfbffa979db01b93	-0.12491748428156617
99	0x3fd6413129d6abc8	0.34772900663182016

rnn.weight_ih_l1 f8 [100, 25]
0	0x3fed83e48f61cc64	0.9223501968794037
1	0xbfeb1b5c20bae68c	-0.8470898284205801
2	0xbfed7e1bd22d71ce	-0.9216441254644054
3	0xbff138342a79e168	-1.0762216243002403
4	0xbf9a1dddf6c6db16	-0.025504558741626125
5	0x3fe26a851153cc29	0.5755029047417156
6	0x3fe749b547ca3cad	0.7277475740574083
7	0xbfe729832d15406f	-0.7238174324538827
8	0xbfe4e58f2283129e	-0.6530223535597377
9	0x3fed3533196fe474	0.9127440926378214
10	0x3fd860ed2e54051c	0.38091592334974833
11	0x3feae5d57843374b	0.8405558918836759
12	0xbfed9d7faa781cc5	-0.9254759149051998
13	0xbfe9f718ff133214	-0.8114132863934764
14	0x3fc8772fa2e836e8	0.1911372704930081
15	0xbfbf7fb21edda012	-0.12304223302419384
16	0xbfe0fc9bbe319f43	-0.5308359827731483
17	0xbfe1e7a8e06ecc7d	-0.5595287688687588
18	0xbff3598e0dd38321	-1.2093639888846115
19	0x3feb5e36da716c27	0.8552507654634426
20	0xbfef9213048593af	-0.9865813339534862
21	0x3fc8ac12cd2d1b5c	0.19275126474732474
22	0xbfebecd033f9ce57	-0.8726578726913868
23	0x3fe2aaa191ea853f	0.5833289956973785
24	0x3fe04ffd4ae4313c	0.5097643339845841
25	0x3fd882b51f661ce2	0.3829777533178015
26	0xbfe465a12ec38425	-0.6374059594492151
27	0xbff12b8e1640507a	-1.0731335515202134
28	0xbfeab42573672ed0	-0.8344905141797998
29	0xbfe79eba8c1254b2	-0.7381260619901211
30	0x3fec3dd8403a8c35	0.8825494055239519
31	0x3fd5bd3f355a7ca2	0.3396757145910191
32	0xbff32bb52b518d7b	-1.1981708233004997
33	0xbfe3e6b02588746c	-0.6219101651255534
34	0x3fd90f65ef335032	0.39156483039301115
35	0x3fbe956ec4e19cda	0.1194676619212375
36	0x3fdbe07006bd6bf8	0.43557358415790715
37	0xbfe1088c6adf9581	-0.532293518769322
38	0xbfd44576346435dc	-0.31673960796692113
39	0x3fb785f7a6556482	0.091887930020123
40	0xbfc18f359b328f45	-0.13718290403368819
41	0xbfde7cf99029b57a	-0.4763778598633831
42	0xbfdfd7742f8a6ee8	-0.49752525942470394
43	0xbfeadf8da365c3c3	-0.8397892180784016
44	0x3fe680d7f79aea7f	0.7032279811895278
45	0xbfdc74fe0617cc68	-0.44464064211860554
46	0xbfe1d5373d7116ef	-0.5572773170503903
47	0xbfecf13c6b16f16c	-0.9044477550119558
48	0x3fe051e066e8b943	0.5099946985190303
49	0x3fe142fde6d9ba5d	0.5394277104185893
50	0x3ff1957681739d71	1.0989899689392042
51	0xbfe8bb34128bb383	-0.7728519785137994
52	0xbff258671d668bd2	-1.1465827129802517
53	0xbfcee3468857047d	-0.2413108983728626
54	0xbfbe824c9b057a1f	-0.11917570862485903
55	0x3fe309aae0384054	0.5949301127711899
56	0x3fa98c1b9ca559c3	0.049897063133062435
57	0xbff6c1579a277c5d	-1.4222026845598272
58	0xbfc0be2bfc079534	-0.13080358320363816
59	0x3fee14025fd7ad5d	0.9399425384448638
60	0x3fd2d01b47354862	0.29395181611938004
61	0x3fe8ea58ea3f3642	0.7786068511138142
62	0xbff20cd76867c440	-1.1281351164182212
63	0xbfe2912d3e8b6669	-0.5802217694828872
64	0x3fe9f4669dbebf57	0.8110840874632953
65	0xbfe1c31ec2efb3bb	-0.5550683791494672
66	0xbfde02a8e231d445	-0.4689123352939684
67	0xbfeb1d5953b3fa47	-0.8473326334786372
68	0xbfbcf25071a9b601	-0.11307242178892098
69	0x3fd7a49baada0dde	0.36942187962287487
70	0xbfe7f75d1a9eb813	-0.7489457626268198
71	0xbf75e887d6c61dcd	-0.005348711605968015
72	0xbff757608042bdb2	-1.4588322649177425
73	0x3fec89f16602b7e1	0.8918387405772102
74	0x3fe766af63d0e3bc	0.7312848042994271
75	0x3fdbf53baa102738	0.43684283836101967
76	0xbfc3a9add1097e71	-0.15361569125069566
77	0xbfe48bdad897b1a8	-0.6420721273730594
78	0xbf740d5b4997620a	-0.004895550338425378
79	0xbfcf7997271d9f23	-0.2458981457705188
80	0xbfcfcb9d22e0a205	-0.24840130045892309
81	0x3feb52fc5bad2f08	0.8538800993496531
82	0xbfcacd1f927a739f	-0.20938486721288727
83	0x3fe2376bff0bf050	0.5692653638248064
84	0x3fe41875b4cbb121	0.6279858142056903
85	0x3fc3eba0120d3829	0.1556282127516522
86	0x3fe83e16d10ad9ca	0.7575792391642662
87	0xbfdbe5f92ac71bd6	-0.4359114568473478
88	0xbfe3db3ba155f2a5	-0.6205118323410558
89	0x3fc56b2367bd8ed6	0.16733210149242578
90	0xbfd0dd08165276a8	-0.2634906976689799
91	0x3fc1589c2d39a198	0.13551666458375844
92	0xbfd960b74ab0c885	-0.39652807516097993
93	0x3fd0d3a416e3349c	0.2629175399313881
94	0x3fc029f222af5ffb	0.12628008550268519
95	0xbff123642b2d7c56	-1.0711404501560273
96	0x3fcdcb6883981d77	0.23277002740381267
97	0xbfb8ed61ee9b30f0	-0.09737217021319444
98	0x3fe22a73267f601d	0.5676818611054874
99	0x3fe9501feb4bfd13	0.791030845226404
100	0xbfc10093dbea8d8a	-0.1328301261720351
101	0x3fd8f61f5ff78297	0.3900221287895333
102	0x3fb867863340b9c2	0.09532965422906783
103	0x3fd23dcd05f07004	0.28502202587128544
104	0xbfc23eab02c9910a	-0.1425374759302332
105	0xbfd8c0647532e1e6	-0.38674270100776054
106	0xbfce69fa681df66a	-0.23760919650878815
107	0x3fe7c354848f1167	0.7425940121689053
108	0x3fdd4ef6bb47e176	0.4579445675767809
109	0xbfdcb75d7943d331	-0.44869171945838376
110	0xbfd37428c1ce05b3	-0.3039647953629256
111	0xbfd897bab28a3219	-0.3842608207276342
112	0x3fe991093a171bc3	0.7989545950484785
113	0x3fcb9d6f040355ad	0.21574199386547602
114	0xbfa49be774b103f7	-0.040251954073489964
115	0xbfbf153936fac0b8	-0.1214175948359778
116	0x3fd4b9b402b18e04	0.32383442175907384
117	0xbfc52229f1abf0c7	-0.16510509777424984
118	0x3fe863f424af8d96	0.7622013775366436
119	0xbfd1547755267cb3	-0.2707804042383472
120	0x3fe5b6b552fa6054	0.6785532589592642
121	0xbfe0adb48e4b4c49	-0.5212042597944527
122	0x3fd557e012783e91	0.33348848155672167
123	0xbf92b9673d155a3f	-0.01828538236926591
124	0xbfbc3cfed7d587b7	-0.11030571717631586
125	0x3fe0505aa9b0327f	0.5098088564132722
126	0xbfe3314247f1a299	-0.5997630505708741
127	0xbfe470b4e9412a6c	-0.6387581401589393
128	0xbfe52d2458974498	-0.6617604952135876
129	0x3fe097144e329655	0.5184422995850563
130	0x3fd2391698ddfb51	0.2847343914835863
131	0xbfe30774f255ca46	-0.594660256682183
132	0xbfe9ff9fac2d47e6	-0.8124540675000815
133	0x3fc5092caf49af98	0.1643424850366244
134	0x3fd8de1382f911a4	0.38855445661854504
135	0xbfc0d26aa4a25838	-0.13142140425469662
136	0xbfe02ba51c0f5477	-0.5053277538342077
137	0x3fd17f22ea4d45f3	0.2733847892860403
138	0xbfc6ff04a373a146	-0.17965753537215273
139	0x3fd74b8def1080c9	0.36398647638453646
140	0xbfbcaf828e962b35	-0.11205306988828741
141	0x3fc346c6af9f060e	0.15059741568806867
142	0xbfe50cb9de71ff1f	-0.6578034729609249
143	0xbfc59a3584f8dc3d	-0.16876858704356038
144	0x3fe0dc44341807b3	0.5268879907091474
145	0x3f905118e6ab6d17	0.015934361533124077
146	0x3fd940e810e86f76	0.3945865788571078
147	0xbfead9b436e1200c	-0.8390751907218159
148	0x3fc3432670b81e75	0.15048676017635257
149	0xbfdf966d3985fd4c	-0.49355631463545957
150	0xbfb4b7dcb8b751fd	-0.08093051442785533
151	0xbf9504155be94bec	-0.020523389563390212
152	0x3f922267cb5fc78b	0.01770937136456711
153	0xbf8924292e1b8b4f	-0.012276002616493335
154	0x3fc1bc45f50e8317	0.1385581442418917
155	0x3fb0c21bc8c4bb1e	0.0654618611485884
156	0x3fd215ec1f1514b7	0.2825880340136097
157	0x3fdd1ca4ea704092	0.45487330335982634
158	0x3fe155123093a538	0.5416346501125764
159	0x3fc0a34aa43e31a4	0.12998326320338294
160	0x3fb7564ee0e848b8	0.09116070738699278
161	0x3fc70309e08b2402	0.1797802301792047
162	0xbfbf88b14b02bab4	-0.12317951279940581
163	0xbfd5180ee7880f9b	-0.32959339724060904
164	0x3fbc4d82e6c1fcba	0.11055772908911168
165	0xbfa65827b047ad82	-0.043641319531015035
166	0xbfb88138ad7b9213	-0.09572176204125808
167	0xbf9d8de3a8387775	-0.028861577169770187
168	0x3fdb501907770948	0.42676377991678693
169	0x3fb90ee57268e6dd	0.09788354914862958
170	0xbfbb80206cc5d576	-0.10742380767427115
171	0x3fc324aea084cb0d	0.14955694997623717
172	0xbfc74107565f2c02	-0.18167201726313925
173	0x3fd132b5a2d8f9f6	0.26872006323893005
174	0x3fc01faa84107aec	0.1259663719983658
175	0x3fcba13b87f49f8b	0.21585792673544932
176	0x3fb6c26e54a00791	0.0889042812923704
177	0x3f932abd85446bf3	0.018717728861798077
178	0x3fdb9b9d7d4e623f	0.4313729976361493
179	0x3fdb5bef170fa8ee	0.4274862027365448
180	0xbfc03f9a6a62fc2c	-0.12694101519261503
181	0x3fda331a12a474d0	0.4093690092139015
182	0x3fdf5534d6f6fb81	0.4895755862489111
183	0x3fd53973a19c9e02	0.3316315725555513
184	0xbfcca6e62e8a0b6e	-0.22384335777686765
185	0x3fa69f0e8d372684	0.04418225740262208
186	0x3fc469b196340963	0.15947551569122273
187	0xbfd16b3cacba653c	-0.2721702276990816
188	0xbfd0cf3a1ef024fd	-0.2626481344346557
189	0x3fb2c7fc74910a12	0.07336404653418807
190	0xbfcedbdb364bbfa0	-0.24108448172728192
191	0xbfc77064dcea08ca	-0.18311749255014426
192	0x3fc9e0d4896a3cbb	0.20217377385822552
193	0x3fe4e8a69c8910c4	0.6533997590381877
194	0xbfc5749c871beafc	-0.1676211986267261
195	0xbfbae79152b41ae2	-0.10509594220284726
196	0x3fd3d1035a0b4a16	0.3096321467720896
197	0x3fc4b1bb88feb384	0.1616739672585049
198	0x3fd5a0d569a725d1	0.33794150655429883
199	0x3fa309127a8d9f81	0.037178590259656204
200	0xbfb62f405d7aff36	-0.08665849954831803
201	0xbfbfcc13893ba8e6	-0.12420770740905915
202	0xbfc9872cfab1ca8d	-0.1994377349943374
203	0x3fe7b1b531d2ad19	0.7404428456406179
204	0x3fde66644c9df255	0.47499949915053225
205	0xbfe1540767ba29bd	-0.5415074373170722
206	0xbfd3662acac128c3	-0.3031107883476915
207	0x3fc9e64a253c5ef7	0.20234038179545852
208	0x3fe3ba2641940a84	0.616473320086087
209	0xbf68065153e13a7b	-0.0029327000075121657
210	0x3fc3720edb300b92	0.15191827490351933
211	0xbfd07853594d0bbc	-0.2573440906600657
212	0x3fc9916ae92751f7	0.1997502935834203
213	0x3fc71e22f7ff897b	0.18060719594275185
214	0x3fd2e30aea21607f	0.29510758270544807
215	0xbfe63f473b130434	-0.6952243951601589
216	0x3fb1692ed453ca14	0.06801121410152461
217	0x3fc4fcd3545beb0e	0.16396562213034155
218	0x3fed79afba3acffc	0.9211043011951001
219	0x3fb8b2642fe4e90a	0.0964720360688355
220	0x3fca3e5e742a9407	0.20502834961112645
221	0x3fdcc0592422517f	0.44924000290600213
222	0xbfd1f7b1deae5460	-0.2807430910700699
223	0x3fefab459083c3d0	0.9896571943810333
224	0xbfc359f46d249004	-0.15118270234336262
225	0xbfcfc5e9ee42e91d	-0.24822734960418638
226	0x3fcb6b68701ef2f2	0.21421533083584837
227	0x3fcf9afa5daf8d95	0.24691705297946656
228	0x3fdac98113393d06	0.418548840306315
229	0xbf8633d2c7e9c77c	-0.010841032720438674
230	0xbfd9c7f17fe0eada	-0.40282857406752515
231	0xbfe1b7911ca217b5	-0.5536580619088826
232	0x3fa66b5933f06167	0.043787753668030054
233	0xbf97147453915d49	-0.02253896484429888
234	0xbfddedd6c0d68323	-0.4676415332015031
235	0xbfe9ac55a5f9b5d2	-0.802286934061778
236	0xbfd2ac69b344aced	-0.2917732477823865
237	0x3fdd76e30fb1a544	0.4603812840710655
238	0x3fd2a5e3cbb65bcf	0.2913751115206055
239	0xbfdefbcc0e232335	-0.48411847477523234
240	0x3fd455acef266977	0.31772921900269274
241	0x3fca8334f2f4337d	0.20712911475166243
242	0x3fce4de2c54387ed	0.23675188667317518
243	0x3fbf5f0c72297ad7	0.12254407679709388
244	0xbfdc635b159ddf80	-0.4435641966915611
245	0x3fd2adc606b77c87	0.2918562951653673
246	0x3fe12c3f2c7dae2a	0.5366512173617981
247	0x3fbe52bf96edd4d5	0.11845014033118002
248	0xbfe38d5670a8e49e	-0.6110031319032208
249	0xbfdeaa36d002af16	-0.4791390448906311
250	0xbfbeaba2883cfbd4	-0.119806440602573
251	0x3fdbd094eb81d3ec	0.4346058177828229
252	0x3fe8a96015c39b0e	0.7706756997184543
253	0xbfb93d1a3824be8e	-0.0985885989255115
254	0x3fe21a6603e8dabb	0.565722472797311
255	0x3fc237ae8afaab7a	0.14232427393048025

rnn.weight_hh_l1 f8 [100, 25]
0	0xbff40324c67138ce	-1.2507674934054651
1	0x3fd88f7633091c98	0.38375620826668344
2	0xbf8ff5a6fae7f62f	-0.015605263263746753
3	0xbfd8f95759456b4c	-0.3902185794628863
4	0xbfda6b3c43c87da0	-0.4127951299614896
5	0xbfc8e54600d5b34a	-0.19449687042961222
6	0x3fc1b21a400e5e5e	0.13824775817623708
7	0x3fe497578d586ecc	0.643474365296663
8	0xbf8490addb0e0ef6	-0.010041578528905398
9	0xbfcf3b7d376013f6	-0.24400296405670446
10	0xbfc982ef74350b26	-0.19930833028964762
11	0xbff1b318a52efb96	-1.106224675415182
12	0xbfd91d37a166db42	-0.3924082828702248
13	0x3fe08ed620725ef4	0.5174360879636581
14	0xbfe248113277ede5	-0.5712972627365472
15	0xbfe3c1e2240113e2	-0.6174174025733203
16	0x3fd885acb6e97d4a	0.3831588541269936
17	0xbfbe7299c5890589	-0.11893616745603287
18	0x3fe115ed7c5984a9	0.5339267185883233
19	0x3fd8c1e78c1f6780	0.3868349903474311
20	0xbfd5cec1e4a694c2	-0.34074446992083207
21	0xbfb4f0f43e318af9	-0.08180166738888407
22	0x3fc66b0d45efd2e5	0.17514196314700495
23	0xbfee51e1208db287	-0.9474950443087246
24	0xbfbf497250bb4222	-0.12221445532782885
25	0xbfc4c2e78b25b345	-0.16219801229763156
26	0x3fda2525d9dbad30	0.40851732516485395
27	0x3fe816338840e4b0	0.7527101193619696
28	0x3fd1eb5fde3876d1	0.2799911184427915
29	0x3fc5da1dde67b073	0.1707188926660624
30	0x3fe354653ae78c01	0.6040521765211225
31	0x3fd71db822d823a2	0.361188921001082
32	0xbfa4d41c6302c3ae	-0.04068077763202581
33	0x3fa725b3e0cedd64	0.04520952338446696
34	0xbfc33376024e2635	-0.15000796425401722
35	0x3fe4541832137e6c	0.6352654436158907
36	0xbfeabb0dd5236ad4	-0.8353337443216682
37	0xbfcea4e288491831	-0.23940688757483167
38	0x3faaddf4162bb0b5	0.05247462053907396
39	0xbfde938d4647d244	-0.4777558504422681
40	0xbfd8e4ceedb15a13	-0.3889653512209474
41	0x3fb0b1c4a883a745	0.06521252740972468
42	0xbf8d69a1745d1864	-0.014361630786549458
43	0xbf9d6d2edb5d0529	-0.028736812723996117
44	0xbfc0c2f1bbaacb04	-0.13094922698436318
45	0x3fe4fe14e5b5aaef	0.6560158239857098
46	0xbfc1117ba42cbe41	-0.13334603802057823
47	0x3fccc6c00735c81f	0.22481537200980115
48	0x3fd86887b48b643b	0.38138001090334556
49	0xbfda8e69a6d85b5f	-0.41494218152495493
50	0xbfec48db62d27d3a	-0.8838936739083814
51	0x3fee18af3d74ec0b	0.9405132484747595
52	0x3fd7610d15f147d1	0.36529853003332585
53	0x3fb2dbededb8feb4	0.07366835645461373
54	0xbfd7e9b47381ad8f	-0.37363921432435004
55	0x3fcdb7b887de3229	0.2321692145745982
56	0x3fc789e6d628563d	0.1838959260646095
57	0xbfe0a73fe9285a4b	-0.5204162172183912
58	0xbfd0647de4930e24	-0.25613353082391854
59	0x3fe0b6299e3ab207	0.5222366419234853
60	0xbfea4a03f9f02176	-0.8215350991822976
61	0x3fcff0fb70a8bf6e	0.24954169274269183
62	0xbfe03158fcae6f99	-0.5060238776381879
63	0xbfcb58d4eb08c6fd	-0.2136484286907531
64	0xbfe1dfbd8a041c89	-0.5585620589853458
65	0xbfd12cf523b00796	-0.26836899266356207
66	0x3fd665609a301ea4	0.34993758256357865
67	0x3fce7905aeda512f	0.23806830442175328
68	0x3ff8ac5b21c07705	1.542079097598106
69	0xbfd5bca17be73b5c	-0.3396381101601287
70	0xbfeeb799e72e9068	-0.9599122538825329
71	0x3fdc4417ce8db514	0.441656066620298
72	0xbfbe0979af546854	-0.11733208208571116
73	0x3ff0852039f4632f	1.0325014366009773
74	0xbfed8a715604cf3a	-0.9231497459463534
75	0xbfdae83aec6e926c	-0.42042420472197395
76	0xbfdcb82866e35a65	-0.44874010131517245
77	0x3feacc97b01ba677	0.837474674187617
78	0x3fc2d1aac6399179	0.14702353171299956
79	0x3fd9fb3f198945f1	0.4059598683716948
80	0x3fe085c750d332ef	0.516330392705269
81	0xbfc33dea46dbb67a	-0.15032700023532525
82	0xbfd57e0729839fb3	-0.33581713728062396
83	0x3fc0ad7e2ff4c5c9	0.13029458371742766
84	0xbfc2d6f3893df654	-0.14718479348441582
85	0x3fcb96fb16c08737	0.2155450688451823
86	0xbfbcccd79c23c174	-0.11250064432147672
87	0xbfd027d1fa9f675a	-0.2524304339873332
88	0xbfde58421992031f	-0.47413685319047433
89	0x3fd5696e6ac221dd	0.3345600168763932
90	0x3fd49f1858bd1445	0.32221039453390105
91	0xbfce2a62e9324af2	-0.2356685293821879
92	0x3fa93299bb76fbaa	0.04921417630566023
93	0x3fe6506aff943320	0.6973166457915774
94	0xbfd9b14c944251d1	-0.40144648054527204
95	0x3fd3e52789566ec4	0.31086147701146793
96	0xbfd29ba401a6011e	-0.2907495514009656
97	0x3fb7d574b0b606d6	0.09310082735285205
98	0xbf272f268db1ba7e	-0.0001768812715882868
99	0x3fa76df3d3216bbc	0.0457607455470774
100	0xbfcd5b84cca8a120	-0.2293554305372334
101	0x3fb43d66730a37b3	0.07906189259139644
102	0x3fcb3f08745b9f0a	0.2128611152795588
103	0x3f973d5150aa8ec3	0.022694845722653022
104	0xbfe7c80071edcc8d	-0.7431642747091175
105	0xbfc8dc3034660799	-0.19421961363337628
106	0xbfc11ee0ecd5cc7f	-0.13375484050957095
107	0xbfca153128d878c8	-0.2037717294160244
108	0xbfe0bfbff2633d8f	-0.5234069570669123
109	0x3fe1740d62b9d37b	0.5454165390243441
110	0xbff3c90633c79485	-1.2365781805649771
111	0xbfc04838a18b6abe	-0.12720401657028008
112	0x3fab49e035c6c782	0.05329800278140252
113	0x3fd3f398522a6404	0.311742859115441
114	0xbfe599f6d3a61201	-0.6750444539798651
115	0xbfc5c18a458eeb65	-0.1699688758506809
116	0x3ff3b5b9f6ba1aef	1.2318668020031358
117	0xbfd749486ca601b8	-0.3638478337307123
118	0x3fcc1af025d277dd	0.21957208487304927
119	0x3fcdd030b423c777	0.23291596218001206
120	0xbfd29053dd35c367	-0.29005905725994413
121	0x3fe6638e1e6efccc	0.6996527285008596
122	0x3fe4ef21de348a23	0.6541909542032197
123	0x3fddd28febf0c0be	0.4659766964059705
124	0xbfb684acafc84caf	-0.08796195308268538
125	0xbfe763cdc4e2e413	-0.7309330792842296
126	0xbfc09ca6c209763b	-0.12978062128506615
127	0x3fca1ca6c91b3fa9	0.20399937457704923
128	0x3fb6eb924281dc23	0.08953203319275409
129	0xbfb11e6f88cd5540	-0.06687066163916189
130	0xbfd161ab863a22f2	-0.27158630474200074
131	0x3fcd4584eeed65dc	0.22868405977605633
132	0x3fb4290486bf7a2a	0.07875088014359535
133	0xbfc524bc4d88c432	-0.16518358026363128
134	0x3fb408b7a0c79086	0.07825801539689978
135	0xbfb7e26a67f269d6	-0.09329857862250121
136	0x3fd0cdc49775afc8	0.2625590781306042
137	0xbfc78d6336d09446	-0.18400230576040338
138	0xbfc75392758b75ae	-0.18223791827669572
139	0xbfed6baed9f05f12	-0.9193948990459566
140	0x3fd62267b2b691d6	0.34584991886575034
141	0x3fddcbf6d312cae5	0.46557398426663915
142	0x3fd66201f0dfe53e	0.349731908063024
143	0x3fe721eb4de89f4a	0.7228905221609037
144	0x3fe6ff72e5c79d6a	0.7186827171216639
145	0x3fba396dfd08b286	0.10243880679690606
146	0xbfc25f64ab2369ea	-0.1435361705433274
147	0x3fe1e701b4abdce0	0.5594490555512515
148	0xbfe0b71ef782c9e8	-0.522353633327211
149	0x3fcb7986900ca362	0.21464616807613895
150	0xbfe421004cf63a93	-0.6290284636650817
151	0xbfd865c23ab6dd91	-0.3812108586675658
152	0x3fd03ec9dc75e8bd	0.25383230714181676
153	0x3fc1eab618810f56	0.13997532078257774
154	0x3faee17e025a5ce6	0.060314119136075026
155	0xbfd415a752bbca94	-0.3138216312355919
156	0xbfaf3a6a1629aee5	-0.06099254150907799
157	0x3fc0539c6449baa5	0.12755160233378607
158	0x3fc11d657a309fbc	0.13370960680299315
159	0x3fb6b387f24cbbb7	0.08867692628403644
160	0xbfd83d84924dbb25	-0.37875475203957115
161	0x3fc3df6887f85b82	0.15525538100402164
162	0xbfc364730b61fce4	-0.15150297218131137
163	0x3fb3fe06978072b7	0.07809487532399371
164	0x3fe2820999b3e92e	0.5783737184531554
165	0x3fe0652196b0c8da	0.5123451178717702
166	0xbfaf851c11a923b1	-0.06156242099365928
167	0xbfc3a5e59ea01a01	-0.1535002731836386
168	0x3fdd67d601c786a5	0.4594626443268715
169	0x3fa29f37f8a5c17a	0.03637099180457688
170	0xbfd30dfa89a40457	-0.2977281898639083
171	0x3fb37c440c806a34	0.07611489587035508
172	0xbfd2639fc24e2b40	-0.2873305699837836
173	0x3fd9bd784cb83170	0.4021893262113485
174	0x3fd0e4e9d11f0e15	0.2639717619133262
175	0xbfc13bef823c2979	-0.13464158877497903
176	0xbfe6733b452dfcb4	-0.7015663481869496
177	0x3fcdcb488fc24d1b	0.23276621837121855
178	0xbfcccd9d1d35fef8	-0.2250248329764799
179	0x3fcbe4b31ac94051	0.21791685874859693
180	0xbfd958fd7f9c67dd	-0.39605653249748035
181	0xbfcfb60a4d9dc2a8	-0.24774292745452908
182	0x3fdaba89d6616db8	0.417635402065311
183	0x3fcb9dc896e0bdda	0.21575267188153086
184	0x3faedb89fd5787b7	0.060268699813391384
185	0xbfc3af3a99536484	-0.15378506170853623
186	0xbfd1352622416c65	-0.2688689550902324
187	0xbfc01d7afc29c2bd	-0.12589967072155686
188	0x3fca145abf3c2ed5	0.20374616944933757
189	0x3ff242c62669ebe2	1.1413022518670393
190	0x3fd528e5e317ae86	0.33062121560099234
191	0xbfd8164de302d391	-0.37636134308859776
192	0xbf9e2bad6a84742b	-0.02946349108343697
193	0x3fe44e1c47b12ff3	0.6345349693524426
194	0xbfe916e29e7c644f	-0.7840436072757572
195	0xbfcdc6451b6c052e	-0.23261321867907142
196	0xbfd0c7af67eb707e	-0.2621878161278416
197	0xbfb9a335ef32117d	-0.1001466473554213
198	0x3fd621a86c6b290b	0.3458043154502241
199	0x3fdbcdc52a83424f	0.43443421508439867
200	0x3fb5dde7e9ff6bb9	0.08541726553759944
201	0xbfd0fb6b19668f27	-0.2653453586628864
202	0x3fd6ba3c61397a91	0.3551169347246424
203	0xbfc81e8b271c04ff	-0.18843211564675497
204	0xbfc7b7ba407f21f5	-0.18529441975830677
205	0xbfdc76ffbfae68ed	-0.44476312369228205
206	0xbfcb092bf8735157	-0.21121739989633667
207	0x3f91248878237e4c	0.016740925152474426
208	0xbfc3a15e37068941	-0.15336206137460276
209	0x3fe509d0d7904ca7	0.6574482164600298
210	0xbfddbbefbfaaf811	-0.46459573476374866
211	0x3fc975f171b36bb0	0.19891183902549647
212	0xbfc0885d3d5f2fe6	-0.12916150566741108
213	0xbfd65d6b9ea83a70	-0.34945192808019154
214	0x3fb3798defd45f09	0.07607352357115017
215	0x3fbd9f259b8e156a	0.11570963905076828
216	0xbfd34e8e61ac4246	-0.3016696885906963
217	0xbfd968cd0cd308f9	-0.39702154400232775
218	0x3fe0343476ea4336	0.5063726732788385
219	0xbf673d2868b6851b	-0.0028367795218434805
220	0xbfd48efa37f91247	-0.32122664896113345
221	0x3fd840508480e1d3	0.3789254468897784
222	0xbfc912b78abce685	-0.1958836963111034
223	0x3fd5b6b5bf7c429d	0.33927673053498514
224	0x3fc45736ac5f0a58	0.15891154686512965
225	0xbfb3893a45ecac77	-0.07631267745152735
226	0x3fbcc4403f15c9b7	0.1123695520416622
227	0xbfa847b22ae30c32	-0.04742199681779659
228	0x3f8b58d71a86d5a4	0.013353043076544342
229	0xbfded4410877db09	-0.48170495821925435
230	0xbfc74af10e1cca2c	-0.18197453679165798
231	0x3fc638b0f83bcf2b	0.17360508080275258
232	0x3fc10b6c43eedea9	0.1331610995964543
233	0x3f972e6d5255c854	0.022638042593321764
234	0x3fd2cccbe89bbdff	0.29374978747998165
235	0xbfc48021976852d3	-0.16016025441117296
236	0xbfde337105be4974	-0.47188973961706115
237	0x3fd0dd1986715bb9	0.2634948552053476
238	0x3fde9fc013aa68d5	0.47850038452601257
239	0x3fc39c0d94b5022a	0.15319986115538714
240	0xbfbb40bf12fc5452	-0.10645670140759592
241	0xbfbc12016284e201	-0.10964974074602908
242	0xbfb23fd102d4fb89	-0.07128626174106335
243	0x3f97dbee1c8d55a3	0.023299904339486265
244	0x3fcd4068a43ca8d6	0.22852809924490342
245	0x3fdede7f7aed2688	0.48233019833114854
246	0xbfca025d8a03654e	-0.20319718588761265
247	0x3fc4644a71b6e091	0.15931063225230394
248	0xbfcbb77144b5c61a	-0.21653571944220645
249	0xbfa029620802f01c	-0.03156572673603383
250	0xbfc7abc17de0d9f8	-0.1849290718689216
251	0xbfd3af25c35af26a	-0.3075651557699418
252	0xbfe689eb1425c60c	-0.70433572707242
253	0xbfc44dc3b59fbe90	-0.15862318390235375
254	0xbfe8ce831d8ca58c	-0.7752090050827731
255	0xbfe2375aebc32e73	-0.5692572216734803

rnn.bias_ih_l1 f8 [100]
0	0x3fa6f8b883feae13	0.04486633883729154
1	0x3fc4b16d8ace5f8a	0.16166466977733435
2	0xbff123cc6566e002	-1.0712398491868957
3	0xbfd62bcb18e38cae	-0.3464229338698698
4	0xbfe920176290c433	-0.7851674008471775
5	0xbfe112af033989a7	-0.5335307181342629
6	0xbfe395f708911993	-0.6120562712974781
7	0xbfe91d123f9133e2	-0.7847987405344805
8	0xbfee600b3d694050	-0.9492241095958978
9	0x3fd45cff394beff5	0.31817608447431606
10	0xbfc709ae50494ec5	-0.17998293800575574
11	0x3fa4204a148bc6c0	0.03930884838872606
12	0xbfec4c88cf2258f2	-0.884342579420972
13	0xbfafc327f9f393a1	-0.06203579832234785
14	0x3fd306c2f6eee1b0	0.2972876941162452
15	0x3fccc4a39f434167	0.22475095058917846
16	0xbfed3b7b88e8d760	-0.9135110544218428
17	0xbfec6c73e9887baa	-0.8882388650125581
18	0x3fc6e5327e6484b4	0.1788695447112666
19	0xbfda4333861fbe52	-0.41035163972899114
20	0xbfe27668fcf2c9cb	-0.5769543590925478
21	0xbfeef23db5cb8243	-0.9670704413111441
22	0xbfd0c9c9f4532444	-0.2623162160858252
23	0xbfd85f3d516c5b1e	-0.3808129592084003
24	0x3fc8deaad49c37c6	0.19429526692732518
25	0x3fe45b6634de30be	0.6361571343018324
26	0x3fc35d9c6f70b8cd	0.15129428330823771
27	0x3ff38171837be861	1.2191023956388778
28	0xbfe1366736c0ce6d	-0.5378910130879838
29	0x3fd2a2172bc303ba	0.29114321969614887
30	0xbfd1f38454dd3e42	-0.2804880932571657
31	0xbfd27bd1be62d776	-0.2888073310126552
32	0xbfd9a83ebfa7661c	-0.40089386669350957
33	0xbfed228730b3e648	-0.910464854357266
34	0x3ff990c54b6183ff	1.5978444046561433
35	0x3fe2f2b8b23a0703	0.5921290856351508
36	0x3fe98541f799316d	0.7975168071657613
37	0xbfda347ffdd0a76c	-0.4094543436682361
38	0x3fd1a64bb7a8c1e5	0.2757748883768996
39	0x3fd0a15e4637c6ab	0.25984913689817785
40	0x3fc4776b617a0e71	0.15989439258202112
41	0x3f9f5e6803188aae	0.030633568943936033
42	0xbfe8ce63560e3cae	-0.775193851544733
43	0x3fd21779daf84c91	0.2826828611734494
44	0xbfd80a90782ae5cd	-0.37564479575266035
45	0xbfd48ab28d22f8bb	-0.32096542151328905
46	0xbfe2364266320f21	-0.5691234584814745
47	0x3fce196233b7b076	0.23514964604635552
48	0x3fefdabce9a99af0	0.9954514087411024
49	0xbfbbd00b051f88e1	-0.10864323496892637
50	0xbfc1d1bc6b0bedfe	-0.1392131350220182
51	0x3fc4a521330a39d9	0.16128935806450675
52	0x3fb93e21f0c133ec	0.098604317930224
53	0xbfbdb43a56198f91	-0.11603130914732974
54	0x3fe077c298f8ebb1	0.5146191585293903
55	0x3fd7240e557b11d6	0.3615756830952511
56	0x3fc0075bf3b328dd	0.1252245845738064
57	0x3f522a86699d9e28	0.0011087715742749225
58	0x3fccb44bd7a20759	0.22425220517112157
59	0xbfcd4594e2bd45cd	-0.2286859614492144
60	0x3f700ba7d7312b08	0.003917365672416968
61	0xbfa1ea2af3f87b66	-0.03498968341977253
62	0xbfbfb11508361db4	-0.12379580927346617
63	0x3fc5f4d36c220c97	0.17153399257594934
64	0xbfd609705c33ace9	-0.34432610515678036
65	0x3fc4a7f08a9890d2	0.16137511031514024
66	0x3f976e5ce03f2c8c	0.022881938158928736
67	0xbfb55ac790d1538e	-0.08341643605792923
68	0xbfbee63cd3d03b1c	-0.12070064707971223
69	0x3fadf788f90d8ef6	0.05852916755864428
70	0x3fd2e52872b986e9	0.29523669437013084
71	0xbfca954eeea52416	-0.207681528592986
72	0x3f86c2994649aa2b	0.011113355119239795
73	0xbfcbab66bb10f81c	-0.21616825231643666
74	0x3fa0ecd4b46dc97e	0.033056876206404504
75	0x3fa227cb58bb2ade	0.035459856587825675
76	0x3fcc4c6ecb2dd234	0.22108254357194002
77	0x3fd324bddc7f991e	0.29911753209161585
78	0xbfe4c85fa53bc2b6	-0.6494596698012944
79	0xbfe56400450654ef	-0.668457159818585
80	0xbfdfbcacee63f48a	-0.49589083938901324
81	0xbfe36a29685a3411	-0.6067091978198978
82	0xbfe614be31e4041e	-0.6900320982387063
83	0xbfedf05b7c890a2b	-0.9355904991464902
84	0xbfeb4ed12442c72b	-0.8533712108821637
85	0xbfb1d4b02f47b752	-0.06965161470699613
86	0x3fd022a2a406c814	0.25211397188388784
87	0xbfe026f0f7241e5f	-0.5047535731291183
88	0xbfbc1e8ae4e51b08	-0.10984104240661108
89	0x3f7693648344df77	0.0055116583137574315
90	0x3f8d8e353319e27c	0.014431396123869115
91	0xbf9734c6d4a05485	-0.022662264564207852
92	0xbfea4625c6a9dbeb	-0.8210629348894803
93	0x3f7f5ccdea867a02	0.0076568645094128324
94	0xbfd9400994d6068b	-0.3945335343815734
95	0xbfd86767ad4dde37	-0.3813113396094851
96	0xbff0d7fc57956112	-1.0527308865767435
97	0xbfd0d316ddf497a5	-0.26288386988960105
98	0xbfb520a2ab671713	-0.08252922711025361
99	0xbf8c9e9d5af2fa42	-0.013974408472106185
