lightning_logs/version_1/checkpoints/epoch=4-step=150.ckpt (torch, 629058 bytes, 236 tensors)

loss.picnn.flows.0.icnn.Wzs.0.weight f4 [20, 20]
00000000: d8e6 ba3b 82a8 81be 98d9 09be 7728 67be
00000010: f3ca 703e b79a 11be c77d 6bbe 884f 923e
00000020: c38e 853e 5b2c d13d 9f0a 90bd 95e8 e3bd
00000030: 7e5a 08bd 6d72 053d f558 613c 3685 b33b
00000040: 88b8 cebd 6e60 28be a1d6 92be 0918 b43d
00000050: 9afa 27bd 0e4f 15bd d20f 85be 3801 c13d
00000060: 97fb 213e d774 3f3e 4024 073e 81c6 773e
00000070: 866b e4bd f146 f13d 8e36 30be dbf8 73be
00000080: ed61 813e 7a75 a53d c96e 61be 4ef0 cbbd
00000090: 4d64 0a3e a545 573e f132 143a 5e40 d93d
000000a0: 2b51 9ebd ee04 ce3d 4778 1f3e 3f36 ff3d
000000b0: c6e9 3bbe 7119 38be 4c89 7738 c5ff 07be
000000c0: c1ff 88be f7e2 89be 5c8e 0cbe f6ba 2dbe
000000d0: 5e35 8f3c d6cf 633e 277f 1f3e 88c7 cbbd
000000e0: d53f ce3c f8b6 d93d 72e0 a5bd c5d1 37be
000000f0: 3595 1c3e 1bf1 553e f615 f23b e982 953e
00000100: 5b3f 423e 4b7e 593e 2284 45be 5cbb 573e
00000110: 7252 493e 508c 13be 2589 52be 8d53 703e
00000120: 636b 463e 8cda fc3d 2efe 6dbe b2a7 063e
00000130: 9a58 51bd 645a 42be ce51 2cbe 7ab1 ae3d
00000140: b974 4a3d d114 a23e cd30 5b3e aec2 213e
00000150: a329 8a3e 871b aebb 6ade 163b c34a 6bbe
00000160: 2d48 e0bd fb9e 203e a97d 3b3e 8cd8 4fbe
00000170: 8f61 d33d a75a 6b3e 8f9b 56bd 94ae 5dbe
00000180: bdb8 633d e328 df3c b53d e5bd 53e3 cdbd
00000190: 92c2 de3d a180 a33d 00f9 063d 93a8 383d
000001a0: 0a53 183e 1faa 8abe 1e44 46be 3e56 2b3e
000001b0: 6d83 893e 2373 5cbe dff6 85bd de64 2a3e
000001c0: 16fa 82be b35c 683e 5304 c8be d0d7 e33d
000001d0: 7530 673d 07d5 1cbe 79c2 a1be 0a98 adbe
000001e0: 45ae 7a3c b76f 24be d187 aebd d685 63be
000001f0: be67 243c 8c4e d73d c096 9abe d552 20be
00000200: 11af afbe 4849 d6bd b8ec a33c 34b9 cbbd
00000210: 1a50 12be e010 17be 6401 673e d598 b1bd
00000220: 3bbf 8d3e 858e 7c3e 217a 80be 7891 69be
00000230: 0cc9 ecbd 0c59 e33d 9191 a33e e04e 773e
00000240: a313 2b3e 9e3d 193e c0be 2bbd 794e 263e
00000250: b768 a4be a612 2fbe 1b85 533e ef49 1a3e
00000260: fc66 d2bd 4e28 393e 6820 973d c4ae 813e
00000270: 780f 963d bcaa a13d 6803 753e 37dc 1b3e
00000280: bd87 af3e fdc5 893c a57b 1c3e 54b3 853e
00000290: b8e5 c03d e725 82be 44de 513e b519 523d
000002a0: d6a0 eb3d 8872 243e c38c 2b3e aef5 69be
000002b0: 1363 19be 9c95 593e 1176 75bd a1c7 9f3e
000002c0: 1864 b23e a33e f43d 9314 843e 2873 d0bd
000002d0: e967 183e a645 7d3e cef4 92bd bd2a 163e
000002e0: e3a2 793e fbf4 2cbe 375b 60be 0c31 5abe
000002f0: 87de 983d 6628 6f3e 38ac 443b aa2d 85be
00000300: 33b7 24ba f58e 99be 61c5 923d 8343 61be
00000310: eeb4 65bd 1319 b4be ad8b 2bbe fdc9 9abc
00000320: 76c2 01be fd35 843e 60f4 c5be 27b0 303e
00000330: 2cc3 3fbe a917 8bbe b25b a1be 6cc8 2abe
00000340: cec0 a3bd 4bd8 cd3e fc67 d3bd 082b 233e
00000350: 21d9 6c3e f534 853e 1019 033e 4bbe 853e
00000360: a8f1 28be df50 383e 5dfe 4c3e 34a9 903e
00000370: c7c1 1a3e 9f2c b73d ad50 d83c 1afd 26be
00000380: 2858 91be bf6c 143e d68a 7b3e 760a 21be
00000390: 0755 18bd b6c2 d1bd d5d9 2fbe 3271 20be
000003a0: 386f a3be 0d83 bd3d e9ba 013e 1a7b 9b3e
000003b0: cfd3 b6be bceb ee3c b971 88be 97f2 39be
000003c0: 809f 8a3e be95 c23d 776a a8bb efa1 613e
000003d0: e90f 923e 8a0c 943e 4af8 833c 0116 17be
000003e0: 299d 953d 00fa a23d ada7 0bbe 8553 ae3d
000003f0: b59f dd3d 6aa0 8a3e 5d4f fc3e abef 633e
0.0057037883 -0.25323874 -0.13461912 -0.2257403 0.23514919 -0.14219175 -0.22997199 0.28576303
0.2608548 0.10213538 -0.07033276 -0.11128346 -0.033289425 0.032579828 0.013754119 0.0054785265
-0.1009379 -0.16443035 -0.28679374 0.08793647 -0.041010477 -0.036452346 -0.25988632 0.094240606
0.1581863 0.18696915 0.13197422 0.24196817 -0.11153321 0.11781109 -0.17208311 -0.238254
0.25270024 0.080790475 -0.22014917 -0.09957944 0.13514824 0.21022661 0.0005653343 0.1060798
-0.07730325 0.10059534 0.15573226 0.124615185 -0.18350896 -0.17978455 5.9017257e-05 -0.13281162
-0.26757625 -0.26930973 -0.13726181 -0.16965851 0.017481502 0.22247252 0.15575849 -0.09950167
0.025176922 0.10630602 -0.0809945 -0.17951114 0.15291293 0.20892756 0.007387872 0.2920144
0.1896948 0.21239583 -0.19288686 0.21067566 0.19660357 -0.14408994 -0.20560129 0.23469372
0.19376902 0.12346372 -0.23241493 0.13149908 -0.051109888 -0.18979794 -0.16828081 0.08529945
0.04942772 0.31656507 0.21405335 0.1579692 0.2698489 -0.00531334 0.0023020753 -0.22977738
-0.109512664 0.15685646 0.18309654 -0.2029745 0.10321342 0.229838 -0.052394446 -0.21648628
0.055596102 0.027241176 -0.1119341 -0.10053124 0.10876955 0.079835184 0.03295231 0.04508264
0.14875427 -0.27082917 -0.19361922 0.16732118 0.26858082 -0.21528296 -0.065412275 0.1664004
-0.25581425 0.22691612 -0.390658 0.11125147 0.056442697 -0.15315638 -0.31593683 -0.3390506
0.015300338 -0.16058241 -0.08521999 -0.22219023 0.0100345 0.105130285 -0.30193138 -0.15656598
-0.34313253 -0.10463196 0.020010337 -0.09947434 -0.14288369 -0.14752531 0.22559124 -0.086717285
0.2768496 0.24663742 -0.25093177 -0.22809398 -0.11561784 0.11100969 0.31946996 0.24151182
0.1670671 0.14964911 -0.04192996 0.16240872 -0.3211114 -0.17096958 0.20656244 0.15067266
-0.10273549 0.18081781 0.07379228 0.25328648 0.07327169 0.07893893 0.2392708 0.15220724
0.34283248 0.016818041 0.15281542 0.2611338 0.094188154 -0.25419542 0.20494944 0.051294047
0.115052864 0.16059315 0.16752915 -0.22847626 -0.149792 0.21248478 -0.05992705 0.31206992
0.3484199 0.119260095 0.25796947 -0.10178214 0.14883389 0.247336 -0.07175599 0.14664741
0.24378543 -0.16890328 -0.21909796 -0.21307772 0.07464319 0.23355255 0.0030009877 -0.260114
-0.00062834023 -0.2999188 0.07166553 -0.2199841 -0.05608075 -0.3517538 -0.16752501 -0.018895144
-0.12671837 0.2582244 -0.38663006 0.17254697 -0.18726796 -0.2716649 -0.3151527 -0.16678017
-0.07995759 0.4020408 -0.10322568 0.15934384 0.23129703 0.26016966 0.1280253 0.26121745
-0.16498435 0.179996 0.20018907 0.28254092 0.15112983 0.08944058 0.026405657 -0.16307488
-0.2838757 0.14494608 0.2456468 -0.15726647 -0.037190463 -0.10242216 -0.1717294 -0.1566818
-0.3192079 0.092535116 0.12668957 0.30367357 -0.35708472 0.029165141 -0.26649264 -0.18158947
0.27074814 0.09501217 -0.0051396447 0.22034429 0.28527763 0.28915817 0.016109604 -0.14754488
0.073053665 0.0795784 -0.13638182 0.08512024 0.10821477 0.2707551 0.492793 0.22259395

loss.picnn.flows.0.icnn.Wzs.0.bias f4 [20]
00000000: c226 2e3c bfb2 073d 3def 263e 41d5 1d3e
00000010: d463 63be 83a9 803e 29b6 ca3d 4868 13be
00000020: 4d7e 17be f040 4d3e 8b15 e9bd 0370 623e
00000030: 16af 823c 425b 46be 5154 07be b4ed 1bbe
00000040: fdff 06be ddab dd3d efac 2f3c 3334 8bbd
0.010629358 0.03312945 0.163022 0.15413381 -0.2220605 0.25129327 0.098980255 -0.14395249
-0.14794274 0.20044303 -0.11381062 0.22113042 0.015952628 -0.1937075 -0.13215758 -0.15227395
-0.1318359 0.10823796 0.010722383 -0.067970656

loss.picnn.flows.0.icnn.Wzs.1.weight f4 [20, 20]
00000000: a4bc 9f3e 5327 ef3d 0131 edbd e1f5 a93d
00000010: 64a0 ce3d 233e 1f3e b9f2 8b3e ce86 7b3e
00000020: 9fbd ad3e 3fb3 323e 1429 6c3e 16cf fa3d
00000030: ff51 aa3e 2195 0abd c068 9f3e f918 913d
00000040: 16eb 31bd 23f0 943e 042d 893e 1716 493e
00000050: 889e 513e fc1f 913e 7e58 babd 64e5 aebd
00000060: 79e7 8d3e 9ce0 a63e a45f 823e 5774 ca3d
00000070: f3ad a33e a496 d53d 83a5 083d 4f74 963e
00000080: f6d1 2d3e 386e 14bd 6fed 83bd 7170 1d3e
00000090: efd9 2f3d c3be 79bd aa74 ff3d 255c 0d3e
000000a0: 4f4a 973e 170a 223e 563a 92bc 78aa 033c
000000b0: 0d41 c43e 8104 c63e d964 bb3d 2627 203e
000000c0: b970 d7bc 7536 103e 6f16 843e bbe6 913d
000000d0: 9cd4 193a c3b9 a63e be32 8c3e c50f 0c3e
000000e0: 2e39 053e f486 823d 4052 553d 2777 443e
000000f0: abea 1fbe 3385 aebd 72ea 46bd a57e 873d
00000100: f82f 2fbe 8cc9 14bd 899a 853c 7031 393e
00000110: 258a 873c b6b0 de3d 0137 fcbd fe3b ea3d
00000120: eb48 9dbd 7e0d e93d 863b 883e d347 833e
00000130: 382e 4b3e 9895 f23d c75f b8bd 2915 3b3e
00000140: 1f0b 78bd 9609 6e3d c4a5 2c3e 27ed 8fbd
00000150: 4f35 963d e825 043e 3722 7c3e 84fa 623e
00000160: 615b 783d fb05 b0bb 0512 563d 8b1d 0a3e
00000170: 9aea 893d d047 633e a378 cbbd 1773 973b
00000180: 0502 87bd d22e 463e 3385 413d 8888 37bd
00000190: cadd a03d a754 bebb 95e0 0d3d 59c8 2bbe
000001a0: d77f 1d3e a33a 9b3d 808c 21b8 e869 e93d
000001b0: 1179 9a3c 3429 48bd ebaa c6bc 4e0b ccbd
000001c0: 0cf5 e93d 3033 e43a 268e 13bd 51bd 533d
000001d0: 5cd2 dbbb 2171 d83b 6035 d53d 3950 0dbe
000001e0: 34e9 ddbc f435 953d b921 0d3e eaf8 49be
000001f0: 2cc1 203d 5c1c fabd 1b1c 3c3e ed2c 723e
00000200: 2baa 8dbd 0346 02be 8557 dbbd ea4b db3d
00000210: aa26 01be 41ad d03d b849 10be a801 1fbd
00000220: d77a 1fbe e73a 2d3b 2af4 fd3d 4440 2c3e
00000230: 6d25 babd ff13 9dbd cdbd 2e3e 1741 f43d
00000240: c97c 14be 999e f8bd 994b 273d 3f07 083d
00000250: 8df6 65bc 063f 8ebc 3cd4 683d 4d32 00be
00000260: ed8a 323e 6098 6e3d 9e55 9ebd 6ead 793e
00000270: 4d52 c23d 25d2 2c3d 6f97 be3d b57f 523e
00000280: 3429 3b3e b504 27bc d091 1ebe dbc2 603e
00000290: acb2 873d 1d49 7a3c 6912 c73c caf7 c8bc
000002a0: 6fb0 07be 50e3 113e 3488 153d a6e2 463c
000002b0: cd84 2b3e 8aad 543e 3a5d 233e 7a80 df3d
000002c0: f4fc d7bd dc73 063e 2d22 0abe 88ef 523d
000002d0: 82a5 273e 2355 403e 1036 f43d 781f 4d3e
000002e0: 9794 bfbd 0add 81bd 90b0 053e fc05 05be
000002f0: 490d af3d 6a0d 20be 628e 45be 8756 2bbd
00000300: 9039 263e a82f 4c3e 0065 dcbd 5733 d0bc
00000310: fe5a 1bbe d749 153e ade5 c4bc 81bf e0bd
00000320: cb01 b83c 2aa2 b0bc 2a32 abbd 94e7 18bd
00000330: 528b ffbd f6be 513d 380d a9bd 964c 643c
00000340: 5c0d 513e 39d0 923d 0ac9 12be 3119 133e
00000350: 40c8 29be 2cd2 89ba ccac a9bd cc28 f4bd
00000360: 08e4 733e beb7 05be 33bd 6d3e 48aa 753e
00000370: 610b 523e fe59 113e 23c8 153e 5f13 d33c
00000380: e30a 8a3e fca4 49bd cb63 a53d aecc 703e
00000390: 052d c7bd e96a 3dbd e132 8a3e 7813 d73d
000003a0: df59 f23d 8f17 793d a623 edbd 1013 853e
000003b0: 559d 5c3e b44d a7bc 1d9e 81ba c068 813d
000003c0: d20e 8a3e de44 e7bd cc53 d2bd 6ad8 3fbb
000003d0: 9468 e2bd 920c af3d 551e 1d3e de05 a0bd
000003e0: b680 363d bdc3 9c3d 3b80 863e 32f5 ec3d
000003f0: cfdc 243e 6c44 833e 6c21 15be e54c 723d
0.3119861 0.116774224 -0.115816124 0.08298851 0.10089186 0.15551047 0.2733362 0.24563143
0.33933732 0.1745119 0.23062545 0.1224653 0.33265683 -0.033833627 0.31134605 0.07084841
-0.043437086 0.2908946 0.26792157 0.19637333 0.20470631 0.28344715 -0.0909891 -0.085398465
0.27715662 0.32593238 0.25463593 0.09885471 0.3196865 0.10429123 0.03336097 0.2938561
0.16974625 -0.036237925 -0.06441771 0.15374924 0.042932447 -0.06097294 0.12473424 0.13804682
0.2954888 0.15824161 -0.017850082 0.008036248 0.3833088 0.3867531 0.091500945 0.15639934
-0.026298868 0.14083274 0.25798365 0.071240865 0.0005868168 0.325636 0.27382463 0.1367789
0.13010094 0.063733965 0.052080393 0.19186078 -0.15616862 -0.085214995 -0.04856343 0.066159524
-0.17108142 -0.036325023 0.01630904 0.18085265 0.016545365 0.10873549 -0.12315179 0.11437224
-0.076799236 0.113795266 0.26607913 0.25640735 0.1984185 0.11844939 -0.09002643 0.1826979
-0.06055748 0.05811461 0.1686011 -0.07027655 0.073343866 0.12905085 0.24622427 0.22165877
0.06063402 -0.0053718067 0.05226328 0.13487832 0.067342 0.22195363 -0.09935119 0.004621874
-0.06592182 0.19353798 0.04724617 -0.04480794 0.07854803 -0.005808431 0.034638006 -0.16775645
0.15380798 0.075795434 -3.8516242e-05 0.11397153 0.018856557 -0.04886742 -0.024251422 -0.09963094
0.11423692 0.0017410275 -0.036024235 0.051694218 -0.0067084264 0.006605283 0.10410571 -0.13800134
-0.027088739 0.07285681 0.13782395 -0.1972386 0.039246723 -0.1221244 0.18370096 0.2364995
-0.069172226 -0.1272202 -0.107100524 0.10707839 -0.12612405 0.101892956 -0.14090621 -0.03881994
-0.15574203 0.0026432814 0.12400086 0.1682139 -0.0908917 -0.076698296 0.17064591 0.119264774
-0.14500727 -0.12139625 0.04084358 0.033210035 -0.014035833 -0.017364036 0.056843027 -0.12519188
0.17435808 0.058250785 -0.07731174 0.24382564 0.09488354 0.042192597 0.093062274 0.20556529
0.18277436 -0.010193993 -0.1548531 0.21949331 0.06625876 0.015276221 0.02430077 -0.024532218
-0.13250898 0.14246869 0.036506847 0.012138998 0.16749878 0.20769325 0.15953532 0.10913177
-0.10546294 0.13130134 -0.134896 0.051497966 0.1637173 0.18782477 0.11924374 0.20031536
-0.09354513 -0.06340988 0.13055634 -0.12990564 0.08547456 -0.15630117 -0.19292596 -0.041830566
0.16232896 0.19940054 -0.10761452 -0.025415106 -0.1517143 0.14578949 -0.0240353 -0.109740265
0.022461792 -0.0215617 -0.083591774 -0.037330225 -0.12477745 0.051207505 -0.082544744 0.013934275
0.20415252 0.071686216 -0.14334503 0.14365079 -0.16580296 -0.0010514907 -0.082849115 -0.11921844
0.23817456 -0.13058373 0.23216705 0.23990738 0.20512153 0.14194486 0.14627127 0.025766073
0.2696143 -0.049229607 0.080756746 0.23515579 -0.09725384 -0.046244536 0.26991943 0.1050176
0.11833548 0.060813483 -0.11579065 0.25991106 0.21544392 -0.020422794 -0.000988904 0.063188076
0.26964432 -0.11292432 -0.10269889 -0.002927328 -0.11055103 0.085473195 0.15343602 -0.07813619
0.044556342 0.076545216 0.26269707 0.11570205 0.16099857 0.2563814 -0.1456353 0.059155364

loss.picnn.flows.0.icnn.Wzs.1.bias f4 [20]
00000000: facb 083e 18c3 2d3e cc67 cdbd e3ee 503e
00000010: bf95 30be d6f2 08be 8bec 05bd fabd 203d
00000020: e6be 403c f851 c4bd fa8f 6abd dd72 923e
00000030: 3842 91bd a6b7 c13d 2aa8 2d3d 5c0d 17be
00000040: a44e 743e 1215 1dbd 686d 12be a8af c73d
0.13359061 0.16968954 -0.10029563 0.20403628 -0.17244624 -0.13373885 -0.032696288 0.039243676
0.011764264 -0.09585947 -0.057266213 0.2860326 -0.07092708 0.09458856 0.042396702 -0.1475119
0.23858124 -0.038350172 -0.14299548 0.09750301

loss.picnn.flows.0.icnn.Wzs.2.weight f4 [1, 20]
00000000: bcf9 26be 157d 03bd 8ded dcbd 9d7d 60be
00000010: 049b 143e 9748 9c3d 8b7a 24be 752e d0bd
00000020: 764b c73b 50d7 82bd c26d 743d a5d2 4f3e
00000030: 8c3d 86bc 31ce 443e 669b 13bd a89c a6bd
00000040: eca7 1fbe ad03 313e 8204 f0bd fcfc 223d
-0.16306204 -0.03210171 -0.10787497 -0.21922918 0.14512259 0.07631033 -0.16062371 -0.10165111
0.0060819937 -0.06388724 0.059674986 0.20295198 -0.01638677 0.19219281 -0.03603687 -0.081353486
-0.15591401 0.17286558 -0.1171961 0.039792046

loss.picnn.flows.0.icnn.Wxs.0.weight f4 [20, 20]
00000000: cf49 953d e42c fa3d 872b 2d3d b888 843e
00000010: 690c e1ba c016 e2bc c775 493d 84fb a23d
00000020: 41f0 4e3e 444c 193e 2ed7 703d d764 ebbb
00000030: e6a1 10be 4005 90bd 59ab d23d 7fdf 073d
00000040: 2881 b23c 3eb4 2b3b b5c0 463d 2e31 5fbd
00000050: d8f0 a8bd df13 0f3d e5f6 18be ee3f efbd
00000060: 6dcd ad3c 0e4f 1c3c 9cb7 2ebc 471a 23bd
00000070: abcb 813c 4881 743e a73e 303e dace 3c3d
00000080: a642 a3bd c53b 373d b139 543d f24f 06be
00000090: 9abd 603d 4395 f5bc d31d 563c 9cff b83d
000000a0: 8ccb b73d 5640 f03c 0c59 9fbd 8538 d93c
000000b0: ab60 64be 4c4d fdbd 0e01 8b3d 82d3 24be
000000c0: a1d3 93bd a90c b93d 68a6 103d 40df 29be
000000d0: a6ac 57be 0f5d 8b3d af8e 6a3e d1b2 d6bd
000000e0: 8b5f 39bc 4451 aa3d 4b1d 193e d427 9abd
000000f0: 40b4 543e a2d4 9f3d f051 90ba 9acb 08be
00000100: c203 48be 8edc 08be 7164 e9bd c00f adb7
00000110: 7e0e fc3b f593 1e3e b22f 79bc 3ddf 3bbe
00000120: 4510 15be 6084 61be aca8 523b 17ef 51be
00000130: 93a4 d1bd 590f 0b3b 7c6e 36be 5b8b b63d
00000140: 2e79 ae3d 874a 7abe 29f1 403b 6995 713d
00000150: 743d 1ebd bd59 15be a44f 0d3e ae3e f0bc
00000160: 6e94 2cbe 3436 65be 8039 3dbe fa54 5f3e
00000170: 0aa0 f9bd 625c 0a3d 2293 0a3c 9515 70be
00000180: 3b90 663d 8b0d febd 5292 21be ff8c ecbd
00000190: e056 f1bc 92a9 39be 7977 22bc 55d5 533c
000001a0: 532a 5c3c 33b5 0d3d 2e2e 59bd 858f 893c
000001b0: 05a0 0f3e 5e5e 7a3e aadb 803e 4ed4 013c
000001c0: a61e 903d 4851 983d 053a 7f3e 41c6 413d
000001d0: 5aae 493e 6df0 593e 42f2 233e c8e2 5a3d
000001e0: e3fc 0d3e ec0e d8bd 8379 043d 92fd 6fbe
000001f0: 3316 673e 364b 7d3e 048e ddbd da90 763e
00000200: 7742 8abd 6b30 07be 4492 3a3c 506b 023d
00000210: 056e 513c 63eb 11bd 40da 8b3d 6f9e a3bd
00000220: 6da5 35be 74e5 1bbd d9c4 13be a268 013e
00000230: 2e0a 33be 81a8 8cbd 29e3 9b3c ce8e 2d3e
00000240: 713a 533d b7e6 e7bd 1633 803d e19a b83d
00000250: d37f 40bd a6d9 26be d450 5cbe 6ab6 353b
00000260: ac16 bbbd 59a2 3cbe a7a3 86bb e336 b43d
00000270: a1d5 b93d 6d27 47bd 95e6 6b3d 64e9 57be
00000280: 13a5 2fbe 75d9 8abc e42a 4bbe bf04 8cbc
00000290: 4a39 fcbc 2ff8 4b3e 8116 03bd 4fd5 383e
000002a0: 5c62 9fbd 8269 49be f9b5 60be 43e8 083e
000002b0: 7f36 27be 4384 66bd d90b 49be a2b5 0e3d
000002c0: b6d5 f8bc 7409 1ebe d425 0d3e a3ab 1f3e
000002d0: c6c9 ae3d a77d 353e 0d46 b6bc 2a1e a03d
000002e0: 211d 24be 4b29 29be 1fd6 52be c709 82bd
000002f0: c4bd afbb 0daa 543e 2a54 dbbb ffdd 0cbe
00000300: f420 d53c 2b69 05bd f046 9dbb 4d48 553d
00000310: 47bd 02be 3339 0bbd f496 783e 404a 41be
00000320: 3260 ccbd 5053 86be 1a37 c13d f567 82be
00000330: e311 c63c 99bf 3fba 9ed5 49be 0ef0 123e
00000340: 7a70 babd 1d8a 2cbe a0fb 823e 8b9c 1d3e
00000350: 9eab 5b3e 3c22 263e d751 9c3d dc84 9c3c
00000360: be2d 9f3e 72d6 673e dd5d ffbd 93c3 563e
00000370: 143b 9dbc 68f4 aaba 7b7a 4d3e 8d99 7ebd
00000380: 182c 083e 7402 8d3d 291a 083d b01f c33d
00000390: 344c 883d 18d1 efbd 1f88 5e3e 02b0 3a3e
000003a0: 17a7 a03b 5fb3 533e dec5 1e3e 1f9f 4f3e
000003b0: 27a3 583d 1084 c33d d249 603e 669c 7e3d
000003c0: 379f 0e3e 824a 453d e8dc bd3d c4e3 08be
000003d0: 5d73 5c3e d4c9 a8bd 16b1 043e bd51 2b3e
000003e0: 8fe7 333e eec5 903e a9b1 773e df96 2a3d
000003f0: ea5b 1cbe 4945 193e 20b4 cabc 730d f9bc
0.072894685 0.122155935 0.04227784 0.25885558 -0.0017169836 -0.027598739 0.049184587 0.07958129
0.20208837 0.149705 0.05879896 -0.007183652 -0.1412426 -0.07032251 0.10286588 0.033172127
0.021790102 0.0026199962 0.048523623 -0.05449026 -0.08249062 0.03493106 -0.14937933 -0.116821155
0.021216119 0.0095403325 -0.010663893 -0.039819982 0.015844187 0.23877442 0.172114 0.046095707
-0.079716966 0.044734735 0.05181283 -0.13116434 0.05486832 -0.0299784 0.013068634 0.090331286
0.0897437 0.029327553 -0.07780656 0.026516208 -0.22302501 -0.12368259 0.067873105 -0.16096309
-0.072180994 0.09035618 0.035314947 -0.1658907 -0.21061954 0.06804859 0.22905992 -0.10483325
-0.011314283 0.083162814 0.1495258 -0.07527128 0.20771885 0.07804228 -0.0011010747 -0.13358918
-0.19532683 -0.13365385 -0.11396111 -2.0630541e-05 0.0076921573 0.15486129 -0.015209125 -0.18346877
-0.14556988 -0.22023153 0.0032143993 -0.20501362 -0.10236468 0.0021218865 -0.17815584 0.08913299
0.08519207 -0.24442492 0.0029440618 0.05898038 -0.038632825 -0.14585014 0.13799912 -0.029326763
-0.16853496 -0.22383958 -0.18478966 0.2180976 -0.12188728 0.03377951 0.008457931 -0.23445733
0.056289893 -0.12404927 -0.15778473 -0.1155033 -0.02946037 -0.18131092 -0.00991618 0.01292928
0.013437825 0.034596633 -0.053022556 0.016792068 0.14025886 0.2445006 0.2516759 0.007924153
0.07037096 0.07437378 0.24924476 0.04730821 0.19695416 0.21283121 0.16010383 0.05343893
0.13866 -0.10549721 0.032342445 -0.23436573 0.22567062 0.24735722 -0.10818103 0.24078694
-0.067509584 -0.13202064 0.0113874115 0.031840622 0.012782578 -0.035624873 0.06828737 -0.07989203
-0.17738886 -0.03806062 -0.1443056 0.1263757 -0.17484352 -0.06868077 0.019029217 0.16949007
0.051569406 -0.11323302 0.06259744 0.09013916 -0.046996903 -0.16293964 -0.21515208 0.0027727135
-0.09135184 -0.18421306 -0.0041088643 0.08799531 0.090739496 -0.048621584 0.057592947 -0.21085125
-0.17152815 -0.016949395 -0.1984058 -0.017092107 -0.030789036 0.19918893 -0.032003883 0.18050121
-0.077824324 -0.19669154 -0.21944417 0.13369851 -0.16329382 -0.05627848 -0.19633426 0.034841187
-0.030375343 -0.15433294 0.13783962 0.15592818 0.08534579 0.17723714 -0.0222502 0.07818253
-0.16026737 -0.16519658 -0.20589493 -0.06349521 -0.005363198 0.20767994 -0.0066933827 -0.1375656
0.02601669 -0.032571 -0.004799716 0.052070905 -0.12767516 -0.033990096 0.24276334 -0.1887598
-0.09979285 -0.26235437 0.09434338 -0.25469938 0.02417845 -0.0007314622 -0.19710395 0.14349386
-0.091034845 -0.16849561 0.255826 0.15391748 0.21452186 0.16223997 0.07632797 0.019106321
0.31089586 0.22640398 -0.12469075 0.20973043 -0.01919321 -0.001304281 0.20066254 -0.062158156
0.1329807 0.068852335 0.033228073 0.09527528 0.066551596 -0.11709803 0.21731614 0.18231204
0.004902731 0.20673893 0.15505168 0.20275544 0.05288997 0.09546673 0.2190316 0.062160872
0.13927923 0.04816676 0.0927065 -0.13368136 0.21528383 -0.08241621 0.12958178 0.167304
0.17568801 0.28276008 0.24188866 0.041647788 -0.15269437 0.14967836 -0.024744093 -0.03040192

loss.picnn.flows.0.icnn.Wxs.0.bias f4 [20]
00000000: 9108 d03d a52a 6fbe b95e 0b3d 8f07 763d
00000010: 4d97 32bd 77bb 0ebd 7bdd 9c3d 985a 3a3e
00000020: 0dbc c1bc 3103 5c3e 6fb7 fe3d 9f79 663e
00000030: 2c9b 893d 8c10 dd3d cc96 98bc a6ec 6ebd
00000040: 754d 033d 7e2d 673e 48a7 1bbd ab8a 9bbd
0.10157884 -0.23356111 0.03402588 0.060065802 -0.043601323 -0.03484675 0.076594315 0.18198621
-0.02364924 0.21485592 0.12437331 0.22507332 0.0671905 0.10794172 -0.018626593 -0.058331154
0.03205629 0.22575948 -0.03800133 -0.07594808

loss.picnn.flows.0.icnn.Wxs.1.weight f4 [1, 20]
00000000: 3592 eabd f189 d53d 9cf1 bc3d 2e9c 0d3e
00000010: 07a8 13be f081 cabd 34ea a63d b759 f7bd
00000020: 7cfc af3d b45c c9bd 0b5c 773d 7ec2 cd3d
00000030: 70e4 d43d 16d0 1abe 0488 cebd 0057 c93d
00000040: 149f 99bd 017e a43d a2cb 023e fef3 eabd
-0.11453668 0.10426701 0.09225771 0.13829109 -0.14419566 -0.09888065 0.081501395 -0.120776586
0.085930794 -0.09832135 0.060390513 0.10046862 0.103951335 -0.15118441 -0.10084537 0.09831047
-0.07501045 0.08031846 0.12772992 -0.11472319

loss.picnn.flows.0.icnn.Wcs.0.weight f4 [20, 80]
00000000: 3a42 8abd a388 d83d 08f1 b23a 3987 b63d
00000010: 9e0c c3bd 2a1d 8f3d 2501 1cbd 3d17 d4bd
00000020: a2c2 b4bd 728d 9bbc fcb1 8dbd 340f 0fbd
00000030: 7ec7 5cbc 44f5 933d 545b 75bd 2fa2 87bd
00000040: eeaf 463d 0be5 fdbd 7ae7 0c3e bd68 3e3c
00000050: ff69 493d a021 88bd 1647 eabd 2399 8dbd
00000060: 4595 afbd 5f18 0cbd 3acf 763d 374a 893d
00000070: 3ee4 b4bd e05f 413d d6e3 243c 2494 d03d
00000080: db96 17be fa8e 333d a41a 83bd 5f7e 61bd
00000090: 9ba8 b9bd 4cdd 8b3c 6e70 f4bd ed93 8cbd
000000a0: 3c0f df3c aed3 47bd bc9c e53d ebc4 5cbd
000000b0: 1e13 a33d 753a c63c c61a f73c 257b e43c
000000c0: bb7d 353d 2c2d a23b 50ec cabd 45c1 92bd
000000d0: dd2c 07bd 3071 853c 9f32 a1bd bdce eb3d
000000e0: 999b 743d 4e39 59bc 6c24 553d 9105 5dbd
000000f0: 6c74 e83c a1ba 96bd 0a28 023d 0fc1 ed3d
00000100: 22d6 16be 3ce2 df3c 92fc 23bb 2836 0cbd
00000110: 0a20 b1bc d5e8 17bd 6291 febc 8c3b 4e3d
00000120: 5d6f 07be 5222 9ebd 8a96 89bd d63b e13c
00000130: 5f2c 63bd ac20 bc3d f746 f9bd 5274 8b3d
00000140: 10a5 e7bd fd8a 9dbd 744d 00be 3f61 d43c
00000150: 31ea 783b 5f9a 2dbc 816c fbbd d0bf 433d
00000160: 6cbd debd a498 9dbd 9cfb 91bd b168 023e
00000170: 1cea 673d 6c1b 773c 78fd 27bd bf5d f33d
00000180: 64c2 2fbb 7c88 53bd 44a7 233d f37d ff3c
00000190: 6868 ed3c 9d0d 463d 39eb 04bd 0097 a2bc
000001a0: c936 5dbd a0cf 8bbc 2287 03be 8e32 1bbd
000001b0: cc2c 323d d354 003d 742f 88bd 07d2 ed3d
000001c0: 13ac f3bd a866 9cbd 1f5b 453d 1de1 cf3c
000001d0: aa66 b03d 575b 603c d8d0 d9bd 904d f13d
000001e0: d199 b93d a613 e43d 76e2 cc3c c61d 673d
000001f0: 8a33 823d 7868 cdbd c752 02be 06c9 2bbd
00000200: 235a d63d 4a82 6e3d 99f3 49bd fb88 8fbd
00000210: 1f47 093c 1746 623d b94b 6f3d 4ad2 bebd
00000220: 0f8a 2cbd 5678 7e3d a19b 453c 1a31 b1bd
00000230: b736 c0bc 7b86 7d3c 0216 3fbd 5f1d 30bd
00000240: 0e1d 60bd 58e9 93bc 7040 8d3d 2b13 c13d
00000250: ac70 913c 3586 e53c fce9 4abb cc24 d6bd
00000260: a8ad c0bc 0ebe 443d 0d26 583d 07f8 c73b
00000270: fba9 a9bd f0e1 af3d d3e9 e2bc 78a7 8bbd
00000280: ad40 8b3d 0ba3 953d 5472 34bd c5c0 9a3c
00000290: 67fa 8abd 910f b3bd c822 86bd c474 67bd
000002a0: 33ee 923d 64b5 02be 700b ba3d af13 613d
000002b0: ab86 d73d b081 29bd 2c28 92bc b2f6 f7bb
000002c0: ea69 b73d 3f93 543c 4470 70bd 9e5c c3bc
000002d0: ab37 48bd 98ad 153d b160 103d 25fc e3bd
000002e0: e4b1 aebd 5919 3bbd b7f4 25bd 5644 523c
000002f0: f1a8 a9bd 6aa6 7f3d faea 293d 7c3e 49bc
00000300: d28e 4bbd b10f 52bd 178d de3d 44ce 073d
00000310: 06f0 9f3d a3a2 abbd 0bb6 96bb 4c31 27bd
00000320: 52c9 b8bd 3dae 20bd 95ef afbc c1d8 e8bd
00000330: c319 a9bd aeb9 123d c6ed dd3d 87eb 973d
00000340: 9797 96bc f14b f2bd 2082 323d fdd5 7d3d
00000350: bbc0 abbd 5d40 97bb af84 ba3d 10cb 313d
00000360: 247a b9bc e1ba d6bd 6d50 f63d 4ff7 5e3d
00000370: 0360 7d3c 803a a5bd e948 1e3d c6c9 8ebd
00000380: 5fd3 b33d fe14 cbbd 53dc b83d f684 063e
00000390: d190 90bd 53e8 543b d49e a23d 0e8c 8a3c
000003a0: af44 753c 57ca 60bd 0d82 cf3d 0014 a6bd
000003b0: 395a ccbd 16ed 4abc 6a93 7b3d 2334 a63d
000003c0: e7c4 a03d 0cb4 37bc 427f 033e fa70 ddbd
000003d0: bd26 e2bb 40fd adbd b452 573d c8aa 35bd
000003e0: 3c0f 253d aea6 40bd 5a75 cf3d 9a10 f4bd
000003f0: 6083 d4bd e312 973d 944e 3c3d 8050 ecbd
-0.06750913 0.105729364 0.0013652155 0.089125104 -0.09523891 0.069879845 -0.03808703 -0.10355995
-0.08826186 -0.018988345 -0.069187135 -0.03492661 -0.013475297 0.07224515 -0.05990155 -0.06622731
0.048507623 -0.12397202 0.13760176 0.011621651 0.04917335 -0.066470385 -0.1143934 -0.06913974
-0.08573393 -0.03420293 0.06025622 0.067036085 -0.08832596 0.047210574 0.010064086 0.101845056
-0.1480364 0.043837525 -0.06401566 -0.055052157 -0.09065362 0.017073296 -0.11935507 -0.06864152
0.027228944 -0.048785858 0.11211535 -0.053898733 0.07962631 0.024197796 0.030164134 0.027890751
0.04430936 0.0049492326 -0.09908354 -0.071657695 -0.03300177 0.016289324 -0.07870983 0.115140416
0.059718702 -0.013258291 0.052036688 -0.053960387 0.028375827 -0.073598154 0.031776465 0.11609089
-0.14730123 0.027329557 -0.002502237 -0.034231335 -0.021621723 -0.03708728 -0.031075183 0.050349757
-0.13226075 -0.0772139 -0.06718166 0.027494352 -0.055462237 0.09185919 -0.121717386 0.06809296
-0.1131078 -0.076925255 -0.12529546 0.025925277 0.0037981386 -0.010595887 -0.12276555 0.04779035
-0.10875973 -0.076951295 -0.07128069 0.12735249 0.05661975 0.0150822215 -0.04101321 0.11883115
-0.0026818747 -0.051643834 0.03995444 0.031187987 0.028980449 0.048352826 -0.03245089 -0.019847393
-0.054007325 -0.017066777 -0.12844518 -0.03789001 0.043499753 0.031330895 -0.06649676 0.11612325
-0.11898055 -0.076367676 0.048182603 0.025375897 0.086133316 0.013693652 -0.10635537 0.11782372
0.09062541 0.1113656 0.025010329 0.05642488 0.063574865 -0.100296915 -0.1272689 -0.041939758
0.10466411 0.058229722 -0.04930458 -0.07008549 0.008378773 0.055242624 0.058421824 -0.09317453
-0.04212385 0.06212648 0.012061031 -0.086519435 -0.02346359 0.015473957 -0.046651848 -0.04299676
-0.05471521 -0.018055603 0.06897056 0.09427484 0.017753921 0.028018096 -0.003096222 -0.10456237
-0.023520306 0.048032813 0.052770663 0.006102565 -0.08284374 0.08588016 -0.027699387 -0.068190515
0.06799445 0.073064886 -0.044054344 0.018890748 -0.06786042 -0.087432034 -0.06549603 -0.05650784
0.07174339 -0.12764508 0.09084213 0.054950412 0.10523733 -0.041383445 -0.017841421 -0.00756725
0.089557484 0.012974559 -0.058700815 -0.023847874 -0.048881214 0.036542505 0.035248462 -0.11132077
-0.08530024 -0.04567847 -0.04051658 0.012833675 -0.08284176 0.062414564 0.041483857 -0.012282964
-0.04969675 -0.051284496 0.108667545 0.033155695 0.07809453 -0.0838063 -0.004599338 -0.040818498
-0.09022774 -0.039228667 -0.021476546 -0.113694675 -0.08256867 0.03582161 0.10836367 0.0741797
-0.01838283 -0.11830891 0.043581128 0.061971653 -0.0838637 -0.004615827 0.09107339 0.043406546
-0.022641249 -0.10484863 0.12027059 0.05443507 0.0154647855 -0.080677986 0.03864375 -0.06972079
0.0878055 -0.09916113 0.090263985 0.13136658 -0.070588715 0.003248711 0.0794045 0.016912486
0.014969989 -0.054880466 0.10132227 -0.081092834 -0.09978146 -0.012385627 0.061419882 0.08115413
0.07850056 -0.01121236 0.12841514 -0.10812564 -0.0069015906 -0.08495569 0.052569106 -0.044352323
0.04029773 -0.047033958 0.10129805 -0.11917229 -0.1037662 0.07376649 0.045973375 -0.11538792

loss.picnn.flows.0.icnn.Wcs.0.bias f4 [20]
00000000: ca56 4c3d 2c91 d1bd c475 0cbd 7d2b de3d
00000010: 5fe4 7fbd ec9c 3f3d 14c6 883d bc0f a83d
00000020: a723 263e 4f54 083d e340 c5bc 35e7 06bc
00000030: 2ed5 d53d 23d8 5f3d fda5 2b3e 163c 833d
00000040: e24d 65bd 54c4 3c3d 3681 003e 70f2 053e
0.049887456 -0.102327675 -0.034291998 0.108481385 -0.06247365 0.04678051 0.066784054 0.08206126
0.16224538 0.033283528 -0.024078792 -0.008233835 0.104410514 0.054649483 0.16762538 0.06407945
-0.055982478 0.04608567 0.1254929 0.13080764

loss.picnn.flows.0.icnn.Wczs.0.weight f4 [20, 20]
00000000: dc82 b93d 7230 04bd 0d28 933c be87 713d
00000010: 85cf 813d c2a7 753d f76a a53c f6e4 493d
00000020: 6576 0f3d 7904 a63d 4ddd 54bc 0a2e 283d
00000030: 0f92 bf3d a8cd 2e3d 20e3 f13c b4c3 223d
00000040: 265b 86bc 4af8 9e3d 4844 803c 5b07 bd3d
00000050: 0ec2 ae3d f328 84bd fb1b 193c 15af 513d
00000060: 0cd5 9c3d d2d3 2b3d 8545 033d c01f 463d
00000070: ffa2 123d f85e a53d 732c abbb ad6c 263d
00000080: 48f6 a23d da09 553d 33f7 003d 873d 233d
00000090: 41f2 b6bc f561 953d 2d7a d13c 29da a53d
000000a0: 8bde 733d ae57 f9bc 0a6a 27bb e285 f93c
000000b0: 0309 553d f115 8f3c 98b2 273d d841 303d
000000c0: aafc f43c 8fde 8d3d 28e0 d93a 9e09 b03c
000000d0: 892b 433d bf82 1f3d 747b 1f3d dc93 153d
000000e0: c34a 20bd c2a2 5f3d 3da5 1b3c fdec 6a3d
000000f0: d809 b93d 90d5 c6bc 897f 503a 57c6 283d
00000100: 69e6 473d 0af9 2c3d 2a7f f43c 1315 393d
00000110: a425 023d b79f 983d 2486 6fba 558d 1a3d
00000120: 0fb5 933d d312 1f3d e008 263d 075b 283d
00000130: e8f3 01bd 06b4 8d3d ddb6 2cbc a7a5 943d
00000140: 90c8 c03d e8ac 1fbd aa5f 0d3b 9a1a 573d
00000150: aeec a23d 4e28 403d 1a2d 263d 61a1 673d
00000160: 77f6 453d e8cd c23d 0b16 aa3c e80b 533d
00000170: edb6 bb3d 7b79 443d 7196 453d d27e 403d
00000180: a634 ffbc 0e64 9d3d 27df 0a3c b706 ca3d
00000190: 5962 c33d 8e4f 87bb adea 1f3c 2454 883d
000001a0: b17f d13d e14c 563d 3a80 403c be58 903d
000001b0: ed92 863d 97ae f03d 3d81 063d 16f9 873d
000001c0: 4886 f43d 341b 453d 14b3 4e3d 6994 8c3d
000001d0: b291 d2bb c5de 893d a103 1a3c 6a05 e53d
000001e0: 9164 dc3d 0603 dcbc a704 1a3c b8b1 7d3d
000001f0: d1ea d03d 9252 443d e773 113d 8bb4 893d
00000200: 0712 773d ca5c d33d df4f 5a3c 8ae1 6d3d
00000210: b042 e03d 8a45 6f3d bef2 653d 7c2b 6f3d
00000220: d052 2abc aaa9 9f3d dad0 653c 9d99 d63d
00000230: 654b df3d c004 edbc 7e83 953b 866e 703d
00000240: 7827 943d 911b 763d 9e4d d83c 168f 4f3d
00000250: 0a73 203d 4bb5 ab3d 9fe5 afbb b4dc 413d
00000260: c8cc d13d 2d7e 3d3d 4efa 193d e1dd 3e3d
00000270: 6ae4 99bc db09 b03d 2ca0 3c3c 5a66 c73d
00000280: d209 f63d 1d95 14bd 62e3 a13c a230 9f3d
00000290: ae56 d43d edf8 a23d 7ae0 d73c 79b1 5f3d
000002a0: d123 583d e506 c63d 28d4 ca3c f306 943d
000002b0: 2d62 e43d c8f9 813d 6a50 ed3c f6c1 5a3d
000002c0: 6ca6 b2bc 0e5e d13d 3077 e93c ad8f ed3d
000002d0: 46b3 c63d e2ea a3bc 30e6 9e3b e6f4 613d
000002e0: 3bba b53d 09a4 473d fc25 c43c 4532 893d
000002f0: 5e72 663d fe76 df3d 5221 b33c 884d 6c3d
00000300: cd46 d63d 3a71 6c3d aecc 563d b96f 5b3d
00000310: 30a7 87bc 1e61 953d 6f27 cc3c bae1 ce3d
00000320: 387a f33d fb28 5bbc eace 15ba 0ad1 6a3d
00000330: 553a de3d 98aa 4b3d 58e1 023d f5e2 873d
00000340: 4a4b 8b3d 9092 e43d 8143 123d 5725 8d3d
00000350: 281b d73d 2971 713d bbcd 5c3d 8709 873d
00000360: 0e37 08bc d98e ad3d 9331 cc3c 29eb d53d
00000370: f51c e33d 7add ddbc 70b7 aebb 204e 5a3d
00000380: 9b09 a33d 6273 1f3d efa4 bd3c c1b0 663d
00000390: 3d15 5a3d 4977 c03d ec38 cf3c 8985 873d
000003a0: c3b0 a23d 1c21 793d ebce 533d 39fc 8b3d
000003b0: e790 ce3b 7699 b23d 5945 c83c 45e8 b83d
000003c0: 490f 033e d534 c9bc 783e 153c f3e0 873d
000003d0: d0f9 af3d 947a 7b3d 42dd a43c 7ce9 873d
000003e0: 2656 683d bdd5 d63d b808 063d 75c6 8c3d
000003f0: efbc fe3d 5c7d 4d3d 1167 613d 2756 583d
0.090581626 -0.032272764 0.017963434 0.058967344 0.06338409 0.05997444 0.020192606 0.04929062
0.03502502 0.08106322 -0.012992215 0.04105953 0.0935403 0.042676598 0.029527247 0.03973742
-0.016400885 0.07762201 0.015657559 0.092299186 0.08533107 -0.06453123 0.00934505 0.05119236
0.07657823 0.041950054 0.03204872 0.048370123 0.035799976 0.080747545 -0.0052238046 0.040630985
0.07957131 0.05201135 0.031485748 0.0398536 -0.022332313 0.072940744 0.025570953 0.080982514
0.059538405 -0.030437317 -0.0025545382 0.030459348 0.052010547 0.017466517 0.040941805 0.043031543
0.029905636 0.06927215 0.001662259 0.02148896 0.04764894 0.03894305 0.038936093 0.036517963
-0.0391338 0.054598577 0.009499845 0.057354916 0.09035081 -0.024271756 0.00079535745 0.041204777
0.04880372 0.04222969 0.029845793 0.045186114 0.03177418 0.07452338 -0.0009137115 0.03773244
0.072122686 0.03883631 0.040535808 0.041102435 -0.031726748 0.06919102 -0.010541645 0.07258158
0.09413254 -0.038983256 0.0021571913 0.052515604 0.07955299 0.046913438 0.040570356 0.056550387
0.04833075 0.0951193 0.020762464 0.051525027 0.0916575 0.047967415 0.048239175 0.046995945
-0.031153034 0.076850995 0.008476055 0.09864562 0.09540243 -0.0041293567 0.009760541 0.066566736
0.10229433 0.05231941 0.011749322 0.07048176 0.065709926 0.1175205 0.032838095 0.06639306
0.119396746 0.048121646 0.05046375 0.068642445 -0.0064260596 0.06731943 0.009400279 0.11182673
0.10761369 -0.02685691 0.009400523 0.061937064 0.10201038 0.047930308 0.035510924 0.06723889
0.060319927 0.103204325 0.013324707 0.05807642 0.1095022 0.058415927 0.0561397 0.05839108
-0.010395721 0.07796033 0.014026845 0.10478518 0.10903052 -0.028932929 0.004562794 0.058699153
0.072340906 0.060084883 0.026404198 0.050673567 0.03917221 0.08384188 -0.005367949 0.04732962
0.10244137 0.04626291 0.037592225 0.04659832 -0.018785674 0.0859563 0.011512797 0.09736319
0.12013592 -0.036275018 0.019761745 0.07772948 0.10368095 0.07957635 0.026352156 0.05461261
0.052768532 0.09669284 0.024759367 0.07227888 0.11151538 0.0634647 0.028969008 0.05340763
-0.021807872 0.10223018 0.028499216 0.115996696 0.097021624 -0.020009462 0.004849218 0.055165194
0.08873411 0.04874042 0.023943894 0.06699041 0.056261413 0.10911368 0.021866474 0.057691127
0.10462723 0.05772517 0.05244129 0.053573344 -0.016559213 0.07293914 0.024921147 0.10101648
0.11888546 -0.01337647 -0.00057147315 0.05732826 0.1085097 0.049723238 0.031953186 0.066350855
0.068014696 0.11160767 0.035708908 0.06891888 0.105032265 0.05894581 0.053907137 0.06593614
-0.008313907 0.08474512 0.024925983 0.10445244 0.110895075 -0.027083147 -0.005331926 0.053297162
0.079608165 0.038928397 0.023149936 0.05632091 0.05324291 0.09397752 0.025295697 0.06617267
0.07943871 0.06082259 0.051711004 0.06835217 0.006303895 0.087206766 0.02444713 0.09028677
0.127988 -0.024561325 0.009109132 0.066347025 0.0859257 0.061396196 0.020125035 0.066363305
0.056722783 0.10489986 0.03272316 0.0687379 0.1243838 0.05016838 0.055029932 0.052816536

loss.picnn.flows.0.icnn.Wczs.0.bias f4 [20]
00000000: ffba aa3d 3bf2 a23d 94f0 843d f92c 8e3d
00000010: b6fd af3d 52b7 c53d c22f c53d 5239 a43d
00000020: 8377 d03d 2cfc be3d 11ec bf3d 2a0f bc3d
00000030: 89e2 ba3d de1c 9f3d ddc8 cf3d e013 c53d
00000040: 6486 b33d 910e b53d 8685 d53d f4c3 c93d
0.08336448 0.07956358 0.06491199 0.069421716 0.085933134 0.09654106 0.0962825 0.080187455
0.10179045 0.09325442 0.09371198 0.0918258 0.091252394 0.07769178 0.101457335 0.096229315
0.08765867 0.08840669 0.10425858 0.09851828

loss.picnn.flows.0.icnn.Wczs.1.weight f4 [20, 20]
00000000: 7675 e63c 9036 f1bb ccf6 393d 4250 403d
00000010: 69f8 a83b 8131 e43c 4d82 c6bc c0bb 5c3b
00000020: 1866 3838 83c7 383c 6635 8dbb d23e de3c
00000030: 5d9b ac3d cf7c 26ba 9b76 8bbc 2d39 91bb
00000040: ebc3 42bd 5d44 31bc e312 55bd b3ab c33d
00000050: ba22 ce3c f96c 163c a3c4 5abd 5066 81bb
00000060: 4b1d 4ebc 2a7d d33b dc42 9fbd 8241 a43b
00000070: 5220 99bc 95e2 05bc c53e 1fbd c071 e73c
00000080: 58e7 8b3c 52c2 5d3b b1e8 6bbd bac9 103c
00000090: 1e17 4fbd 0c7d a73c 0b7e f1bc 49cd a33c
000000a0: aef9 e2bb e723 3d3c 9912 84bc 64bf 64bc
000000b0: 7e1d a33d 507d cfbc fe26 313c 70f8 3fbd
000000c0: 49b9 1a3c 54c6 8c3c 6937 943c b0c4 c33b
000000d0: 46c2 56bc b722 6a3d e394 b2bc 5c7f 8abb
000000e0: 3e4f 78bc 9558 8ebc 0b1b 24bb cefb 80bc
000000f0: beca 443c af66 a8bc 467a f9bb 7775 41ba
00000100: 7169 83bb 77e0 04bc cb82 12bc 9dc0 60bc
00000110: 9589 92bc 09fe 72bc 5f21 1a3c c8ae b63c
00000120: 101f 15bb 42ce 923c 714e 04bd 8fd8 2a3b
00000130: 769c 63bc d260 33bb 3922 c4bc ba2e b2bb
00000140: 9d3d 463c 2ee6 25bd 809b 553b 6ba7 213c
00000150: 9e38 5ebb 50f1 4d3b 8809 06bc 2061 fd3a
00000160: 2b34 f9bb 3ed6 40bb 5afe b9bc 7773 993c
00000170: d51d 29bc af3b 053d 651e 87bc 6bc1 8a3c
00000180: bcff 51bc 6b6a 173c a9a8 3abd 8ae9 2c3b
00000190: dd22 693c 19e4 20bd 3fac 2bbd 3239 ddb9
000001a0: 12fa d83c 8a8a f9bc c2f7 47bc 4c76 a5bc
000001b0: dc9e f439 0708 e3bb fcae c9bc 1435 203c
000001c0: 4274 853b 5b76 9a3c 3ee9 33bd de5e 1abc
000001d0: fd20 edbd bc10 083d 0f9a 123d a666 bf3c
000001e0: 998f bb3c e955 693c 62f1 d5bc 1f4d ef3b
000001f0: a074 9ebc 2575 60bc 1ab5 cabc c960 54bc
00000200: f8c8 7ebc 1147 f2bc 73ca 83bc 42c1 7a3c
00000210: d677 0cbd 795d c53c 79c3 07bd b668 1c3c
00000220: 2a75 bcbc 21fa 363c ec5f a8bd f10d 19bc
00000230: eabe ff3c 2f7f bfbd 3c45 52bc 9993 533b
00000240: 4803 dcbc 5bc9 b93b c415 5bbd d296 eabc
00000250: c19b 15bd 070e 1cbd 1f8c 09bd 3220 9e3c
00000260: cab9 c1bc 1f67 d13c 710a 05bd a4e5 ccbb
00000270: ae84 65bc dcdd ce3c 2795 17bd 9fa7 83bb
00000280: 0cd7 f6bc 0252 21bd fe55 72bb a41f 79ba
00000290: 0691 a9ba 4a8b b4bc e62b d43b c58c 063b
000002a0: 6702 b8bc 27b9 6dbc ee1e a8bc adf1 99bb
000002b0: 446a 74bc 09d1 043d 6271 18bd 3a4a adba
000002c0: e934 a1bc 0743 90bc 57dd 01bd 23cd 1dba
000002d0: b579 303d 9939 e73b 7d27 f7bc f341 49bc
000002e0: 48bf b2bc a659 223c 4e3e b63b 8509 5ebd
000002f0: 4787 bbbc 8b99 12bd 0e5e cdbc 3517 fabb
00000300: cd91 11bd 3120 473d 119d 35bd 5417 b0bc
00000310: 6438 f6bc 29f2 f43c 905f 5bbd e9a4 1ebd
00000320: 329c 133c 0574 cd3c 5fff 51bc 091d 463b
00000330: e6fe 883c c4b4 27bb 5107 0dbd 11ca cc3b
00000340: 269b 5fbc 84a0 c5b9 9e16 2ebd 0913 a6bc
00000350: 7538 d4bb d210 e73b a720 14bd da3d c8bc
00000360: 6437 bbbc f031 693c fe93 b3bc 0ba5 ca3b
00000370: ab11 27bd 896d 38bd 2abc 3cbd 5088 00bc
00000380: 5253 083d 2420 65bd b715 3d3c 3672 fd3c
00000390: 01d2 053c 604c bc3c 109a 363b f969 fabb
000003a0: 6dd8 af3b efbf 23bc 0034 50bc 8ec0 b2bc
000003b0: 34c7 b2bd 519c cabc b897 283c 5cae b53c
000003c0: 18f1 dbb8 d189 6f3c 28ac a8bc a278 18bc
000003d0: 5390 a5bb f0a7 1838 7806 7bbc 48f8 c9bb
000003e0: 17d9 d1ba e975 20bb 715f 9cbb 80ee 7bbc
000003f0: c1b2 863c e378 75bc 9a33 36bc abb8 97bb
0.028132182 -0.0073612407 0.04540138 0.04695154 0.005156566 0.027855637 -0.024232054 0.0033681244
4.39641e-05 0.011278036 -0.004309344 0.027129564 0.08428071 -0.00063509954 -0.017024329 -0.0044318647
-0.047550123 -0.010819522 -0.052019965 0.095542334 0.025163043 0.009181255 -0.053410184 -0.003948964
-0.012580226 0.0064541297 -0.07776424 0.005012692 -0.01869217 -0.008171697 -0.03887822 0.028252482
0.017078087 0.0033837748 -0.05759496 0.008837158 -0.050559156 0.02044537 -0.029479047 0.019995349
-0.006926737 0.011544204 -0.01612215 -0.013961647 0.079646096 -0.025328308 0.010812519 -0.046867788
0.0094435895 0.017184414 0.018092828 0.0059743747 -0.013107842 0.057162013 -0.02179951 -0.004226608
-0.015155612 -0.017376224 -0.0025040533 -0.01574507 0.012011228 -0.020556776 -0.007613453 -0.00073798693
-0.0040103723 -0.008110157 -0.008942316 -0.013717798 -0.01788787 -0.0148310745 0.00940737 0.02230014
-0.002275411 0.017920617 -0.03230137 0.002606902 -0.013892284 -0.0027370942 -0.0239421 -0.005437699
0.012099651 -0.04050272 0.0032593906 0.009866576 -0.0033908258 0.003142435 -0.008180983 0.0019331314
-0.007605096 -0.0029424573 -0.022704292 0.018731816 -0.010322054 0.03252762 -0.016493985 0.016937932
-0.0128173195 0.009241681 -0.045571003 0.0026384317 0.014229503 -0.03928003 -0.041912314 -0.0004219502
0.02648643 -0.030461568 -0.012205066 -0.02019801 0.00046657666 -0.006928447 -0.024619572 0.00977828
0.004072697 0.018855264 -0.04392361 -0.009422032 -0.11578558 0.033219084 0.035791453 0.023364376
0.022895621 0.014241674 -0.026116077 0.0073028947 -0.01934272 -0.013699804 -0.02474456 -0.0129625285
-0.015550844 -0.029574903 -0.016087746 0.015304865 -0.034293972 0.024092423 -0.0331454 0.009546449
-0.023005087 0.011168034 -0.08221421 -0.009341703 0.031218965 -0.0935043 -0.01283389 0.003228402
-0.026857033 0.0056697554 -0.053487554 -0.02863637 -0.03652549 -0.038099315 -0.033580896 0.019302461
-0.023648161 0.025561867 -0.03248066 -0.0062529612 -0.014008684 0.025252275 -0.037007477 -0.0040177847
-0.03013184 -0.03938485 -0.0036977525 -0.0009503311 -0.0012936897 -0.022039074 0.0064749597 0.0020530683
-0.022462083 -0.014509476 -0.02052256 -0.0046979995 -0.014917914 0.032425914 -0.037217505 -0.0013220974
-0.01967855 -0.017610086 -0.031705227 -0.00060196425 0.04308482 0.0070564267 -0.030170197 -0.01228379
-0.021819726 0.009909069 0.0055616265 -0.054208297 -0.022891654 -0.03579096 -0.025069263 -0.007632161
-0.035539437 0.048614684 -0.044339243 -0.021495499 -0.030056186 0.029900627 -0.053557932 -0.03873149
0.009009408 0.025079736 -0.012817233 0.0030229709 0.016723108 -0.0025589922 -0.034430806 0.006249674
-0.01364783 -0.00037694362 -0.04250204 -0.020272749 -0.0064764568 0.0070515657 -0.036163952 -0.024443556
-0.02285356 0.014233097 -0.021921154 0.0061842254 -0.040788334 -0.045026336 -0.046077885 -0.007844999
0.033282585 -0.055938855 0.011540822 0.03093825 0.008167745 0.022985637 0.0027862824 -0.0076420275
0.005366376 -0.009994491 -0.01270771 -0.021820333 -0.08729401 -0.02473274 0.010290079 0.022177868
-0.00010487641 0.01462026 -0.020589903 -0.009306105 -0.005052605 3.6396028e-05 -0.0153213665 -0.0061636306
-0.0016010132 -0.0024484342 -0.0047721197 -0.015376687 0.016442658 -0.014982435 -0.011120701 -0.0046301684

loss.picnn.flows.0.icnn.Wczs.1.bias f4 [20]
00000000: bf29 3b3d 3d53 8f3d a094 f73b 39bf 013d
00000010: b585 153d eee5 993d 09a5 633d dc89 0b3c
00000020: 927d 543d cb96 c1bc 8d17 633d 3673 553d
00000030: cc6d 273d 04ab 4a3d 45ef 223d eb01 893c
00000040: 6baf bd3c cfeb 903b 67f5 f7bc 9664 073d
0.04569411 0.06998298 0.0075555593 0.031676505 0.036504466 0.07514559 0.05557731 0.008516755
0.051877566 -0.023631474 0.05544238 0.052111827 0.040876195 0.0494795 0.039778966 0.016724547
0.023154935 0.004422642 -0.030268384 0.03305491

loss.picnn.flows.0.icnn.Wcxs.0.weight f4 [20, 20]
00000000: e3af 063d e872 483d 1875 e3b8 fe94 7a3c
00000010: 61fc 3b3b ba27 f73c 4f2d 63ba 7b0b e5bc
00000020: 94ce 3fbc 3a32 c03b f8d1 853b 17e3 a9bc
00000030: 719f 37bb 8748 6f3c 60a8 653b a96c 00bc
00000040: 163c cdbc 5da0 4f3d 36f1 c2ba 1187 983c
00000050: c991 f03c f9d9 773c 8a3a e83c 9ebb e83c
00000060: db97 07bd 4637 bc3c b709 b1bb bf7b 44bc
00000070: d715 34bc ed57 77bc e2f7 f13c df84 b8bb
00000080: d6c0 0f3c 7a03 073b 6f74 f9ba 2545 bfbb
00000090: ea21 9d3b 5b22 103d 94dd 73bc 14a2 903c
000000a0: 606f 3737 a85a e53b 483f df3c 459f ef3c
000000b0: 0f14 973c 4f50 3e3c 008b 803c f6df c3bc
000000c0: 0d56 a43b 2491 4cbc 763f c63b cf4e 85bb
000000d0: 5003 113d 25e6 893a 9e09 48bc 684f 8fbc
000000e0: 3f34 b53c bc72 4d3c e88c 033d c77d 103d
000000f0: 0bb2 bf3c 8ac5 7d3c 03e2 093c e787 b03c
00000100: 8bcc 0ebd 814f 973c eb53 8bbc bbcf 87bc
00000110: 8551 9ebc 4df4 fdbc 3c45 2abc 8e2f abbb
00000120: 4452 2d3b d698 183b 1a5e c3bc 816a 2fbc
00000130: 15d6 07bd 1f6d 133d 99dc 38bc 89ef ac3c
00000140: 6424 673c 133d fe3b f61a 923b 3cce 033c
00000150: 0f06 cc3c 4096 6e3b 55f4 71ba 0681 ccbc
00000160: f92c e63b 6768 83bc 854c ae3c bb67 03bc
00000170: df60 f53a 6f06 ba3c ae53 67bc fa84 f1ba
00000180: f83c 99bc 6af1 553c 03e4 fdbb 0e84 253c
00000190: f3a7 c53c d9d5 79bd 5e0f 8abc 973e e0bb
000001a0: 6806 843b a02b 163b 1963 073c 7bac bfbc
000001b0: 8665 b23b 9d1d 62bc abfa a3bc e3dd fcbb
000001c0: 37c1 4bbb 86db d13c ee26 9aba 1e65 95bb
000001d0: 5255 eebc f5a4 de3b 777b cc3c 37d0 51bc
000001e0: 82a8 443c c37c b03b 91bb 0d3d 6cbf f83c
000001f0: 640f 24bd e3f0 033d 9c2e 83bd 07ae 77bc
00000200: 2dd3 6abd c1a8 0cbd bef0 8cbc 2455 803c
00000210: cb43 e73c 2f51 37bd d14e 63bd 2b24 5cbd
00000220: 9a57 38bc 1769 ac3c a110 88bb f8ba e13c
00000230: 3da1 a53b fd69 6ebb a36a 0cbd bff9 2fbd
00000240: 032a 1a3d 8fd7 e3bc a68f 903c 6b21 1c3b
00000250: f332 9a3c e5de 143c c49d d23c 1e91 f7bc
00000260: 08a1 cfbc b209 9d3c 33b9 8d3c 4d40 433c
00000270: f292 0eba c4e0 42bc ec02 833c 8d38 35bd
00000280: 4c50 473b f3f0 c9bc 2f49 d03c 56fb f93c
00000290: 519f 203d bde5 753c 4e0c 6c3b 59e0 ff3c
000002a0: 10bd 823b 6712 9d3c 4cc7 18bd 75c1 713c
000002b0: 9b0f 2a3d 896c 623c 5609 efbc c25c b7ba
000002c0: 5175 ef3a eb19 263c 29c5 6f3b 184f 143d
000002d0: 86c7 2cbc 8d01 d7bc 42d6 8a3b ddc2 d83b
000002e0: 77fb 0f3d 2fdd 0dbc 14c4 2abb 110e 0ebc
000002f0: 78d9 a93b aab6 773b b936 37bd 0b87 84bb
00000300: ff3b 983b 1bd5 c23c 34f3 50bd a61f 6f3c
00000310: 128e 72bc d936 12bc 22de bf3c 9d97 a13c
00000320: 94d9 80bc d9d4 a7bd c282 d53c c4cd 0d3d
00000330: 229f 053d b3f0 863c 6275 863c d48a 863d
00000340: e6c1 ea3c 4e34 2d3d d700 45bd 0b57 a83c
00000350: 0d83 603d 8560 883c 172e a73c 4e08 f43c
00000360: 22e2 0e3d ae98 b33b 7f2b d23c 2fc6 1e3d
00000370: 3226 ae3d 0904 cb3a c48e bfbb c4c9 ef3c
00000380: c105 943c d12e 2a3d ecf2 133c a63d 09bd
00000390: 4f41 0bbc 8413 e0bc b10a fd3c 23fd bdbc
000003a0: 92de bd3c c5e3 c43c f9e2 dbbb 61a5 133c
000003b0: 622b f5bc 4f13 a33d 0869 e53c 7829 7c3d
000003c0: dc04 4ebc 3b2d fcbc ea70 973b a37c c839
000003d0: cc4d b539 8ac5 4dbb 8521 97bc 959f 983c
000003e0: 60e8 c8bc fe2b 8cbc cdea 403d 1e23 313c
000003f0: 2c82 a13b 5216 e0bc 346b 08bd 8842 a9b9
0.032882582 0.04893771 -0.00010846014 0.015294312 0.0028684365 0.03017031 -0.00086661143 -0.027959576
-0.011706967 0.0058653625 0.004083868 -0.020738168 -0.0028018618 0.014604694 0.0035042986 -0.007838407
-0.025053065 0.050690044 -0.0014872912 0.018619092 0.02936639 0.015127652 0.028348226 0.028409775
-0.033103805 0.022975575 -0.0054027694 -0.011992394 -0.010991535 -0.015096647 0.029537145 -0.005631074
0.008774003 0.0020601437 -0.0019031892 -0.0058371 0.0047953026 0.035189014 -0.014884371 0.01765541
1.09335815e-05 0.0069993325 0.027251855 0.02925075 0.018442182 0.011615827 0.01569128 -0.023910504
0.005015141 -0.012485776 0.0060500456 -0.0040682326 0.03540355 0.0010520859 -0.012209324 -0.017493919
0.02211964 0.012539562 0.0321168 0.0352762 0.023400327 0.0154889915 0.008415702 0.021549178
-0.034863036 0.018470528 -0.017007789 -0.016578546 -0.01932598 -0.03100028 -0.010392483 -0.005224175
0.002644674 0.0023284457 -0.023848582 -0.010706545 -0.03316315 0.035992738 -0.011283063 0.021110313
0.014107797 0.0077587455 0.0044587804 0.008044776 0.024905233 0.0036405474 -0.0009229829 -0.024963867
0.007024404 -0.016040994 0.021276722 -0.008020337 0.0018720886 0.022708146 -0.014119072 -0.0018426471
-0.01870583 0.013058046 -0.0077481284 0.010102285 0.024127936 -0.060994957 -0.01685303 -0.006843399
0.004029084 0.0022914186 0.008263373 -0.023397675 0.0054442314 -0.013801006 -0.020016989 -0.0077168806
-0.0031090507 0.025617372 -0.001176087 -0.0045591732 -0.029093418 0.0067945668 0.024961216 -0.01280599
0.012003066 0.0053859665 0.034602705 0.030364715 -0.04005374 0.03221215 -0.064053744 -0.015117175
-0.0573303 -0.034340624 -0.017204639 0.015665598 0.028230568 -0.044755157 -0.055495087 -0.05374543
-0.011251355 0.021046204 -0.004152373 0.027554974 0.0050546215 -0.0036379092 -0.034281384 -0.042962786
0.03763772 -0.027812747 0.017646622 0.002382363 0.018823123 0.009086345 0.025709994 -0.030220564
-0.02534534 0.019169662 0.017300224 0.011917186 -0.00054387667 -0.011894409 0.015992604 -0.044243384
0.003041285 -0.024651026 0.025425522 0.030515354 0.039214436 0.015008387 0.0036018076 0.031234907
0.003989823 0.019173814 -0.03729944 0.014755596 0.04151879 0.013819822 -0.029179256 -0.0013989436
0.0018269216 0.010138015 0.0036586022 0.036208242 -0.010545617 -0.026245857 0.0042369673 0.0066150264
0.035151925 -0.008658691 -0.0026056813 -0.008670346 0.005183395 0.0037798085 -0.044729922 -0.0040444187
0.004645824 0.023783257 -0.051013187 0.014594948 -0.01480438 -0.0089242095 0.02342135 0.019725615
-0.01572875 -0.08194894 0.026063327 0.03462006 0.032622464 0.016472196 0.016413394 0.06569448
0.028656911 0.04228621 -0.048096504 0.020549318 0.05481248 0.016647587 0.02040772 0.029789116
0.034883626 0.0054808473 0.025655506 0.03876322 0.08503379 0.0015488873 -0.0058458764 0.029271014
0.01806915 0.041548554 0.009030085 -0.03350606 -0.0084994575 -0.027353056 0.030888887 -0.023191994
0.023177419 0.02403439 -0.006710407 0.009011597 -0.029927913 0.07962667 0.028004184 0.061562985
-0.012574401 -0.030783286 0.0046216147 0.00038239834 0.00034580973 -0.003139826 -0.0184486 0.018630782
-0.024524868 -0.01711082 0.047098923 0.010811595 0.004928848 -0.027354393 -0.033305362 -0.00032283762

loss.picnn.flows.0.icnn.Wcxs.0.bias f4 [20]
00000000: 69c0 943c 8de4 253d 87e2 0c3d 8aae 2e3d
00000010: 13b1 383d 65bd 6c3d e8c4 193d 2d0f 073d
00000020: 3720 923d 0e7e 983d e0d2 ce3d 7461 463d
00000030: 520b 983c b708 833d 8cae 933d dd79 193d
00000040: 0055 6b3d 55eb 433d 9d3d 083c 129f 92ba
0.018158155 0.040501166 0.03439572 0.042646922 0.045090746 0.05779781 0.0375413 0.032973457
0.07135051 0.07445918 0.10098815 0.048432782 0.018560085 0.063981466 0.072110265 0.037469734
0.05745411 0.047831852 0.008315471 -0.0011186323
